episodes/50/models/best_dqn_policy.pth (torch, 23192 bytes, 6 tensors)

fc1.weight f4 [64, 8]
00000000: d177 93be e228 25be 661a aa3d 584b 963e
00000010: 815f 9dbe b4b8 053e 5384 0640 827a 47be
00000020: 17d1 b8bd 242c aabe 40a2 9a3e 78de 10be
00000030: 93d5 7bbc a26a 69be de40 aebd fc55 6dbe
00000040: c1a8 1ac1 4b16 1abe 0ce5 bebe c412 4f3e
00000050: feec 963d 0d66 7b3e 083e 963f d584 04bf
00000060: 2ee2 89bd 6e2b fb3e 9559 523d 7e6a 813d
00000070: e940 8a3e 33b7 00bf 9327 f13f 374f 483d
00000080: 1d57 0b3f e505 9f3d eb83 4ebf 7ed5 afbe
00000090: d3a0 8b3e 6a51 83be ee61 41c0 7604 86bd
000000a0: 3964 97be 5ec4 72bd a8f2 1ebe 32a6 0a3e
000000b0: 2aaa 6dbd 1220 073e 7eeb 973c eaf2 f0bd
000000c0: ca12 3ebe 1a97 81be 1258 00bd 50d9 9a3d
000000d0: 89e3 84be e425 14be 3185 0d3d ba28 c13d
000000e0: 1ca8 bcbe cec8 10be d181 c1be e772 77bd
000000f0: 5481 ebbc 0e5c 043d 9e7c 6dc0 0460 353e
00000100: 7692 74be 8552 d1bd c83b 53be eda5 0fbd
00000110: a343 87be 59c2 82be 42a6 f4bd 95b3 26be
00000120: dcf2 9dbc eda3 8c3c c21b 47be 5ed3 83be
00000130: 2b5b aabd f6a3 d13d d9c3 8d3e ca96 68be
00000140: c14f 7dbf 312f 25be e883 c33e c297 e73d
00000150: 5e08 82bd 2ac7 273e beb8 07c0 7868 a8be
00000160: cde7 da3c 45d3 07bd f42b e73d 1751 90be
00000170: 5769 1bbe 7d02 aebd 44ad d23d 26b3 12be
00000180: 5f1c e23e 7497 a53d 86f9 19bf 172d 17be
00000190: 25fc 8a3e 7803 cebe 236c 00bf afe0 153e
000001a0: fd5f 953e f7f6 5fbd 7271 3a3d 2113 51bd
000001b0: 5c65 afbd 4ea9 d23c 6da9 40c0 3c64 2dbf
000001c0: 8bfa 1cbf 4db7 603e 50d4 af3e 2d24 f13d
000001d0: c03e 65be 5838 1a3f 7a3f d2bf c55a 933e
000001e0: daa9 5a3f ba19 56be 5b59 0ebf efff 0b3f
000001f0: b1c8 0bbf f14b bdbd af6c 463f 015b 063e
00000200: 05ed 7a3e 00cd 40be 56e1 003f 55b5 52bf
00000210: a414 a5bc 9f7a ab3e 2a7f 823d 1eb7 473e
00000220: c573 393f 1a5e d0bc b68d 1ebf f359 f6be
00000230: 730a d73c bf25 3fbe cfb9 0d40 2fc9 05bf
00000240: 4b2e 41be b493 c33e 3e63 90be 997a 0fbf
00000250: 63db e7be 56be 0a3e 7235 ed3f 92d2 8ebe
00000260: c882 99be ace7 dcbe 31d5 613e 363b 2f3f
00000270: 2cf9 873e c7d3 b1be 3e6a 3440 ffb1 23bf
00000280: 043b b23d cf7f 57be 57d8 b7bd 9aba aebc
00000290: 44b7 58be f71b 82be 4aac 8dbe 0fde a53e
000002a0: e966 5a3e a68d 26be 3823 20bd 661e b2bd
000002b0: c79b 17be 11ad 95be 4437 573e 3750 e7bd
000002c0: f905 e43e a44c 993e e9b4 10bf cceb e9be
000002d0: d4f8 623d 8afd fa3e 69e4 c2bf 10a4 83bd
000002e0: e892 f9be ad2c eabd f290 09bf 079e 083f
000002f0: 34ec 3fbd fa32 033e 469e 46c0 abeb a0bd
00000300: 5424 263e 057b 09be 3719 7e3e cde1 323e
00000310: 9e57 90be c886 3f3e fc0e 0f40 34b6 22bf
00000320: 0f98 733e 008c 27bf 4c11 20bc 1ab0 523f
00000330: 75d5 11be a7bf 903d 5880 76bf 0d57 123e
00000340: 334a 19bf ee5b 55bc c601 47bd ec2a 1abd
00000350: e571 de3e 72f2 74be 2b8f 96c0 d115 943e
00000360: dfd0 29be 45d9 1a3f a99b 0f3f fd2a 02bf
00000370: 112e 22be eb59 adbe 34e9 1440 b089 02bc
00000380: be87 d63f bb22 42be 7eba d8bf d367 db3e
00000390: d707 8b3d 56ee a4bd bbd6 da3f 35f1 d23e
000003a0: c0c0 db3d 2f17 73be 6962 26be 4290 33bd
000003b0: 776c aebd 5408 68bd 2d49 15bc a65e 943e
000003c0: a8a4 a6be ab0f 563d a9c7 aebd 17e3 31be
000003d0: 57fb 81bd c565 35be 120a a13d a96f 083e
000003e0: 6576 d2be d86d 64bd bd32 7a3e 6f79 0ebe
000003f0: 2ce9 d4bd 6261 64bd 378a 4140 388b fa3e
-0.2880235 -0.16128877 0.08305816 0.29354358 -0.30736926 0.1305874 2.1018264 -0.19480327
-0.09024256 -0.33236802 0.30201912 -0.14147365 -0.015370744 -0.22794583 -0.08508466 -0.23177332
-9.6662 -0.15047567 -0.37284124 0.20222002 0.073694214 0.24550648 1.173768 -0.51765186
-0.067325935 0.49056572 0.051354963 0.0631914 0.27002648 -0.5027954 1.8840202 0.04890367
0.544298 0.07764796 -0.8067004 -0.3434257 0.27271137 -0.25648052 -3.0216022 -0.065438196
-0.2956865 -0.0592693 -0.15522254 0.13539961 -0.05802361 0.13195828 0.018544909 -0.11765082
-0.18561855 -0.25310594 -0.03133399 0.0756098 -0.25954846 -0.14467579 0.03455085 0.09431596
-0.36847007 -0.14139101 -0.37794355 -0.060412314 -0.028748192 0.032314353 -3.710731 0.17712408
-0.23883995 -0.102208175 -0.20628273 -0.03507035 -0.2641879 -0.255389 -0.11945774 -0.16279443
-0.019280843 0.01716801 -0.19444183 -0.25747198 -0.0831817 0.10236351 0.27688482 -0.22713771
-0.9894982 -0.16131283 0.38186574 0.113082424 -0.06349252 0.16384569 -2.1206508 -0.32892203
0.02672186 -0.033160467 0.1128768 -0.28186867 -0.15176903 -0.08496568 0.10286954 -0.14326152
0.4416227 0.08085528 -0.6014637 -0.14763294 0.27145496 -0.4023702 -0.50165004 0.14636491
0.29174796 -0.054678883 0.045518346 -0.051043633 -0.08564255 0.025715496 -3.010341 -0.6773107
-0.613198 0.21944924 0.3434167 0.11774478 -0.22387218 0.60242224 -1.6425622 0.2878019
0.8541542 -0.20908251 -0.55605096 0.546874 -0.54603106 -0.09243 0.7750959 0.13120653
0.24504478 -0.18828201 0.50343835 -0.8230794 -0.020151444 0.3349199 0.06371911 0.19503447
0.72442275 -0.025435496 -0.61934984 -0.481155 0.0262501 -0.18666743 2.2144659 -0.52260107
-0.18865316 0.38198626 -0.28200716 -0.56046444 -0.45284566 0.1354917 1.8531935 -0.27895027
-0.2998259 -0.43145502 0.22053982 0.68449724 0.2655729 -0.34731886 2.8189845 -0.63943475
0.087026626 -0.21044849 -0.089768104 -0.021329213 -0.2116366 -0.2541196 -0.2767051 0.3239598
0.2132832 -0.16264972 -0.039096087 -0.08697204 -0.14805518 -0.29233602 0.21017176 -0.11294597
0.44535807 0.29941285 -0.56526047 -0.4568771 0.055413082 0.4902156 -1.5225955 -0.06427777
-0.48744893 -0.114343025 -0.53736794 0.5336613 -0.04685612 0.12812415 -3.1034102 -0.0785745
0.16224796 -0.13425834 0.24814306 0.17468949 -0.28191847 0.18703759 2.2352896 -0.6355927
0.23788475 -0.65448 -0.009769749 0.8229996 -0.14241584 0.07067805 -0.9628959 0.1429102
-0.59878844 -0.013022406 -0.048585676 -0.03763859 0.4344627 -0.2392061 -4.7049766 0.28922895
-0.16583584 0.60487777 0.56096894 -0.50846845 -0.15837885 -0.33857664 2.3267336 -0.007967398
1.6760175 -0.18958561 -1.6931913 0.4285265 0.06788605 -0.080532715 1.709678 0.4119965
0.107301235 -0.23739313 -0.16248478 -0.043838747 -0.08516782 -0.056648567 -0.009111685 0.2897846
-0.32547498 0.052261036 -0.08534176 -0.17371784 -0.063467674 -0.17714603 0.07863249 0.13323845
-0.41105953 -0.055768818 0.24433418 -0.1391351 -0.103960365 -0.055756934 3.024061 0.4893434

fc1.bias f4 [64]
00000000: 56a9 86be 0087 fbbc cd1e babe ab96 9abe
00000010: aa5d fb3e eb53 b2be fcc7 ef3d 4ec3 123e
00000020: b5d5 de3d 3008 92be b027 8e3e bbaa 87be
00000030: bc09 04bf ecff 263f 7122 bc3b 1482 b7be
00000040: 5152 ce3e 3c12 eebd 40f4 033e 558e 04bf
00000050: 7f4c e0bd 8e7a 2cbe 10a7 213f 8326 21be
00000060: 9b5e 0ebf d05c 643d a0b2 8e3e cf23 e3be
00000070: ab5a aebe 1f41 96be 5a3d a6be 90e9 bcbd
00000080: 9a10 a63c 1f94 84be 3548 4bbf ba02 ed3e
00000090: 3667 51be a44c 9dbe 32f3 1abe a513 44bf
000000a0: 01b1 353f d7f3 803d 8239 063d ee21 0d3f
000000b0: a8b8 6bbe f525 75bd 802c 4f3e 3a55 0e3f
000000c0: 9ad6 503e 3483 07be b55a 503e d56e 9dbe
000000d0: 2ae9 cbbd 62b5 f0be 864b adbe 0cb0 a03c
000000e0: 1aa4 48be 3428 97be 45ba aabe a347 b3be
000000f0: f248 3b3d d815 b9be 8bf8 ed3d 5d1d 66be
-0.26301068 -0.030704021 -0.36351624 -0.30193076 0.49094898 -0.3482965 0.11708066 0.14332315
0.10880605 -0.28521872 0.27764654 -0.26497445 -0.51577353 0.65234256 0.0057414104 -0.3584143
0.40297177 -0.11624572 0.12886143 -0.5177968 -0.109520905 -0.16843626 0.6314554 -0.15737347
-0.55613106 0.055752575 0.27870655 -0.44363257 -0.3405355 -0.29346558 -0.32468683 -0.09224236
0.020271588 -0.25894257 -0.79407054 0.46291143 -0.20449528 -0.30722535 -0.15131834 -0.76592475
0.7097321 0.06296509 0.032769687 0.551299 -0.2301966 -0.05985065 0.20231819 0.55598795
0.20394364 -0.13233644 0.20347102 -0.3074862 -0.09956582 -0.47013384 -0.33846682 0.019615196
-0.1959385 -0.2952286 -0.33345237 -0.35015592 0.045723863 -0.36149478 0.116196714 -0.22472139

fc2.weight f4 [64, 64]
00000000: 73b9 3f3e e005 9abb 8b8b 00c0 5ca4 ff3e
00000010: 330d 2ebe ca45 d3bd 1af5 d3bd 26c3 f5be
00000020: b039 333c e1c0 613c b579 c7bf 0a31 80bd
00000030: 17dc 0c3e d452 fcbf 64c7 c6be 62a5 2e3f
00000040: 9c57 4cbd b0be 563f 0008 073f 03b7 b23e
00000050: a899 c83d c0cf 413d a6e5 cc3e 3e9d 39bf
00000060: 6628 253d f3b0 263f 5efd 04bf dac5 97bd
00000070: 8dad 823f dc0d 4e3d ce88 8abd e970 11be
00000080: 7254 4ec1 6450 cfbd 8ed9 703e 6127 b23f
00000090: 8674 d0bd d746 bd3d 6c93 41bd a518 e63d
000000a0: aea5 56bf f7c7 86bf e414 99bd d030 f23e
000000b0: 5cf5 fdbd 8e8d 653e a0d4 eebd ad0b b93e
000000c0: 45c6 643e 65e1 0ebe 62e3 28bf 09a4 d2be
000000d0: dce6 e4bd ae9b 393f 1e9c f03d fcde 013d
000000e0: f36e bd3d 5925 38be e716 dc3e 1863 3c3d
000000f0: e91c fdbe 60c1 833e 96e2 80bf b6d2 2c3d
00000100: 0e8f 6c3e 7260 e13d 7cf2 833e df7d 923e
00000110: 390d 37bf 56c2 d8bd 4813 da3d 1ec3 79be
00000120: 006f 93bd b64d e83d b91f 603d 80e8 e4ba
00000130: 5c1e 073b ab7c 473f 13ef b73e 31fb 23bf
00000140: bf95 0f3f 70a1 e63e aa38 65be dfbc e53e
00000150: 28fe 34bd f4de b5ba 60fe c43e 14f8 92bf
00000160: 058a 0e3e 72a5 453e 6ebf a2bf cad0 243e
00000170: 4501 e53e 66c7 e73d 70b6 f53d 4024 e33e
00000180: 1fae 3640 ca7c b6bd 2fc3 3e3f d014 6dbd
00000190: 1e1c e53d 36bc ffbd 9bda f0be 4432 233f
000001a0: 0c33 bcbe 7c8f 3dbd a5c9 d5bd 7d0b 89bc
000001b0: dcf5 b7bd 743d f5bd 2222 823e d9e8 c83e
000001c0: 8ebe 89bd d45f 8f3e 5dad 1b3f 3660 153e
000001d0: f437 84bd dc47 8fbd f43a cabd 978c 8cbb
000001e0: 4c24 4abd 5359 4b3e 0b75 99bd fdfe 17bd
000001f0: 3a2b 0abf 8e9a 393e 6c2f e63d 2a8e 123f
00000200: 3ab3 bfbd 38d9 b6bc c6fb 15bf 3a12 2abe
00000210: 995d 4cbf 58c1 e33c 1067 9ebc 5f97 c6c0
00000220: dc4a 7ebd 0310 7dbd 4290 863d b850 833d
00000230: ad66 423d 8fd5 d3bf 8d03 df3e 2ecf dcbe
00000240: c64c 933e 66e4 f4be 7dfc 1fbe 03f1 49be
00000250: fcb8 8c3d f873 a4bc 6b39 8a3e 0be6 133f
00000260: b5e7 56bd d4bc fe3d edcd 03c0 b1f3 263e
00000270: cc6b 6e3f c029 bdbb 88bf d5bc 62f8 b43c
00000280: 93ac 50c1 a4cd 1dbd 295a c03e d2fc ba3e
00000290: 6cd9 06bd 3c10 f23d fae2 1cbf 5ec2 953e
000002a0: 9020 69c1 732a 84bf fc90 58bd 5ce6 9e3e
000002b0: d059 8bbd b2fc 48be d7ee 5dbd 9cc3 a73e
000002c0: dece 09bf 0315 c53e ccb5 433d 1f5b ccbe
000002d0: c0b9 78bc a1da dbbd 160e 9dbd 6e48 b7bd
000002e0: eacf c73d b3f8 863e 8806 8f3e 4126 29bf
000002f0: 440c 55bf 7ece a53e 0a68 813f 9295 2bbd
00000300: 85da 4abf a4d6 db3d dc76 2d3f 1615 85bf
00000310: b2ef 243f 4411 39bd 6042 603d 46b5 0440
00000320: 9007 9bbd 0fce 893d 3669 6e3e c470 2e3d
00000330: b78f 03bf 6023 d3bf f2e1 f33e 0f52 d1bf
00000340: 0a57 633d 47bc 02bf ba8a 07c0 d1de 2dbf
00000350: 48d6 d1bd 4eb8 c8bd 88c8 c33e 6a1d ee3f
00000360: f8db bdbd 0343 1a3f 50e0 0040 2442 5abf
00000370: 5702 a2be 40a9 0a3d 00b6 1eba 8be4 b9bf
00000380: 7470 9abf 04c8 b83d db9e bc3d 5d51 e53f
00000390: 706b d0bd 4d74 cb3a 2553 57bf b654 1b3e
000003a0: ea12 b93c 3223 cfc0 93e0 96bd 1bd3 95bf
000003b0: 6c84 fc3d 1f02 5cbf 2a1b ef3e c73a a0be
000003c0: 714d 143f cce9 60bf 1a59 a93e bc94 3f3f
000003d0: 4a76 e1bd f6a3 a3bf bc28 683d 5184 d43d
000003e0: 1092 59bd a88c e5bf 6be9 9b3e cc6b 973f
000003f0: 95a8 bc3f ee72 87bf 3d43 20bf 9df4 92bf
0.18723087 -0.0047004074 -2.008517 0.49930084 -0.16997223 -0.103160456 -0.10349484 -0.4800045
0.010939047 0.013778896 -1.5584017 -0.062593535 0.13755833 -1.9712777 -0.38823998 0.68221104
-0.04988824 0.83884716 0.5274658 0.34905252 0.097949326 0.047317266 0.40018958 -0.7250556
0.04032173 0.65113753 -0.5194911 -0.07410784 1.0209213 0.050306186 -0.06764375 -0.14203228
-12.895617 -0.10122755 0.2352049 1.3918267 -0.10178475 0.09242027 -0.047259733 0.11235169
-0.8384656 -1.0529774 -0.07474688 0.47302866 -0.12400314 0.2241728 -0.11661649 0.3614172
0.22341259 -0.13953169 -0.6597196 -0.41140774 -0.111768454 0.72503173 0.11748527 0.031706795
0.092496775 -0.17982997 0.42986223 0.04599294 -0.4943612 0.2573347 -1.0069149 0.042193137
0.23101446 0.110047236 0.25770938 0.28611657 -0.7150455 -0.10583942 0.10648209 -0.24390838
-0.07198906 0.11342947 0.054717753 -0.001746431 0.002061746 0.77924603 0.35924587 -0.6405516
0.5608787 0.45045042 -0.22384897 0.4487066 -0.044187695 -0.0013875649 0.38475323 -1.1481957
0.13919838 0.19301394 -1.271467 0.16095272 0.4472753 0.11317329 0.11997688 0.44363594
2.8543775 -0.089105204 0.74516577 -0.057881176 0.111870036 -0.1248707 -0.47041783 0.63748574
-0.36757696 -0.046279415 -0.10438851 -0.01672911 -0.08982441 -0.11974612 0.25416666 0.3924015
-0.067257985 0.280028 0.60811406 0.14587483 -0.06455985 -0.06996128 -0.09874526 -0.0042892206
-0.04935102 0.19858293 -0.07493027 -0.03710841 -0.5397221 0.18125364 0.11239514 0.57248175
-0.09360357 -0.022320375 -0.585873 -0.16608515 -0.7983032 0.027802154 -0.019336253 -6.205978
-0.06208311 -0.061782848 0.06570484 0.0641188 0.0474612 -1.6549548 0.43557397 -0.43126816
0.2876951 -0.47830504 -0.1562366 -0.19720845 0.068712205 -0.02007483 0.2699693 0.5777289
-0.052467067 0.1243836 -2.0594437 0.16303898 0.93133235 -0.0057727993 -0.026092306 0.022091094
-13.042132 -0.038526192 0.37568787 0.36521012 -0.032922193 0.11819503 -0.6128384 0.29249853
-14.57045 -1.0325454 -0.052872643 0.31035125 -0.0680424 -0.19627646 -0.054182854 0.32766426
-0.5383128 0.38492593 0.047780797 -0.3991327 -0.015181005 -0.107350595 -0.07668702 -0.08949362
0.09756453 0.26361617 0.2793467 -0.66073996 -0.8322184 0.32384104 1.0109875 -0.04189069
-0.79239684 0.10734299 0.6775949 -1.039706 0.64428246 -0.04518248 0.0547508 2.073564
-0.07569802 0.06728756 0.23282322 0.04258801 -0.51391166 -1.649517 0.4763332 -1.6353167
0.05550293 -0.5106854 -2.1178422 -0.67918116 -0.10245949 -0.09800778 0.3823893 1.8602726
-0.09270471 0.602585 2.013691 -0.8525717 -0.3164241 0.033852816 -0.0006054342 -1.4522871
-1.2065568 0.09022525 0.09209987 1.7915455 -0.10176742 0.0015522331 -0.84111243 0.15169033
0.022592027 -6.4730463 -0.07367053 -1.1705049 0.12329945 -0.85940737 0.46700412 -0.31294844
0.57930666 -0.87856746 0.33075792 0.74836326 -0.1100889 -1.2784412 0.056679472 0.103768
-0.05311781 -1.793355 0.3045152 1.1829772 1.4738947 -1.0581949 -0.626026 -1.14809

fc2.bias f4 [64]
00000000: ee23 153d da56 653f d61c 0c3e 29e9 043e
00000010: f781 0fbe 4a15 ac3c 3a31 2ebe 956a 7fbc
00000020: 7a57 973f 97f4 1cbe fd9f ca3e 10db 4d3d
00000030: a252 0fbe 5c24 b73e 7bed 393c 5daf 913d
00000040: f3d4 cfbd f2e2 ff3b 773d aebd b558 5fbd
00000050: 16d5 22bd 06a6 7d3d aa75 9bbd b048 d93e
00000060: 4f0e a83f 65dd 88bc feb6 32bd 9866 8a3f
00000070: db26 1f3e afac 8a3f cdf2 d7bd 8496 cc3c
00000080: b39e 623f 3c9e cd3b e979 653f 42b9 01be
00000090: 3d3e 973e 44a5 4abd e145 3e3d 7747 81bc
000000a0: 449c 04be c0be 2abf d28d 73bd d49b 903f
000000b0: da41 973f 4e72 5c3d 615d c93c de83 403d
000000c0: 9439 f7bc 9354 1ebe b1e4 953b 34f2 973d
000000d0: b582 87bd 5c0d 36bd 9ffe 123f 6f0e b7be
000000e0: 383e 8ebc d095 d63b 5d09 eb3e c326 99bd
000000f0: a8d0 c8bc d229 41bc 4c04 ab3c a910 1bbd
0.03641122 0.8958565 0.13682875 0.12979569 -0.14014421 0.021006245 -0.17010966 -0.015589376
1.1823571 -0.15327679 0.39575186 0.050257742 -0.13996366 0.35769928 0.011348124 0.07113526
-0.10148039 0.0078090364 -0.08507817 -0.054527957 -0.039753996 0.06192591 -0.07590802 0.4243827
1.3129367 -0.016707132 -0.043631546 1.0812559 0.15542166 1.0833949 -0.105443574 0.024974115
0.88523406 0.0062749665 0.89639145 -0.12668326 0.29539672 -0.049474016 0.04645336 -0.015781147
-0.12950236 -0.6669731 -0.059461422 1.1297555 1.1816971 0.053819947 0.02458066 0.04700076
-0.030178823 -0.1546195 0.0045743813 0.074192435 -0.06616727 -0.044446334 0.5741977 -0.357532
-0.017363653 0.0065486208 0.4590558 -0.07478096 -0.024513558 -0.011789756 0.020876072 -0.037857685

fc3.weight f4 [6, 64]
00000000: a52b 02bf 2399 a93e 98da e0bf 7a6e 933f
00000010: da8a b83d c85d b5be 3d85 8f3d 4ee1 1b39
00000020: 5042 683f 70b9 c4bd f421 1f3f 7535 ab3e
00000030: b989 c9bd 4e15 e3bf c0cb b2bd 85c3 e0be
00000040: b660 7bbf f4cb 09c0 cdc3 df3d 6d2e 06bd
00000050: b125 a03d e6b6 e2bd 7ea1 43bd 79c0 8c3f
00000060: 4267 063f bd73 373d fea1 dcbc ef88 653f
00000070: f676 09bf f3a6 423f 06a0 c1bd 93c9 16bd
00000080: eaf1 003f 230b cb3d 3b3d c93f 9782 4f3d
00000090: e9a0 003f b433 a2bd 0da5 493a 037c ddbe
000000a0: 01c7 073b 8f53 5cbf 9875 dcbd 9a91 113f
000000b0: 94e1 e83e 9a46 f73c 0058 25bd ae4e d23d
000000c0: f818 04c0 c047 73bc 53fc e7be ce84 883f
000000d0: 7071 033d 7fc3 67bf 1cbf 5c3f 631a 503f
000000e0: 9012 2e3c 2b06 82bf c955 a73f 900a 83bd
000000f0: 5316 dbbd aa59 67bf b46e 693d 8067 2fbc
00000100: 2cbc cb3f cd94 ee3e ec3d 1ebe e73f 123f
00000110: d6a2 e6bd a9b8 0dbf f006 763c 949f ab3d
00000120: 3afc 1e3f c01f d7bc 09af 3640 50a4 cebf
00000130: feeb 92bd 06df ffbf 4fdb acbd 55b8 7fbf
00000140: 0bee 3d3f acc7 03c0 b9c8 0bbd 8e26 09bd
00000150: bbec 1ebb 687d ce3d b424 b5b8 c7b8 3540
00000160: 4de0 d33e 46c5 b0bd a115 1c3d ea51 ab3f
00000170: 5516 32be 6bcb 863f 34a2 d23d 88d8 b3bd
00000180: bb31 d93e 1088 6dbe 7daa 6b3e 0d7b c43d
00000190: 5bd4 1040 ac42 cc3d bb8c b4bd 6acf 8a3f
000001a0: b4d7 0fbc ac28 6ebf f0ba 803d 8160 213f
000001b0: 488d e63e 0750 55bd 4cda febd 2bbc 333c
000001c0: 6f7f 29c0 5058 973d 4922 e6be a68e be3e
000001d0: fc7e d23d 3c8a 61bf 7ea2 d13f b370 e63e
000001e0: a8bd d23c 5773 963b 1f71 cc3f 8c30 e43e
000001f0: 4858 88ba 6b68 fcbf d463 71bd 6ea4 6bbd
00000200: 1485 ecbf cb91 d23e a17a 23c0 952a da3e
00000210: 1c04 283d 19f8 1e3f 40f0 393b da90 923d
00000220: 403d 663f 8000 e23c 0b3a babf fe2b de3f
00000230: 8440 0e3d 2e55 4fbf e68f aabd 8b4d aebe
00000240: ae08 e03e e97b a2bf d4c5 ba3d 08d5 bebc
00000250: e879 f53c 8a99 de3d 40f4 563d 693d cb3f
00000260: 31f6 2f3f 80b7 b13d 4196 af3a 7670 013f
00000270: 7520 9cbf b511 213f d41a 02bd 00bd 173d
00000280: 35ce ad3e 1548 473f 5192 0240 e7f1 63bc
00000290: fe8c 91bf 3c2b 2dbd 4c9b 8b3d 50c8 c6be
000002a0: 2488 2ebd 71f2 c4bf 406a c3bd 4027 d33e
000002b0: f21a 113f d364 4e3d 6fab 753c 88fe 2bbd
000002c0: ada6 edbf 5093 7abd 1f8d a9be 795f 0240
000002d0: 1c4e 883d a561 58bf f638 b0bd 4bfd 213f
000002e0: 0a9d 81bd 4320 03bf 9a9a 573f f9a3 773e
000002f0: 5629 313d 3a5b a83d b81b 37bd f195 f93c
00000300: f71d 40be a6a6 a53e 12fb f9bf 72f1 7a3f
00000310: f41e 1c3d dbd1 a83f f016 2bbd a470 18bd
00000320: 0914 513f 19ee 97bd 9257 0d3e c98d 8dbe
00000330: 1af4 cbbd 89af d4bf a401 813d 03d4 073d
00000340: d99a 26be 33f4 07c0 ce73 46bd e909 a6bc
00000350: 6e1e 4fbd bd43 c03c be8e 29bc 0483 1340
00000360: c325 063f 50a3 a83d 239f 8cbd d406 bb3f
00000370: 8ffa e63f 1cf2 9a3f ccae fb3d 00a9 26bd
00000380: b9ce ea3e e6db f83d e7b3 b43f 1f49 d63d
00000390: b754 663f d825 ef3d 614d e7bd f8f4 b740
000003a0: 0097 44bd 7a4b b4bf 7045 19bd 4e61 b23e
000003b0: 8ef1 eb3e 3d85 84bc 70fc 36bd 353b 28bd
000003c0: 4ce8 06c0 0c32 953d d832 c1bf 6701 993f
000003d0: 16a3 c1bd af6c c43e 7c21 dc3e 8428 5c3f
000003e0: faf6 823d 0eee e0bd f1ab aa3f 05f0 d8be
000003f0: ec6e 58bd f956 18bf 529d e5bd a59a ac3d
-0.50847846 0.33124647 -1.756671 1.151809 0.09010859 -0.35423112 0.07007835 0.00014865884
0.90726185 -0.09605682 0.62161183 0.33439222 -0.09840722 -1.7740877 -0.087302685 -0.4389917
-0.98194444 -2.1530733 0.10926018 -0.03275912 0.07819689 -0.11070041 -0.047761433 1.0996238
0.5250131 0.04478811 -0.026932713 0.8966207 -0.53697145 0.76035994 -0.0945435 -0.03681333
0.5036913 0.099142335 1.5721811 0.05066165 0.5024553 -0.07920018 0.0007692136 -0.43258676
0.002071798 -0.86065 -0.10764617 0.56862795 0.45484602 0.030185033 -0.040367126 0.10268913
-2.064024 -0.0148486495 -0.45309696 1.0665529 0.032090604 -0.9053268 0.8622911 0.8129026
0.010624543 -1.0158132 1.3073055 -0.06398499 -0.106976174 -0.9037119 0.05699034 -0.010705829
1.59168 0.465979 -0.15453309 0.5712876 -0.11261527 -0.55359894 0.0150163025 0.083800465
0.6210362 -0.026260257 2.8544333 -1.6143894 -0.07173918 -1.9989936 -0.08440267 -0.99890643
0.7419135 -2.059062 -0.03412697 -0.033484034 -0.002424999 0.10082513 -8.637589e-05 2.839403
0.41382065 -0.08631377 0.038106564 1.3384373 -0.17391331 1.0530828 0.10284844 -0.087815344
0.42420754 -0.23196435 0.23014255 0.095937826 2.2629611 0.09973654 -0.08815905 1.0844548
-0.008779455 -0.9303081 0.062856555 0.6303788 0.45029664 -0.052078273 -0.124439806 0.010970156
-2.648403 0.07389891 -0.44948032 0.37218207 0.102781266 -0.88101554 1.6377714 0.45007858
0.0257252 0.0045913863 1.5972022 0.44568288 -0.0010402286 -1.9719366 -0.058933094 -0.05752986
-1.8478112 0.41126856 -2.5543597 0.42610613 0.041019544 0.62097317 0.002837196 0.071565345
0.8993721 0.027588129 -1.4548963 1.7357175 0.034729496 -0.8098935 -0.08328228 -0.34043536
0.43756622 -1.2694064 0.09119764 -0.02329494 0.029965356 0.10869129 0.05247903 1.5878116
0.68735033 0.08677578 0.001339622 0.50562227 -1.2197405 0.62917644 -0.031763867 0.03704548
0.33946386 0.77844363 2.0401804 -0.0139126545 -1.1371152 -0.04227756 0.0681673 -0.388247
-0.042610303 -1.5386487 -0.0954175 0.41240883 0.5668174 0.050389122 0.014994486 -0.041990787
-1.856649 -0.061175644 -0.3311548 2.0370772 0.06655523 -0.84523994 -0.086046144 0.6327712
-0.06328781 -0.512211 0.8422028 0.24183644 0.04325231 0.08220525 -0.04470417 0.030467005
-0.1876143 0.32353705 -1.9529746 0.98024666 0.038115457 1.3189043 -0.04176992 -0.037216797
0.81671196 -0.074184604 0.13802937 -0.27647236 -0.09958668 -1.6616069 0.06299141 0.033161175
-0.16270007 -2.1242797 -0.048450284 -0.020268397 -0.05056613 0.0234698 -0.010348974 2.3048716
0.5240137 0.082342744 -0.068662904 1.4611459 1.8045214 1.2105136 0.12289199 -0.040688515
0.45860842 0.12151317 1.4117402 0.104631655 0.89973015 0.1167714 -0.11294056 5.7486534
-0.047995567 -1.4085534 -0.037419736 0.34839863 0.4608273 -0.016176814 -0.044674337 -0.04107209
-2.1079283 0.07284936 -1.5093641 1.1953553 -0.09454934 0.3836417 0.42994297 0.8599932
0.06394763 -0.10982905 1.3333722 -0.4237062 -0.05284016 -0.5950771 -0.11211647 0.084279336

fc3.bias f4 [6]
00000000: 021e 1f3f 01c7 153f 82d9 7b3f eeb2 1e3f
00000010: 55db 953f 59fb 253f
0.62155163 0.5850678 0.98378766 0.61991775 1.170756 0.6483665
