episodes/50/models/dqn_policy.pth (torch, 23142 bytes, 6 tensors)

fc1.weight f4 [64, 8]
0	0xc056e3a1	-3.3576434
1	0xbf065522	-0.5247365
2	0xbf94d4c8	-1.1627436
3	0x3f58910c	0.84596324
4	0x3e080f47	0.13287078
5	0xbf335c5c	-0.70062804
6	0x3fe61577	1.79753
7	0xbea57081	-0.32312396
8	0xbdb8d117	-0.09024256
9	0xbeaa2c24	-0.33236802
10	0x3e9aa240	0.30201912
11	0xbe10de78	-0.14147365
12	0xbc7bd593	-0.015370744
13	0xbe696aa2	-0.22794583
14	0xbdae40de	-0.08508466
15	0xbe6d55fc	-0.23177332
16	0xc1da371f	-27.276915
17	0x3eb98d04	0.362404
18	0x3e2b115c	0.16705841
19	0xbdbe4391	-0.09290231
20	0x3d6fff71	0.058593217
21	0x3e92f575	0.28702894
22	0xbe9c04ba	-0.30472356
23	0xbf0484d5	-0.51765186
24	0xc0541ca6	-3.3142486
25	0xbbd0c493	-0.0063710897
26	0x3d7fa994	0.06241758
27	0xbf068035	-0.5253938
28	0x3f09f7f7	0.5389399
29	0xbfa4174d	-1.2819611
30	0x3faa8fcd	1.3325135
31	0x3edf7d2d	0.4365019
32	0x3f047a5c	0.51749206
33	0xbda0d2a6	-0.07852678
34	0xbfa4e600	-1.288269
35	0xbe9f9cdd	-0.31174365
36	0x3e548f14	0.20757705
37	0xbf1e84e8	-0.6192155
38	0xc06b3ceb	-3.6755931
39	0x3cb82fb8	0.022483692
40	0xbe976439	-0.2956865
41	0xbd72c45e	-0.0592693
42	0xbe1ef2a8	-0.15522254
43	0x3e0aa632	0.13539961
44	0xbd6daa2a	-0.05802361
45	0x3e072012	0.13195828
46	0x3c97eb7e	0.018544909
47	0xbdf0f2ea	-0.11765082
48	0xbe3e12ca	-0.18561855
49	0xbe81971a	-0.25310594
50	0xbd005812	-0.03133399
51	0x3d9ad950	0.0756098
52	0xbe84e389	-0.25954846
53	0xbe1425e4	-0.14467579
54	0x3d0d8531	0.03455085
55	0x3dc128ba	0.09431596
56	0xbebca81c	-0.36847007
57	0xbe10c8ce	-0.14139101
58	0xbec181d1	-0.37794355
59	0xbd7772e7	-0.060412314
60	0xbceb8154	-0.028748192
61	0x3d045c0e	0.032314353
62	0xc06d7c9e	-3.710731
63	0x3e356004	0.17712408
64	0xbe749276	-0.23883995
65	0xbdd15285	-0.102208175
66	0xbe533bc8	-0.20628273
67	0xbd0fa5ed	-0.03507035
68	0xbe8743a3	-0.2641879
69	0xbe82c259	-0.255389
70	0xbdf4a642	-0.11945774
71	0xbe26b395	-0.16279443
72	0xbc9df2dc	-0.019280843
73	0x3c8ca3ed	0.01716801
74	0xbe471bc2	-0.19444183
75	0xbe83d35e	-0.25747198
76	0xbdaa5b2b	-0.0831817
77	0x3dd1a3f6	0.10236351
78	0x3e8dc3d9	0.27688482
79	0xbe6896ca	-0.22713771
80	0xbf7c5dba	-0.98580515
81	0xbe451ae9	-0.19248547
82	0x3eaea8ae	0.34113067
83	0x3d9f95f5	0.07792274
84	0xbdcdb5d3	-0.10044446
85	0x3e08dbee	0.13365147
86	0xc00a00a0	-2.1562881
87	0xbea86878	-0.32892203
88	0x3cdae7cd	0.02672186
89	0xbd07d345	-0.033160467
90	0x3de72bf4	0.1128768
91	0xbe905117	-0.28186867
92	0xbe1b6957	-0.15176903
93	0xbdae027d	-0.08496568
94	0x3dd2ad44	0.10286954
95	0xbe12b326	-0.14326152
96	0x3ee21c5f	0.4416227
97	0x3da59774	0.08085528
98	0xbf19f986	-0.6014637
99	0xbe172d17	-0.14763294
100	0x3e8afc25	0.27145496
101	0xbece0378	-0.4023702
102	0xbf006c23	-0.50165004
103	0x3e15e0af	0.14636491
104	0x3e5d10f9	0.21588506
105	0x3d34224d	0.043978024
106	0x3bbe3394	0.0058044884
107	0xbe051a40	-0.12998295
108	0x3d0e13b0	0.034686744
109	0x3bbaad78	0.0056969486
110	0xc08c5231	-4.385033
111	0xbf7b8615	-0.9825147
112	0xbea09e5d	-0.31370822
113	0x3e0d44e1	0.13795806
114	0xbf1fa500	-0.62361145
115	0x3f515ac7	0.8177914
116	0xbde83892	-0.11338915
117	0x3f447a3e	0.76749027
118	0xc0ab39d8	-5.350811
119	0x3eb1b3a8	0.3470738
120	0x3e6f7fe2	0.23388627
121	0xbe2e8b86	-0.17045411
122	0xbfc7cd10	-1.5609455
123	0x3f28b965	0.6590789
124	0xbfb795a9	-1.4342548
125	0xbf41b76d	-0.7567051
126	0xbdae8dca	-0.08523138
127	0x3f0d9509	0.55305535
128	0xbebabc23	-0.36471662
129	0xbef229e8	-0.47297597
130	0x3f3f55c7	0.7474026
131	0xbf8be8c1	-1.0930406
132	0x3e017ece	0.12646028
133	0x3e82bddc	0.25535476
134	0xbf1f4910	-0.6222086
135	0x3ebbc9c4	0.36677372
136	0x3f8721d2	1.0557196
137	0xbdbc9cf2	-0.092096224
138	0xbf9be63a	-1.2179635
139	0xbed715aa	-0.42008716
140	0xbd13f47e	-0.036121838
141	0xbe1ac24c	-0.15113181
142	0x40418ea3	3.0243309
143	0xbf05c92f	-0.52260107
144	0x3f861f58	1.0478315
145	0x3ebfb6fd	0.37444296
146	0xbf25c0da	-0.64747393
147	0xbf7635d6	-0.961759
148	0xbecc46bc	-0.39897716
149	0xbf44882e	-0.76770294
150	0x3ff1c6f0	1.8888836
151	0x3f22c0f0	0.6357565
152	0x3dab0ff8	0.08352655
153	0xbf40e51f	-0.7534961
154	0x3e8ea592	0.27860695
155	0x3f57214c	0.8403518
156	0x3eef1575	0.46696058
157	0xbed39194	-0.41322005
158	0x40561cd3	3.3455093
159	0xbf37513c	-0.7160833
160	0x3db23b04	0.087026626
161	0xbe577fcf	-0.21044849
162	0xbdb7d857	-0.089768104
163	0xbcaeba9a	-0.021329213
164	0xbe58b744	-0.2116366
165	0xbe821bf7	-0.2541196
166	0xbe8dac4a	-0.2767051
167	0x3ea5de0f	0.3239598
168	0x3e5a66e9	0.2132832
169	0xbe268da6	-0.16264972
170	0xbd202338	-0.039096087
171	0xbdb21e66	-0.08697204
172	0xbe179bc7	-0.14805518
173	0xbe95ad11	-0.29233602
174	0x3e573744	0.21017176
175	0xbde75037	-0.11294597
176	0x3fbf468e	1.4943407
177	0x3e1a1044	0.15045267
178	0xbfa39e2b	-1.2782644
179	0xbf54f326	-0.83183515
180	0x3e3e8330	0.18604732
181	0x3ebede95	0.37279192
182	0xc04002e7	-3.0001771
183	0x3e5feb7d	0.21867175
184	0xbf863073	-1.0483536
185	0xbc4a9741	-0.012365163
186	0xbf7ca497	-0.98688644
187	0x3f1df533	0.6170227
188	0xbe155849	-0.1458446
189	0x3e99649c	0.2995957
190	0xc05d666c	-3.4593763
191	0x3c3ff00d	0.011714947
192	0xbdefab3b	-0.117025815
193	0xbe3af82a	-0.1825873
194	0x3d988a66	0.074482724
195	0xbf22fce7	-0.6366715
196	0xbe02dcf5	-0.12779601
197	0xbcf60033	-0.030029392
198	0x40410bf4	3.0163546
199	0xbf39d77b	-0.7259442
200	0xbe470101	-0.19433977
201	0xbf5f5b7c	-0.8724897
202	0xbe02fcdb	-0.12791769
203	0x3f9a7458	1.2066755
204	0xbf1a74b9	-0.60334355
205	0xbc7a83ff	-0.015290259
206	0xbff31b67	-1.8992738
207	0xbf00e594	-0.5035031
208	0xbfaa169c	-1.328815
209	0x3e602031	0.2188728
210	0xbf8da7b5	-1.1066805
211	0x3e8c1b64	0.27364647
212	0x3f388141	0.72072226
213	0xbf37ca53	-0.717931
214	0xc0ee5296	-7.4475813
215	0x3df69d9a	0.12041779
216	0xbedee031	-0.4353042
217	0x3f8ce763	1.1008114
218	0x3e4b5b10	0.19858956
219	0xbf17d210	-0.59304905
220	0xbd5ed99e	-0.054406755
221	0xbea7992b	-0.32734045
222	0x40501aa2	3.2516255
223	0x3df74b52	0.12074913
224	0x401ec886	2.480989
225	0xbe8823e1	-0.26589873
226	0xc01b4180	-2.4258728
227	0x3f1cf345	0.613087
228	0x3da859d7	0.082202606
229	0xbd0c2cf6	-0.034222566
230	0x400746d9	2.1136992
231	0x3edb8ae0	0.4287939
232	0x3ddbc0c0	0.107301235
233	0xbe73172f	-0.23739313
234	0xbe266269	-0.16248478
235	0xbd339042	-0.043838747
236	0xbdae6c77	-0.08516782
237	0xbd680854	-0.056648567
238	0xbc15492d	-0.009111685
239	0x3e945ea6	0.2897846
240	0xbea6a4a8	-0.32547498
241	0x3d560fab	0.052261036
242	0xbdaec7a9	-0.08534176
243	0xbe31e317	-0.17371784
244	0xbd81fb57	-0.063467674
245	0xbe3565c5	-0.17714603
246	0x3da10a12	0.07863249
247	0x3e086fa9	0.13323845
248	0xbf78100a	-0.96899474
249	0xbe76d1e6	-0.24103507
250	0x3f4935ea	0.7859789
251	0xbe5b0d60	-0.21391821
252	0xbe6f81ce	-0.2338936
253	0x3cb766b8	0.022387847
254	0x40974c01	4.728028
255	0x3f682f84	0.90697503

fc1.bias f4 [64]
0	0xbe2d4521	-0.16920902
1	0xbcfb8700	-0.030704021
2	0xbea5e1e7	-0.32398912
3	0xbf3931eb	-0.72341794
4	0x3e91f4ec	0.28507173
5	0xbeb253eb	-0.3482965
6	0x3defc7fc	0.11708066
7	0x3e12c34e	0.14332315
8	0x3dded5b5	0.10880605
9	0xbe920830	-0.28521872
10	0x3e7ad310	0.24494576
11	0xbe87aabb	-0.26497445
12	0xbf0409bc	-0.51577353
13	0x3f7bdec2	0.98386776
14	0xbeb8cdae	-0.3609442
15	0xbe44052f	-0.19142602
16	0x3f6d3fdd	0.9267557
17	0xbdedd76a	-0.116133526
18	0x3f20adc9	0.62765175
19	0xbf51551f	-0.8177051
20	0xbde04c7f	-0.109520905
21	0xbe2c7a8e	-0.16843626
22	0x3f3456e2	0.7044507
23	0xbd7d59b6	-0.061853133
24	0xbe22dd2e	-0.15904686
25	0x3a9bef9f	0.0011896974
26	0x3eaa77d0	0.33294535
27	0xbf1e933c	-0.6194341
28	0xbf1194b3	-0.5686752
29	0xbe96411f	-0.29346558
30	0xbea63d5a	-0.32468683
31	0xbea05d05	-0.31320968
32	0x3e4f354f	0.2023518
33	0xbe84941f	-0.25894257
34	0xbf9a6a09	-1.2063609
35	0x3ecc0bc7	0.39852735
36	0xbe516736	-0.20449528
37	0xbe9d4ca4	-0.30722535
38	0xbe1af332	-0.15131834
39	0xbf6a8683	-0.916115
40	0x3f6874cf	0.90803236
41	0xbe8c5b20	-0.27413273
42	0x3d063982	0.032769687
43	0x3ed659f4	0.41865504
44	0xbe6bb8a8	-0.2301966
45	0xbf15a460	-0.5845394
46	0x3e6c60f9	0.23083867
47	0x3f2d9e0b	0.6781928
48	0x3e50d69a	0.20394364
49	0xbd61734f	-0.055041607
50	0x3f7a9efb	0.97898835
51	0xbed687f4	-0.419006
52	0xbdcbe92a	-0.09956582
53	0xbf3cb9d6	-0.73721063
54	0xbead4b86	-0.33846682
55	0x3ca0b00c	0.019615196
56	0xbe48a41a	-0.1959385
57	0xbe466f77	-0.19378458
58	0xbeaaba45	-0.33345237
59	0xbed718e0	-0.42011166
60	0x3c64b051	0.013958053
61	0xbed21cef	-0.410377
62	0xbdf88bf4	-0.12136069
63	0xbf40e363	-0.75346965

fc2.weight f4 [64, 64]
0	0xbf3160da	-0.6928841
1	0xbb9a05e0	-0.0047004074
2	0xc015cd66	-2.3406615
3	0x3fa0ec4c	1.2572112
4	0x3f8c5831	1.0964414
5	0xbdd345ca	-0.103160456
6	0xbdd3f51a	-0.10349484
7	0xbef5c326	-0.4800045
8	0x3c3339b0	0.010939047
9	0x3c61c0e1	0.013778896
10	0xbfb7263d	-1.4308544
11	0xbd80310a	-0.062593535
12	0x3e0cdc17	0.13755833
13	0xbfe17864	-1.7614865
14	0xbda44e94	-0.080228
15	0x3fac493a	1.3459847
16	0xbf2a82b2	-0.66605675
17	0x3f802414	1.001101
18	0x3ecf6bc3	0.40511903
19	0x3f566943	0.83754367
20	0x3dc899a8	0.097949326
21	0x3d41cfc0	0.047317266
22	0x3e6a6085	0.22888382
23	0xbf437164	-0.76344895
24	0x3ebf4723	0.3735896
25	0x3f25e84c	0.6480758
26	0xbf742413	-0.95367545
27	0xbee701ce	-0.45118564
28	0x3fd5ebc0	1.671257
29	0x3d4e0ddc	0.050306186
30	0xbd8a88ce	-0.06764375
31	0x3efa94be	0.48941606
32	0xc14b6f00	-12.7146
33	0xbdcf5064	-0.10122755
34	0x3fa04ceb	1.2523474
35	0x3fa93921	1.3220559
36	0xbdd07486	-0.10178475
37	0x3dbd46d7	0.09242027
38	0xbd41936c	-0.047259733
39	0x3f05da15	0.5228589
40	0xbf9aa24a	-1.2080777
41	0xbf83a15d	-1.0283619
42	0xbd9914e4	-0.07474688
43	0x3d570fc5	0.052505273
44	0xbdfdf55c	-0.12400314
45	0x3efea122	0.4973231
46	0xbf5ed2b3	-0.8704025
47	0x3f36f2cd	0.71464235
48	0x3e64c645	0.22341259
49	0xbe986811	-0.29766896
50	0xbfb8e1d7	-1.4443921
51	0xbf633a9a	-0.88761294
52	0xbde4e6dc	-0.111768454
53	0x3e63c96a	0.22244802
54	0x3df09c1e	0.11748527
55	0x3d01defc	0.031706795
56	0x3dbd6ef3	0.092496775
57	0xbe8d874f	-0.27642295
58	0x3edc16e7	0.42986223
59	0x3f748661	0.95517546
60	0xbefd1ce9	-0.4943612
61	0x3eddcc4f	0.43319938
62	0xbf9bfa52	-1.2185767
63	0x3e666376	0.22498879
64	0xbf188ffe	-0.59594715
65	0x3de16072	0.110047236
66	0xbfabc729	-1.3420154
67	0x3e37a1f6	0.17932877
68	0xbe671692	-0.22567204
69	0xbdd8c256	-0.10583942
70	0x3dda1348	0.10648209
71	0xbe79c31e	-0.24390838
72	0xbd936f00	-0.07198906
73	0x3de84db6	0.11342947
74	0x3d99137a	0.07474418
75	0xbae4e880	-0.001746431
76	0x3b071e5c	0.002061746
77	0x3eb96599	0.36210325
78	0xbef6b087	-0.48181555
79	0xbf4fabeb	-0.811217
80	0x3f231b21	0.6371327
81	0xbe9c4e99	-0.30528715
82	0x3def4100	0.1168232
83	0xbc99b4a8	-0.018762901
84	0xbd34fe28	-0.044187695
85	0xbab5def4	-0.0013875649
86	0x3f0f38b6	0.5594591
87	0xbfe46846	-1.7844322
88	0xbe9a6092	-0.30151802
89	0x3f00c9be	0.50307834
90	0xbf90af97	-1.1303586
91	0xbe874e0d	-0.26426736
92	0xbe163ace	-0.1467087
93	0x3de7c766	0.11317329
94	0x3df5b670	0.11997688
95	0xbe2eac5d	-0.17057939
96	0x3ddd032c	0.107916206
97	0xbdb67cca	-0.089105204
98	0xbd9deebe	-0.07711552
99	0x3ebd96d0	0.37029123
100	0x3de51c1e	0.111870036
101	0xbdffbc36	-0.1248707
102	0xbef0da9b	-0.47041783
103	0xbdc296b8	-0.095014036
104	0xbe9c0020	-0.30468845
105	0xbf320dc4	-0.69552255
106	0xbdd5c9a5	-0.10438851
107	0x3e520f4a	0.20513645
108	0xbdb7f5dc	-0.08982441
109	0xbf663613	-0.8992626
110	0x3f113c05	0.5673221
111	0x3e995eb3	0.29955062
112	0xbd89be8e	-0.067257985
113	0x3e247ae7	0.16062509
114	0x3eee322d	0.46522656
115	0xbe7bec1b	-0.24601786
116	0xbd8437f4	-0.06455985
117	0xbefd3c47	-0.4946005
118	0xbdca3af4	-0.09874526
119	0xbb8c8c97	-0.0042892206
120	0xbd4a244c	-0.04935102
121	0xbf43074c	-0.7618301
122	0xbd99750b	-0.07493027
123	0xbe8b6ddd	-0.27232257
124	0xbf020a0f	-0.507966
125	0xbdfa6f19	-0.122282214
126	0x3ecee40c	0.4040836
127	0x3dbb20a0	0.09137082
128	0x3f1b4223	0.6064779
129	0xbcb6d938	-0.022320375
130	0xbf663020	-0.8991718
131	0xbfcf3605	-1.618836
132	0x3f3f87fc	0.7481687
133	0x3ce3c158	0.027802154
134	0xbc9e6710	-0.019336253
135	0xc0c6975f	-6.205978
136	0xbd7e4adc	-0.06208311
137	0xbd7d1003	-0.061782848
138	0x3d6fc923	0.05854143
139	0x3d8350b8	0.0641188
140	0x3d4266ad	0.0474612
141	0xbfa0a991	-1.2551748
142	0xbecfdb2e	-0.40596908
143	0x3f0ed1da	0.5578896
144	0xbf0a4163	-0.5400602
145	0x3ef97ce1	0.48728088
146	0x3d9c4781	0.07630826
147	0x3f25c44a	0.6475264
148	0x3d8cb8fc	0.068712205
149	0xbca473f8	-0.02007483
150	0x3d23f0a5	0.04002442
151	0x3f09095f	0.53529924
152	0x3f18c575	0.59676296
153	0x3eb84217	0.35987923
154	0xbfa8e13b	-1.3193735
155	0x3bbf496a	0.005837609
156	0x3ecccd75	0.400005
157	0xbbbd29c0	-0.0057727993
158	0xbcd5bf88	-0.026092306
159	0xbbaa0e09	-0.0051896614
160	0xc0ff6082	-7.9805307
161	0xbd1dcda4	-0.038526192
162	0x3df5610e	0.11981402
163	0x3f0a80f8	0.5410304
164	0xbd06d96c	-0.032922193
165	0x3df2103c	0.11819503
166	0xbf1ce2fa	-0.6128384
167	0x3d0aedc7	0.03391817
168	0xc12650d0	-10.39473
169	0xbeb4372d	-0.35198346
170	0xbd5890fc	-0.052872643
171	0xbe86f213	-0.26356563
172	0xbd8b59d0	-0.0680424
173	0x4004a658	2.0726528
174	0xbe399313	-0.1812251
175	0x3f2f3ddf	0.6845378
176	0xbf09cede	-0.5383128
177	0x3f4a0fb4	0.7893021
178	0x3f25d06d	0.6477116
179	0xbf8eb698	-1.1149473
180	0xbc78b9c0	-0.015181005
181	0xbf4be6a7	-0.7964882
182	0xbd9d0e16	-0.07668702
183	0xbdb7486e	-0.08949362
184	0x3dc7cfea	0.09756453
185	0x3ee64798	0.44976497
186	0x3e8f0688	0.2793467
187	0x3f0fb608	0.5613713
188	0xbf550c44	-0.8322184
189	0xbed0243b	-0.40652642
190	0x3fcc7c89	1.5975505
191	0xbedf7d06	-0.43650073
192	0xbdf4ae8a	-0.11947353
193	0x3ddbd6a4	0.10734299
194	0x3f642164	0.8911345
195	0xbeb133e6	-0.34609908
196	0x3e1e73f5	0.15473922
197	0xbd391144	-0.04518248
198	0x3d604260	0.0547508
199	0x4004b546	2.073564
200	0xbd9b0790	-0.07569802
201	0x3d89ce0f	0.06728756
202	0x3e6e6936	0.23282322
203	0x3d2e70c4	0.04258801
204	0xbf038fb7	-0.51391166
205	0xc0332d7d	-2.7996514
206	0x3e3c3cd0	0.18382573
207	0xbf85949a	-1.0435975
208	0xbf0272e5	-0.50956565
209	0xbf9a0c5b	-1.203502
210	0xbff32b76	-1.8997638
211	0xc001f26e	-2.0304217
212	0xbdd1d648	-0.10245949
213	0xbdc8b84e	-0.09800778
214	0x3e167783	0.14694028
215	0x3fc3eca2	1.530659
216	0xbe2f7732	-0.17135313
217	0x3d81c3f6	0.06336205
218	0x400df962	2.218346
219	0xbfa16d63	-1.2611507
220	0xbf1bf097	-0.60913986
221	0x3d0aa940	0.033852816
222	0xba1eb600	-0.0006054342
223	0xbf8b8bf6	-1.0902088
224	0xc03c9db3	-2.9471252
225	0x3db8c804	0.09022525
226	0x3d2271a2	0.03965915
227	0x3fcd81c1	1.6055223
228	0xbdd06b70	-0.10176742
229	0x3acb744d	0.0015522331
230	0xbf575325	-0.84111243
231	0xbde9dc4c	-0.114189714
232	0xbf13815d	-0.5761927
233	0xc0d2cb76	-6.5873365
234	0xbd96e093	-0.07367053
235	0xbfc51bdd	-1.5399128
236	0x3dfc846c	0.12329945
237	0xbfefd514	-1.8736901
238	0x3ec028fa	0.37531263
239	0xbe952f97	-0.2913787
240	0x3f144d71	0.57930666
241	0xbf818da1	-1.0121347
242	0xbf8ec366	-1.1153381
243	0x3e10b7a0	0.14132547
244	0xbde1764a	-0.1100889
245	0xbfdb0619	-1.7111236
246	0x3d6828bc	0.056679472
247	0x3dd48451	0.103768
248	0xbd599210	-0.05311781
249	0xbfeaae23	-1.8334392
250	0x3e9be96b	0.3045152
251	0x3f867ea8	1.0507402
252	0x3fc0b95c	1.5056567
253	0xbfc010e0	-1.500515
254	0x3ef67145	0.48133293
255	0xbf602592	-0.8755733

fc2.bias f4 [64]
0	0x3dca2207	0.098697715
1	0x3fae883a	1.3635323
2	0x3f1826cb	0.59434193
3	0xbd9a0dc9	-0.075221606
4	0xbe0f81f7	-0.14014421
5	0x3ecd5dbe	0.40110582
6	0xbe2e313a	-0.17010966
7	0xbc7f6a95	-0.015589376
8	0x3ffe8179	1.9883262
9	0xbe1cf497	-0.15327679
10	0x3f001a4f	0.50040144
11	0x3e99b89f	0.30023667
12	0xbe0f52a2	-0.13996366
13	0x3f54fc82	0.83197796
14	0xbca73e92	-0.020415578
15	0x3f02fab8	0.51163816
16	0xbe9f3dc0	-0.311018
17	0x3a42173a	0.0007403974
18	0xbdae3d77	-0.08507817
19	0xbddfe97d	-0.10933206
20	0xbd85d012	-0.06533827
21	0x3cf71396	0.030160706
22	0xbddbdb3a	-0.107351735
23	0xbe82b969	-0.25532082
24	0x3ff69aad	1.9265953
25	0xbc88dd65	-0.016707132
26	0xbed9d8e3	-0.42548284
27	0x3ffe76cf	1.9880008
28	0x3cb1c19d	0.021698767
29	0x3fe01b51	1.7508336
30	0xbe0c6806	-0.13711557
31	0x3ccc9684	0.024974115
32	0x3fa95059	1.3227645
33	0x3e96e30f	0.29470107
34	0x3fc83371	1.5640699
35	0xbe01b942	-0.12668326
36	0xbf1b68f9	-0.6070705
37	0xbd7be071	-0.06149334
38	0x3c7296f1	0.014806495
39	0x3e8b484b	0.27203593
40	0xbe049c44	-0.12950236
41	0xbeb5c656	-0.3550288
42	0xbd738dd2	-0.059461422
43	0x3fdb5a3a	1.713691
44	0x3fdc20f1	1.7197553
45	0x3cb4aebd	0.022055978
46	0xbbeb6318	-0.0071834438
47	0xbcdabb5f	-0.026700674
48	0x3da18b97	0.07887953
49	0xbe1e5493	-0.1546195
50	0xbd50dad3	-0.050989937
51	0x3e5bbc62	0.21458581
52	0xbdc88dbf	-0.09792661
53	0xbd50f4e4	-0.051014796
54	0x3f47abb5	0.7799638
55	0x3e82a86c	0.2551912
56	0xbcf319b8	-0.02967535
57	0xbe8e7fb4	-0.27831805
58	0x3f7485ca	0.95516646
59	0xbd83644b	-0.06415614
60	0xbcc8d0a8	-0.024513558
61	0x3e3c4a58	0.18387735
62	0xbaf80163	-0.0018921312
63	0xbdac4609	-0.08411796

fc3.weight f4 [6, 64]
0	0xbeaafd0e	-0.3339619
1	0x3e79165b	0.24324934
2	0xbf9f0fc2	-1.2426684
3	0x403cdcf9	2.950987
4	0x3db88ada	0.09010859
5	0x401f6caf	2.4910085
6	0x3d8f853d	0.07007835
7	0x391be14e	0.00014865884
8	0x3f821c9a	1.0164979
9	0xbdc4b970	-0.09605682
10	0x3f178e87	0.59201854
11	0x3f7aad06	0.9792026
12	0xbdc989b9	-0.09840722
13	0xbfdb2008	-1.711915
14	0xbdb2cbc0	-0.087302685
15	0xbec1b8c1	-0.3783627
16	0xbf5bb08b	-0.8581626
17	0xbfcbb2ec	-1.5913978
18	0x3ddfc3cd	0.10926018
19	0xbc1a6355	-0.009423097
20	0x3cb82397	0.022477908
21	0xbde2b6e6	-0.11070041
22	0xbd43a17e	-0.047761433
23	0x4063a477	3.5569131
24	0x3f32415e	0.6963099
25	0x3d3773bd	0.04478811
26	0xc02d9428	-2.7121677
27	0x3fc32d46	1.5248191
28	0x3ecfb806	0.40570086
29	0x3f99a98f	1.200487
30	0xbdc1a006	-0.0945435
31	0xbd16c993	-0.03681333
32	0x3f50cff6	0.81567323
33	0x3e0fcf41	0.14043905
34	0x400d74d9	2.2102568
35	0x3d4f8297	0.05066165
36	0x402de1c3	2.7169044
37	0xbde33e29	-0.110958405
38	0x3a49a50d	0.0007692136
39	0x3e25daac	0.16196698
40	0x3b07c701	0.002071798
41	0xbf5ab6e4	-0.8543532
42	0xbddc7598	-0.10764617
43	0x3f3208da	0.69544756
44	0x3f0aeba0	0.54265785
45	0x3cf7469a	0.030185033
46	0xbd255800	-0.040367126
47	0x3f85438f	1.0411242
48	0xbf622b87	-0.8834767
49	0xbc7347c0	-0.0148486495
50	0xbf4dfb6a	-0.8046175
51	0x40302b29	2.7526343
52	0x3d037170	0.032090604
53	0xbf832f98	-1.02489
54	0x3e72b3f5	0.2370146
55	0x3f765d65	0.9623626
56	0x3c2e1290	0.010624543
57	0xbfb57a47	-1.4177941
58	0x3fc7ddb5	1.5614535
59	0x3ec09d18	0.37619853
60	0xbddb1653	-0.106976174
61	0xbf41d8bd	-0.7572134
62	0x3d696eb4	0.05699034
63	0x3cac58d2	0.021038447
64	0x3f4ebc44	0.8075602
65	0x3f1e604e	0.618657
66	0xbf435286	-0.76297796
67	0xbe25bc0d	-0.16185017
68	0xbde6a2d6	-0.11261527
69	0x3f5a5afb	0.85295075
70	0x3c7606f0	0.0150163025
71	0x3dab9f94	0.083800465
72	0x3f5f2b83	0.8717577
73	0xbcd71fc0	-0.026260257
74	0x402b88c5	2.6802227
75	0x3d28ce40	0.04121232
76	0xbd92ebfe	-0.07173918
77	0xc01c8cf6	-2.4461036
78	0xbdacdb4f	-0.08440267
79	0xbf114c92	-0.5675746
80	0x3ef9ba40	0.4877491
81	0xbfedbfb4	-1.8574128
82	0xbd0bc8b9	-0.03412697
83	0x3d370e7d	0.04469155
84	0x3d3682fa	0.044558503
85	0x3d8d7b02	0.069082275
86	0x3d01bcf9	0.03167436
87	0x403fe280	2.9981995
88	0x3f2693da	0.65069354
89	0xbdb0c546	-0.08631377
90	0x3f1d090c	0.6134193
91	0x3ffa9b9d	1.957874
92	0x3f0f03d2	0.55865204
93	0x3f9da459	1.231578
94	0x3dd2a234	0.10284844
95	0xbdb3d888	-0.087815344
96	0x3f170b91	0.59002024
97	0xbe536160	-0.20642614
98	0x3fe7ac1a	1.8099396
99	0x3dc47b0d	0.095937826
100	0x3fc774e4	1.5582547
101	0x3d8b3529	0.06797249
102	0xbdb48cbb	-0.08815905
103	0x3f6dceb1	0.9289351
104	0xbc0fd7b4	-0.008779455
105	0xbf412211	-0.75442606
106	0x3d80baf0	0.062856555
107	0x3f365ed5	0.7123845
108	0x3f2a7075	0.66577846
109	0xbd555007	-0.052078273
110	0xbdfeda4c	-0.124439806
111	0xbecfaa49	-0.40559605
112	0xbfbd5f03	-1.479462
113	0x3d975850	0.07389891
114	0xbd4f57b1	-0.05062074
115	0x4022f625	2.5462735
116	0x3dd27efc	0.102781266
117	0xbf455b8d	-0.7709282
118	0x3fd29ba6	1.645375
119	0x3fa8f326	1.3199203
120	0xbcd85ae2	-0.026410524
121	0xbf3e9b18	-0.74455404
122	0x3fd53c31	1.6658994
123	0x3e1b1168	0.15143359
124	0xba885848	-0.0010402286
125	0xbff961a8	-1.9482927
126	0xbdb9bc8c	-0.090691656
127	0xbd6ba46e	-0.05752986
128	0xbfed181d	-1.8522984
129	0x3f250f63	0.64476603
130	0xbf7194d6	-0.9436773
131	0x3ff6c096	1.9277523
132	0x3d28041c	0.041019544
133	0x405ac974	3.4185457
134	0x3b39f040	0.002837196
135	0x3d9290da	0.071565345
136	0x3f88c0b4	1.0683808
137	0x3ce20080	0.027588129
138	0xbf9072ae	-1.1284997
139	0x3ff9a8ca	1.9504635
140	0x3d0e4084	0.034729496
141	0xbf6b151f	-0.91829103
142	0xbdaa8fe6	-0.08328228
143	0x3e59fa23	0.21286826
144	0x3ee008ae	0.43756622
145	0xbf7001ee	-0.93752944
146	0x3dbac5d4	0.09119764
147	0xbd90c7af	-0.070693366
148	0x3d9a07e2	0.07521035
149	0x3dde998a	0.10869129
150	0x3d56f440	0.05247903
151	0x401d9fd6	2.4628806
152	0x3f3b97f2	0.73278725
153	0x3db1b780	0.08677578
154	0xc015f7a1	-2.343239
155	0x3f7d1c64	0.98871446
156	0x3e76038d	0.24024792
157	0x3fe2cd72	1.7718947
158	0xbd021ad4	-0.031763867
159	0x3d17bd00	0.03704548
160	0x3e0b6b9d	0.1361527
161	0x3f82529a	1.0181458
162	0x400fe649	2.2484305
163	0xbc63f1e7	-0.0139126545
164	0xbf9a3f36	-1.205054
165	0xbc2c7b8c	-0.010527503
166	0x3d8b9b4c	0.0681673
167	0x3ecd465a	0.40092736
168	0xbd2e8824	-0.042610303
169	0xbf8a8f05	-1.0824896
170	0xbdc36a40	-0.0954175
171	0x3f0afbf9	0.5429073
172	0x3f28f649	0.660008
173	0x3d4e64d3	0.050389122
174	0x3c75ab6f	0.014994486
175	0xbdfa4141	-0.122194774
176	0xbf82056f	-1.0157908
177	0xbd7a9350	-0.061175644
178	0xbf188382	-0.59575665
179	0x40354477	2.8323038
180	0x3d884e1c	0.06655523
181	0xbfa3d135	-1.279822
182	0xbef21880	-0.47284317
183	0x3fae6e0b	1.3627332
184	0xbd76ec17	-0.060283747
185	0xbf2ba226	-0.67044294
186	0x3fc7c171	1.5605909
187	0x3f53b9dc	0.82705474
188	0x3d312956	0.04325231
189	0x3e241500	0.16023636
190	0xbd371bb8	-0.04470417
191	0xbaa09128	-0.0012250291
192	0xbf171778	-0.59020185
193	0x3eea2c93	0.45737132
194	0xbfa221aa	-1.2666523
195	0x3fc7098b	1.5549787
196	0x3d1c1ef4	0.038115457
197	0x3ea3cc89	0.31991985
198	0xbd2b16f0	-0.04176992
199	0xbd1870a4	-0.037216797
200	0x3f88b509	1.0680248
201	0xbd97ee19	-0.074184604
202	0x3ed546be	0.41655535
203	0x3f94d0a1	1.1626168
204	0xbdcbf41a	-0.09958668
205	0xc01df55a	-2.4681
206	0x3d8101a4	0.06299141
207	0xbe988a6a	-0.29793102
208	0xbe269ad9	-0.16270007
209	0xbfb9fef0	-1.4530926
210	0xbd4673ce	-0.048450284
211	0x3dc1f381	0.09470273
212	0xbcd17110	-0.025566608
213	0x3cc043bd	0.0234698
214	0xbc298ebe	-0.010348974
215	0x4057b404	3.3703623
216	0x3f3773f4	0.71661305
217	0x3da8a350	0.082342744
218	0x3e93bac6	0.28853434
219	0x3fff5286	1.9947059
220	0x3fde16c0	1.7350693
221	0x3f7a1840	0.9769325
222	0x3dfbaecc	0.12289199
223	0xbd26a900	-0.040688515
224	0x3f39cc85	0.725777
225	0x3e7daf35	0.24773867
226	0x40047e33	2.0702026
227	0x3dd6491f	0.104631655
228	0x4006437a	2.0978684
229	0x3db1c161	0.08679462
230	0xbda74e7f	-0.08169269
231	0x402fcece	2.7469974
232	0xbd449700	-0.047995567
233	0xbf60d092	-0.87818253
234	0xbd194570	-0.037419736
235	0x3eb5b0d1	0.35486463
236	0x3f156f79	0.5837322
237	0xbc84853d	-0.016176814
238	0xbd36fc70	-0.044674337
239	0xbe0a5a19	-0.13510932
240	0xbfbcad2a	-1.4740345
241	0x3d95320c	0.07284936
242	0xbf8cd52d	-1.1002556
243	0x4074d574	3.8255281
244	0xbdc1a316	-0.09454934
245	0xbf485df4	-0.7826836
246	0x3fc7160d	1.5553604
247	0x3fb8f1d0	1.4448795
248	0x3d1babbd	0.03800558
249	0x3f91ba4f	1.1384982
250	0x3fc57520	1.5426369
251	0xbe04689d	-0.12930532
252	0xbd586eec	-0.05284016
253	0xbf33a2f0	-0.701705
254	0xbda48f52	-0.08035149
255	0x3d571bbb	0.05251668

fc3.bias f4 [6]
0	0x3fafb80d	1.3728043
1	0x3f8b09b7	1.086234
2	0x3fce8d48	1.6136866
3	0x3f836364	1.0264707
4	0x3fc657c4	1.5495534
5	0x3fbe4dbb	1.4867471
