episodes/500/models/best_dqn_policy.pth (torch, 23192 bytes, 6 tensors)

fc1.weight f4 [64, 8]
-0.010579681 0.036412276 -1.0265685 -0.2636428 0.010849076 -0.2571507 -1.8188864 0.056642998
-0.092137046 -0.45396563 0.22664517 0.33346516 -0.21218877 -1.2235408 -1.4206729 -0.37057084
-0.29329208 0.094546594 -0.14264028 -0.27704066 0.11344933 -0.3458237 0.08232586 -0.12904437
0.075553335 -0.07795848 -0.21570177 -0.11851198 -0.014041754 -0.09061457 -3.3451827 0.18885116
0.10626585 -0.69318676 -0.22087039 -0.720013 -0.35532868 -0.26747707 -0.23595724 0.31168208
2.4182909 -0.18198882 -2.3873606 -0.2839812 0.026487248 -0.14646518 -0.24789074 0.02785723
0.16196315 -0.040263567 0.5989747 -1.3821083 -1.0583726 0.30885038 -3.0369766 0.53832155
0.122845486 0.63435584 0.08794581 -1.0788482 -0.09485656 -0.5612104 -7.2300124 0.6442972
-0.012625898 -0.17268956 0.32869667 -0.08094756 -1.209548 0.39371562 -1.9752301 0.27135488
0.6308718 -0.7585799 -0.6310953 0.2961953 -1.0136566 -0.041707277 4.8060546 0.18134284
0.2221481 0.015717613 -0.34176508 0.018192308 -0.03153065 -0.11890317 -0.1667521 -0.21574432
0.07982913 -0.8153132 0.16715369 0.16884638 -0.39509937 -0.43544775 4.6325426 1.3411686
0.34767345 1.0783969 -0.003722709 -1.2920781 0.11504604 0.558265 -4.8115544 -0.20388824
-0.29044428 -0.14921185 -0.11053441 0.028186295 -0.29595035 0.14597721 -0.27136943 0.09460994
-0.03948233 0.16470371 0.05165409 -0.051830154 -0.022624515 0.23567022 -10.467385 0.4533013
0.22069947 0.57634324 -0.16609673 -0.9889594 0.43091175 -0.18755195 -4.204062 -1.0804168
-0.78824556 -1.0352851 1.3189434 -0.070302024 -0.12294277 -0.09120337 0.9775483 0.2840236
-0.51845294 -0.76038474 -1.6777022 -0.07635837 1.0087262 -0.48952633 -0.68659925 0.5031644
-0.27725238 -0.32604548 -0.1199835 -0.22700994 -0.21422328 -0.0053257253 -0.26697358 0.066344276
-0.7047595 -0.6149537 -0.12330427 -0.007750577 -0.82836074 -0.32591408 -2.963239 0.2006716
0.24153082 -0.3500687 -0.18445459 0.07099287 -0.0098626185 -0.21850254 -0.17177811 -0.0012661403
-0.19046405 -0.038300272 -0.32252306 -0.19812319 -0.053859036 0.20306608 -0.08461372 0.0015078456
-0.35299516 -0.0092768585 -0.1499472 0.10581257 -0.21387295 -0.34447452 -0.12981567 0.2342518
-0.29657683 -0.29310066 0.10499851 0.036098734 0.26355925 -0.15581125 0.037425347 -0.23803574
-5.540844 1.0061892 0.013971042 -0.024673238 -0.17730974 -0.10261706 0.059336122 0.30789515
-0.30357203 -0.24696329 -0.37876627 -0.32112712 0.15684813 -0.08554896 0.120803006 0.0319777
0.10740886 -0.012847534 -0.1799896 -0.099926785 0.08794219 -0.3383707 -0.04903023 -0.23722088
-0.2016192 0.22926834 0.2244106 -0.28694016 -0.10040196 -0.18610843 0.08351299 0.07139023
-1.0637118 -0.60559 -0.005838337 -1.26438 0.04957129 -0.08922349 0.09329201 -0.32277316
-0.1430615 0.5529248 -0.5667359 -0.058778863 -0.50593483 -0.12900648 -9.002211 0.32212752
0.5369848 -0.9752172 -0.5426418 1.8794053 0.82272345 -0.017900327 -0.9552516 -0.4125915
-0.53863 -1.5660695 0.8495679 1.2966474 -0.058230616 0.016109323 1.2886332 0.06698458
00000000: 6656 2dbc 0a25 153d 9966 83bf 30fc 86be
00000010: 53c0 313c 42a9 83be 45d1 e8bf 7d02 683d
00000020: 59b2 bcbd 2f6e e8be ac15 683e f2bb aa3e
00000030: 0348 59be fc9c 9cbf 9cd8 b5bf 76bb bdbe
00000040: 612a 96be a5a1 c13d 4b10 12be 46d8 8dbe
00000050: 1f58 e83d ce0f b1be 769a a83d 3524 04be
00000060: b5bb 9a3d b2a8 9fbd ede0 5cbe 69b6 f2bd
00000070: 630f 66bc 2294 b9bd 7917 56c0 3362 413e
00000080: e9a1 d93d b074 31bf d92b 62be c652 38bf
00000090: a4ed b5be c1f2 88be c69e 71be cb94 9f3e
000000a0: 47c5 1a40 475b 3abe 84ca 18c0 fc65 91be
000000b0: c9fb d83c f8fa 15be 12d7 7dbe d834 e43c
000000c0: abd9 253e 69eb 24bd 6856 193f ede8 b0bf
000000d0: c178 87bf a321 9e3e d35d 42c0 71cf 093f
000000e0: 6a96 fb3d 2565 223f ef1c b43d b317 8abf
000000f0: 2844 c2bd 7cab 0fbf 435c e7c0 a9f0 243f
00000100: dbdc 4ebc 88d5 30be ee4a a83e d6c7 a5bd
00000110: 78d2 9abf 1895 c93e 57d4 fcbf 07ef 8a3e
00000120: d080 213f 4b32 42bf 768f 21bf e9a6 973e
00000130: 80bf 81bf 40d5 2abd 33cb 9940 f0b1 393e
00000140: cb7a 633e 39c2 803c d5fb aebe 0908 953c
00000150: 4826 01bd 8183 f3bd 10c1 2abe 14ec 5cbe
00000160: 747d a33d 5eb8 50bf 562a 2b3e 11e6 2c3e
00000170: 774a cabe 02f3 debe ca3d 9440 6aab ab3f
00000180: 4102 b23e e908 8a3f b1f8 73bb d162 a5bf
00000190: 429d eb3d 74ea 0e3f 41f8 99c0 14c8 50be
000001a0: 1db5 94be feca 18be dd5f e2bd f2e6 e63c
000001b0: ce86 97be 0d7b 153e eff0 8abe dbc2 c13d
000001c0: 39b8 21bd 17a8 283e 3d93 533d db4b 54bd
000001d0: 0c57 b9bc 8953 713e 697a 27c1 1c17 e83e
000001e0: 0bff 613e 3b8b 133f 4315 2abe 712c 7dbf
000001f0: 77a0 dc3e 9e0d 40be ad87 86c0 194b 8abf
00000200: 76ca 49bf 3984 84bf 23d3 a83f 82fa 8fbd
00000210: 6bc9 fbbd d5c8 babd 9b40 7a3f 8b6b 913e
00000220: 55b9 04bf 93a8 42bf f2be d6bf c761 9cbd
00000230: f11d 813f 32a3 fabe f8c4 2fbf 62cf 003f
00000240: 06f4 8dbe 6fef a6be e9b9 f5bd 4b75 68be
00000250: 595d 5bbe 6c83 aebb c3b0 88be 82df 873d
00000260: 1e6b 34bf 9b6d 1dbf f386 fcbd 8df8 fdbb
00000270: 730f 54bf 36de a6be b5a5 3dc0 db7c 4d3e
00000280: db53 773e 343c b3be aae1 3cbe b664 913d
00000290: d296 21bc 21bf 5fbe 9ae6 2fbe 9ef4 a5ba
000002a0: 0209 43be bfe0 1cbd be21 a5be cee0 4abe
000002b0: 4b9b 5cbd 8ef0 4f3e f549 adbd e7a2 c53a
000002c0: c8bb b4be f7fd 17bc c28b 19be 43b4 d83d
000002d0: 8301 5bbe f75e b0be 66ee 04be b4df 6f3e
000002e0: ebd8 97be 4a11 96be 7509 d73d 44dc 133d
000002f0: 3df1 863e fc8c 1fbe 524b 193d a4bf 73be
00000300: 984e b1c0 cfca 803f cce6 643c 881f cabc
00000310: af90 35be e528 d2bd 6f0a 733d 6fa4 9d3e
00000320: cb6d 9bbe f2e3 7cbe a7ed c1be c66a a4be
00000330: cc9c 203e 4b34 afbd 9167 f73d 0cfb 023d
00000340: 2df9 db3d 777e 52bc 324f 38be 6aa6 ccbd
00000350: 091b b43d ed3e adbe ecd3 48bd 08ea 72be
00000360: 4375 4ebe 52c5 6a3e e4cb 653e d2e9 92be
00000370: 8b9f cdbd 3593 3ebe dc08 ab3d 0a35 923d
00000380: b527 88bf f207 1bbf 854f bfbb 34d7 a1bf
00000390: 440b 4b3d ceba b6bd e20f bf3d 8642 a5be
000003a0: b77e 12be 7b8c 0d3f 9b15 11bf 1bc2 70bd
000003b0: f284 01bf 461a 04be 0e09 10c1 e6ed a43e
000003c0: d677 093f d6a7 79bf 93ea 0abf 5a90 f03f
000003d0: 019e 523f b5a3 92bc 5e8b 74bf 313f d3be
000003e0: a8e3 09bf f774 c8bf 487d 593f 8bf8 a53f
000003f0: 3a83 6ebd b3f7 833c eff1 a43f 362f 893d

fc1.bias f4 [64]
0.052179135 0.72589815 -0.31442252 0.0021047276 0.14139163 0.4514944 0.33677736 0.5495585
0.39711416 0.15299061 -0.20685251 -0.16794337 -0.13534561 -0.30224204 0.09356184 0.9406731
0.8873488 -0.3630037 0.040225506 0.5963063 -0.071039826 -0.25366274 -0.34611264 -0.33427668
0.15052153 -0.07160211 -0.16120332 -0.37376228 0.0073493025 -0.02053415 -0.6912133 -0.057095382
-0.094828695 0.3235827 -0.27175945 0.6124284 -0.25160956 -0.20423079 -0.012010864 0.5768493
0.28807545 -0.019011762 0.86772007 -0.27595335 0.16659386 0.06466863 0.2503931 -0.12022932
-0.14865753 -0.56998336 0.18736911 0.025467 -1.5795416 -1.0700272 0.40093544 -0.14239094
-0.3154943 -1.3406082 0.29393724 -0.27777225 0.12092738 -0.8646727 -0.27610707 -0.12074718
00000000: cab9 553d 76d4 393f fdfb a0be 78ef 093b
00000010: f8c8 103e 462a e73e 156e ac3e deaf 0c3f
00000020: 8c52 cb3e 92a9 1c3e 25d1 53be 59f9 2bbe
00000030: 0a98 0abe 78bf 9abe 5a9d bf3d f4cf 703f
00000040: 4a29 633f 9fdb b9be 80c3 243d 88a7 183f
00000050: 547d 91bd 15e0 81be ad35 b1be 5026 abbe
00000060: 5122 1a3e 21a4 92bd 7c12 25be c55d bfbe
00000070: 6bd2 f03b 3c37 a8bc 5bf3 30bf d9dc 69bd
00000080: 8c35 c2bd a2ac a53e 0e24 8bbe 1cc8 1c3f
00000090: f8d2 80be e021 51be 37c9 44bc 65ac 133f
000000a0: a07e 933e 8ebe 9bbc e722 5e3f c249 8dbe
000000b0: 9597 2a3e fd70 843d 8633 803e ca3a f6bd
000000c0: ae39 18be 6eea 11bf b0dd 3f3e 2ca0 d03c
000000d0: 6b2e cabf a7f6 88bf 6947 cd3e eece 11be
000000e0: 7888 a1be 0d99 abbf f17e 963e 2a38 8ebe
000000f0: c6a8 f73d 315b 5dbf e85d 8dbe 4c4a f7bd

fc2.weight f4 [64, 64]
-0.5647699 1.7743284 0.023933262 -2.498017 -0.56349766 -0.5680754 0.9965078 -2.506785
1.4680814 -1.6910353 0.028966084 1.7333034 -1.8515333 0.078408375 -12.969992 2.938812
1.014853 2.304977 0.0035004995 0.6931062 0.0010165023 -0.120222226 0.10212991 0.06379585
-0.707426 -0.07708867 -0.057076544 0.050691992 -0.30950236 -10.933712 1.1216146 0.09683217
0.7556498 0.35335758 0.08805379 0.5095824 -0.09196208 -0.7023411 -1.334564 -0.1521707
-2.2793028 -4.751539 0.47024745 -0.087187245 -0.026236743 1.446349 0.36989948 0.08065176
-0.05231157 0.29204327 -1.6783159 -0.26632988 -0.80845624 -0.15676124 -1.3505353 -0.1366228
-2.4122293 0.62949014 0.64883506 0.1362484 0.1862416 -2.3126223 0.11402782 -0.07822721
-0.10972325 0.71563834 0.122998625 -0.7361239 -0.105339505 -1.2678378 0.16547953 -0.14929995
0.24078387 -1.7847636 0.0806112 0.2997768 -0.82768494 0.1055457 -4.2796683 1.2159545
0.81791794 -0.008515727 -0.011004002 0.79825145 0.048286192 0.11342445 0.039916515 0.050012603
-0.54349387 -0.04225877 -0.0019348413 -0.10449752 -0.6322158 -3.511137 -0.790455 -0.059363857
0.6695254 0.2260769 -0.09458266 0.44630432 0.08697973 0.6232416 -0.29126778 -0.24929473
-0.57982415 -1.357322 -0.36934313 -0.024148613 0.012072274 0.194585 0.014142206 0.08075568
0.05296108 0.4918343 -0.42096102 -0.33913893 -0.93268913 0.52235603 0.6149652 0.114426
-0.24032383 0.4115339 -0.23651735 -0.0405587 0.373302 -3.9929001 -0.92339855 -0.08564316
-0.07418664 0.042257845 -0.054847106 -0.054245412 0.09173246 0.016609935 0.08256036 -0.08410068
0.03152414 -0.05943684 0.043577105 -0.092456914 -0.09944629 0.036436036 0.05880736 -0.16167913
-0.077964954 -0.12090037 0.077069506 -0.118084416 -0.028582886 -0.09960942 -0.005489826 0.012110099
-0.04302413 0.039590582 -0.011572689 0.109204814 0.015559822 0.11872731 -0.02239827 -0.18333459
-0.054762498 0.0017073957 0.006810367 -0.08514365 -0.04945141 0.054520324 0.08656244 -0.091558106
-0.10016325 0.0023539313 -0.05092379 -0.01146929 0.09139408 0.058927894 0.046073355 0.00018846989
0.022795856 -0.099075444 -0.048726097 0.08568847 -0.090369344 -0.12064118 0.019541804 0.055177376
0.08563846 0.02562798 -0.028407881 -0.16275777 -0.13327324 0.0110029 -0.074017674 -0.027586073
-0.008098035 -0.12504794 0.07707296 -0.08208539 -0.041648954 -0.17088412 -0.00867546 -0.11154549
0.02811258 -0.014261546 -0.08708906 0.020014662 0.013627933 0.0064630657 -0.07169109 -0.016724398
-0.10058056 -0.07921799 -0.06465715 0.030782754 -0.10381265 -0.07727255 0.07696681 -0.01630044
-0.10182754 0.07376127 -0.109441385 0.04966174 0.0013902932 -0.037491303 -0.021188144 0.0065660183
-0.030473193 -0.07641184 -0.10240179 0.05681288 0.046677396 -0.015515042 0.026535153 -0.16012299
0.044247765 -0.055043697 -0.12229222 -0.035361826 0.060306072 0.010872349 -0.022153037 0.07902771
-0.040956825 -0.13625148 -0.019421136 -0.136384 -0.081775695 -0.055099264 -0.1630229 0.050130658
-0.036785156 -0.015538785 0.028631464 -0.034143142 -0.14812985 -0.025644569 -0.07429643 0.12124558
00000000: c394 10bf 311d e33f b00f c43c 83df 1fc0
00000010: 6241 10bf 646d 11bf 231b 7f3f 2a6f 20c0
00000020: 17ea bb3f d873 d8bf 484a ed3c e3dc dd3f
00000030: 0bff ecbf 9294 a03d 1685 4fc1 7f15 3c40
00000040: b4e6 813f be84 1340 a368 653b 686f 313f
00000050: 283c 853a 1237 f6bd 7c29 d13d 66a7 823d
00000060: df19 35bf aae0 9dbd 18c9 69bd 68a2 4f3d
00000070: 1877 9ebe 7cf0 2ec1 1191 8f3f f24f c63d
00000080: 4472 413f 49eb b43e 8c55 b43d fe73 023f
00000090: 9d56 bcbd a0cc 33bf fed2 aabf a3d2 1bbe
000000a0: 19e0 11c0 9c0c 98c0 46c4 f03e 3a8f b2bd
000000b0: 70ee d6bc f721 b93f 7763 bd3e c02c a53d
000000c0: a844 56bd b286 953e 0ed3 d6bf 645c 88be
000000d0: fdf6 4ebf 0586 20be 57de acbf d9e6 0bbe
000000e0: f761 1ac0 4426 213f 0e1a 263f b384 0b3e
000000f0: 1eb6 3e3e 0102 14c0 6b87 e93d 9635 a0bd
00000100: 95b6 e0bd 1334 373f b4e6 fb3d 9e72 3cbf
00000110: 3dbc d7bd 8248 a2bf 7773 293e 16e2 18be
00000120: 0c90 763e 2273 e4bf 7c17 a53d 587c 993e
00000130: 29e3 53bf 5828 d83d 0bf3 88c0 66a4 9b3f
00000140: 1263 513f 8c85 0bbc 214a 34bc 355a 4c3f
00000150: bec7 453d 144b e83d 807f 233d 04da 4c3d
00000160: 6a22 0bbf 8817 2dbd 809a fdba cc02 d6bd
00000170: e5d8 21bf 78b6 60c0 425b 4abf 8427 73bd
00000180: 0466 2b3f b480 673e 8eb4 c1bd 0082 e43e
00000190: 6e22 b23d c38c 1f3f 0d21 95be 1e47 7fbe
000001a0: 5b6f 14bf babc adbf 8b1a bdbe 50d3 c5bc
000001b0: caca 453c 4a41 473e b6b4 673c 3c63 a53d
000001c0: b8ed 583d b5d1 fb3e 3488 d7be 9ea3 adbe
000001d0: b7c4 6ebf 20b9 053f 5c6e 1d3f 2e58 ea3d
000001e0: 7317 76be 92b4 d23e 9b31 72be e120 26bd
000001f0: 7121 bf3e ad8b 7fc0 d963 6cbf ae65 afbd
00000200: 2aef 97bd 9016 2d3d 5ca7 60bd 7030 5ebd
00000210: 3ade bb3d 8f11 883c 6815 a93d fa3c acbd
00000220: 751f 013d 0b74 73bd e87d 323d 0d5a bdbd
00000230: 7faa cbbd f43d 153d fcdf 703d 378f 25be
00000240: 17ac 9fbd 9d9a f7bd 9ed6 9d3d 3ed6 f1bd
00000250: a826 eabc 0600 ccbd 00e4 b3bb 7069 463c
00000260: 123a 30bd bc29 223d 609b 3dbc c6a6 df3d
00000270: a0ee 7e3c 4e27 f33d 947c b7bc 10bc 3bbe
00000280: a44e 60bd b1ca df3a 8029 df3b cb5f aebd
00000290: 908d 4abd b450 5f3d a647 b13d d182 bbbd
000002a0: 6422 cdbd 6a44 1a3b 7795 50bd b0e9 3bbc
000002b0: d22c bb3d 605e 713d 6ab7 3c3d 00a0 4539
000002c0: 60be ba3c 11e8 cabd 0495 47bd 707d af3d
000002d0: 9013 b9bd b912 f7bd 2216 a03c ac01 623d
000002e0: 3863 af3d c5f1 d13c a5b7 e8bc f9a9 26be
000002f0: c878 08be 8245 343c 9496 97bd 30fc e1bc
00000300: 9fad 04bc 910c 00be 6ed8 9d3d 631c a8bd
00000310: 1898 2abd 3ffc 2ebe 8423 0ebc f671 e4bd
00000320: 5a4c e63c 42a9 69bc c05b b2bd caf5 a33c
00000330: b247 5f3c 20c8 d33b c7d2 92bd 9b01 89bc
00000340: 2efd cdbd 0b3d a2bd f86a 84bd 1d2c fc3c
00000350: ba9b d4bd 1241 9ebd c6a0 9d3d 8088 85bc
00000360: f58a d0bd 2610 973d ce22 e0bd 1c6a 4b3d
00000370: 803a b63a 7b90 19bd c292 adbc c127 d73b
00000380: eba2 f9bc d07d 9cbd 08b8 d1bd 9fb4 683d
00000390: cc30 3f3d cd32 7ebc 4060 d93c 48f7 23be
000003a0: 253d 353d 8075 61bd 5874 fabd 90d7 10bd
000003b0: 8003 773d f021 323c 497a b5bc 48d9 a13d
000003c0: 58c2 27bd 8285 0bbe 1319 9fbc 3fa8 0bbe
000003d0: 047a a7bd c4af 61bd 7aef 26be ce55 4d3d
000003e0: 08ac 16bd 6396 7ebc 888c ea3c aed9 0bbd
000003f0: 5aaf 17be 8f14 d2bc ba28 98bd 9a4f f83d

fc2.bias f4 [64]
-0.49983925 1.5712829 -0.06598674 -0.003216 1.8950316 -0.8398275 -0.59799886 1.8549209
0.84101284 -0.11545309 -0.37230512 0.6936725 0.029913627 1.5902174 0.18698636 -0.13614221
-0.04233842 1.6393377 1.1177918 -0.1278696 1.42878 -0.06819746 1.5487785 0.81455666
-0.13382187 -0.0995149 1.5864806 0.7123178 -0.21729882 -1.1008265 0.70018375 0.029158082
-0.17724039 -0.41086757 -0.16297492 -0.20703149 0.3713987 -0.07695381 0.027087638 0.096630916
1.7966883 1.6632831 -0.0062853503 -0.022253795 1.383972 0.6357242 -0.0932973 0.004728194
-0.14018498 2.0594027 -1.065655 0.38114375 1.2823951 -0.04479995 0.0013297932 -0.12990351
0.27939263 -0.13195308 0.8315813 -0.37213647 0.10037252 -0.32827425 -0.2437505 0.42441934
00000000: eeea ffbe cc1f c93f 0e24 87bd 87c3 52bb
00000010: 6590 f23f effe 56bf 7416 19bf 0c6e ed3f
00000020: 9e4c 573f ab72 ecbd c79e bebe 8594 313f
00000030: 6c0d f53c 3e8c cb3f 5a79 3f3e dd68 0bbe
00000040: 0d6b 2dbd d1d5 d13f cd13 8f3f 40f0 02be
00000050: 43e2 b63f 1cab 8bbd 603e c63f c986 503f
00000060: 9a08 09be 78ce cbbd cc11 cb3f 765a 363f
00000070: 9583 5ebe e2e7 8cbf 3e3f 333f eedc ee3c
00000080: 817e 35be 3c5d d2be e6e2 26be 1000 54be
00000090: f827 be3e f699 9dbd e5e6 dd3c 6ee6 c53d
000000a0: e2f9 e53f 76e6 d43f 57f5 cdbb 974d b6bc
000000b0: ff25 b13f d2be 223f a812 bfbd f7ee 9a3b
000000c0: a78c 0fbe 41cd 0340 6267 88bf 4625 c33e
000000d0: 8625 a43f 2780 37bd 754c ae3a 6d05 05be
000000e0: 8d0c 8f3e b51e 07be 83e2 543f ac88 bebe
000000f0: 1c90 cd3d 9013 a8be bb99 79be 7e4d d93e

fc3.weight f4 [6, 64]
-2.871476 2.0804074 -0.04894099 0.018525265 1.9117444 -0.26550576 -1.1795417 1.2722876
4.3484087 -0.10358614 -2.2461972 0.7120968 0.04541161 1.7343835 -0.909624 0.06651417
0.018297944 0.46779823 2.1165595 1.5787418 2.1475596 0.0036518166 1.5536655 3.8281157
0.007534969 0.03878516 1.7220266 -0.100863524 1.8440562 -2.2717054 1.2741072 0.07942053
-1.4660312 -3.134379 0.0649832 2.8100903 0.458 -0.018702611 0.98234516 1.846119
1.1797159 1.6732852 0.05719978 -0.07077156 1.3142798 4.121834 5.4387665 0.23260185
0.06803614 1.1606615 -2.688255 0.62588155 0.93558353 -0.028304875 0.12313592 0.022513242
3.5552926 -0.074392065 1.4153733 3.0828104 1.1568277 1.3411415 -0.5695126 0.2554278
-1.9059709 3.1733224 -0.11565594 0.056781728 1.9602009 2.568204 -0.5045701 1.2127252
4.0722322 0.12038912 -2.6826205 0.6229833 0.11439709 1.5847663 -2.6311035 0.048624482
0.00018380323 1.0436146 1.6495417 2.8297296 1.2153794 -0.09542312 1.2513129 3.7629614
-0.012832499 0.03329574 1.5418535 1.3436315 3.5237608 -1.8754467 1.1689291 -0.07622572
-0.3968118 -3.8729641 -0.0065764003 4.480581 0.49900422 -0.023970388 3.6903868 4.0636373
1.0517421 1.627045 0.09735161 0.092775464 2.76968 3.337738 3.9288852 0.5014559
-0.012110853 1.2977324 -2.2687793 1.30544 0.9526364 0.0017176718 -0.104657255 -0.08146947
3.808211 -0.0022268444 1.104869 3.3595777 2.876012 1.1730504 0.5384622 -1.8031394
-3.922395 1.6129138 0.058004234 -0.018812848 1.2978224 2.7910445 -2.2472098 1.2484884
3.4258344 0.010520887 -2.1460142 0.88699085 0.04121537 1.7525377 -0.23749647 0.16707484
0.0061445977 1.257478 2.9374125 2.3218596 2.554923 0.10814384 1.5289838 4.1366124
0.10152104 0.101156056 1.3451039 -0.38110727 -2.5813274 -1.5237918 0.7273808 0.105839446
-1.7341223 -3.3191485 -0.104354456 5.1736774 0.7272655 0.068838686 2.3171299 2.4194162
1.3612661 1.6092957 0.09712267 -0.07653509 -0.7849561 5.2864733 3.7693877 -0.50517505
-0.029612523 1.2923565 -1.7191143 1.1215531 1.3134955 0.06784804 0.106015526 0.033061266
2.9423923 0.07356857 1.27227 -1.9690363 1.6386479 0.47899005 0.55390596 0.50726867
-1.798979 2.612572 0.06671958 -0.12837768 1.6626818 2.7093768 -1.6594565 1.1141652
4.75256 -0.02406393 -2.3744924 0.48189446 -0.08397664 2.1597655 -1.4897717 0.050559793
0.05530246 -0.25389147 1.6295513 3.2908022 1.9148406 0.094603315 1.6462619 4.537042
-0.113448225 0.12581196 2.0926917 0.6248238 2.195332 -3.1325097 1.9513506 0.014050782
-1.5489014 -2.7814078 0.11373733 3.5880222 -0.04328839 0.111638784 -2.3920596 5.2634716
1.0286866 1.9966862 -0.10294296 0.07504749 1.413648 4.229569 4.8977175 -1.5583177
0.06317551 0.44196817 -2.7699947 -0.033146016 1.7768584 -0.021380454 0.041144464 0.03135836
4.150081 0.02188765 1.1722734 1.4228319 4.035599 0.94013125 0.0077702412 1.1564075
00000000: 43c6 37c0 6525 0540 5976 48bd 4cc2 973c
00000010: 0ab4 f43f 5ff0 87be 39fb 96bf 52da a23f
00000020: 2a26 8b40 f824 d4bd b2c1 0fc0 fa4b 363f
00000030: 8601 3a3d 4700 de3f 1edd 68bf 9538 883d
00000040: 92e5 953c 4083 ef3e b675 0740 3614 ca3f
00000050: 9e71 0940 5153 6f3b 83de c63f d9ff 7440
00000060: e7e7 f63b 30dd 1e3d 5e6b dc3f 8991 cebd
00000070: 090a ec3f 9f63 11c0 f215 a33f 3ba7 a23d
00000080: e9a6 bbbf aa99 48c0 e915 853d 85d8 3340
00000090: fa7e ea3e 3836 99bc f97a 7b3f a14d ec3f
000000a0: ee00 973f 362e d63f 514a 6a3d aef0 90bd
000000b0: 523a a83f 10e6 8340 600a ae40 2e2f 6e3e
000000c0: 8856 8b3d 8e90 943f 5f0c 2cc0 c639 203f
000000d0: 6782 6f3f a0df e7bc af2e fc3d b16d b83c
000000e0: ea89 6340 de5a 98bd f42a b53f c44c 4540
000000f0: ee12 943f 86aa ab3f 94cb 11bf 6fc7 823e
00000100: dbf6 f3bf b717 4b40 05dd ecbd f593 683d
00000110: dde7 fa3f 745d 2440 822b 01bf 943a 9b3f
00000120: ba4f 8240 928e f63d 0eb0 2bc0 d57b 1f3f
00000130: 0649 ea3d 9fd9 ca3f 0064 28c0 772a 473d
00000140: 4ebb 4039 2a95 853f 2f24 d33f 4a1a 3540
00000150: 8d91 9b3f 326d c3bd 052b a03f 5cd4 7040
00000160: 673f 52bc 1d61 083d 755b c53f 1efc ab3f
00000170: 4c85 6140 a30e f0bf 789f 953f 3b1c 9cbd
00000180: eb2a cbbe a5de 77c0 d87e d7bb eb60 8f40
00000190: 7b7d ff3e 8c5d c4bc 4c2f 6c40 5109 8240
000001a0: 7c9f 863f 0343 d03f 4860 c73d 1001 be3d
000001b0: 7042 3140 809d 5540 db72 7b40 6a5f 003f
000001c0: 996c 46bc 181c a63f ae33 11c0 a818 a73f
000001d0: fbdf 733f 8023 e13a 8b56 d6bd 77d9 a6bd
000001e0: bbb9 7340 40f0 11bb 596c 8d3f 5203 5740
000001f0: 9510 3840 8426 963f a9d8 093f 46cd e6bf
00000200: 8508 7bc0 f673 ce3f d995 6d3d 671d 9abc
00000210: 0b1f a63f 79a0 3240 49d2 0fc0 78ce 9f3f
00000220: df40 5b40 cc5f 2c3c 4c58 09c0 d511 633f
00000230: 73d1 283d 2853 e03f 4632 73be ab15 2b3e
00000240: 9f58 c93b 0af5 a03f 91fe 3b40 5999 1440
00000250: dc83 2340 857a dd3d beb5 c33f 215f 8440
00000260: 43ea cf3d e82a cf3d 5d2c ac3f 7e20 c3be
00000270: 7834 25c0 9c0b c3bf a135 3a3f 5ac2 d83d
00000280: b8f7 ddbf ee6c 54c0 cab7 d5bd c48e a540
00000290: 122e 3a3f 4cfb 8c3d db4b 1440 b7d7 1a40
000002a0: f83d ae3f 67fd cd3f 40e8 c63d 6ebe 9cbd
000002b0: e2f2 48bf ca2a a940 a63d 7140 2753 01bf
000002c0: f695 f2bc f06b a53f f00b dcbf 0d8f 8f3f
000002d0: 9f20 a83f eaf3 8a3d ab1e d93d 406b 073d
000002e0: 2850 3c40 1eab 963d bed9 a23f 6209 fcbf
000002f0: 37bf d13f 2f3e f53e c8cc 0d3f 5cdc 013f
00000300: f244 e6bf 6134 2740 46a4 883d 7075 03be
00000310: c2d2 d43f 6e66 2d40 1269 d4bf f79c 8e3f
00000320: f914 9840 b821 c5bc aff7 17c0 dfba f63e
00000330: f2fb abbd 9939 0a40 d7b0 bebf c917 4f3d
00000340: d584 623d 10fe 81be 2395 d03f 819c 5240
00000350: 7f19 f53f 62bf c13d b6b8 d23f 732f 9140
00000360: 8b57 e8bd dad4 003e a9ee 0540 74f4 1f3f
00000370: 5280 0c40 0a7b 48c0 dbc5 f93f 4035 663c
00000380: 6742 c6bf 9602 32c0 1eef e83d 28a2 6540
00000390: 2b4f 31bd e0a2 e43d 8117 19c0 5c6e a840
000003a0: 01ac 833f 6a93 ff3f c2d3 d2bd 80b2 993d
000003b0: 6bf2 b43f a158 8740 1aba 9c40 f476 c7bf
000003c0: 2962 813d a749 e23e 9847 31c0 1ec4 07bd
000003d0: 1970 e33f 1026 afbc 1987 283d a071 003d
000003e0: 77cd 8440 bb4d b33c 0e0d 963f 5b1f b63f
000003f0: a123 8140 71ac 703f 829d fe3b 2905 943f

fc3.bias f4 [6]
0.7814341 2.303311 1.760658 -0.35950032 1.695757 1.1098524
00000000: 110c 483f 7369 1340 3e5d e13f 6d10 b8be
00000010: 910e d93f a50f 8e3f
