episodes/500/models/dqn_policy.pth (torch, 23142 bytes, 6 tensors)

fc1.weight f4 [64, 8]
00000000: 6656 2dbc 0a25 153d 9966 83bf 30fc 86be
00000010: 53c0 313c 42a9 83be 45d1 e8bf 7d02 683d
00000020: 2eda 08bd 49af e1be 28e1 f73e 387b 9e3e
00000030: f458 8bbe fc9c 9cbf 80ce f5bf 6e55 fdbe
00000040: 612a 96be a5a1 c13d 4b10 12be 46d8 8dbe
00000050: 1f58 e83d ce0f b1be 769a a83d 3524 04be
00000060: b5bb 9a3d b2a8 9fbd ede0 5cbe 69b6 f2bd
00000070: 630f 66bc 2294 b9bd 7917 56c0 3362 413e
00000080: e9a1 d93d b074 31bf d92b 62be c652 38bf
00000090: a4ed b5be c1f2 88be c69e 71be cb94 9f3e
000000a0: d280 2440 e47d 1ebe 98b2 26c0 7d96 9dbe
000000b0: 70cd 203e 72c3 68be 74cb e4be 00eb 8e3d
000000c0: ece0 d13c 9063 c1bd d109 1b3f cbd6 93bf
000000d0: c13e 87bf a75b 783e 6f2d 5cc0 3a11 ec3e
000000e0: a736 923e 5da2 033f 8830 913d 16d7 a7bf
000000f0: e409 a03b 50c0 1abf 420c fcc0 aff1 423f
00000100: dcea c53d 6ef8 c7be 928b 873e 066e 98be
00000110: faa6 acbf 2634 be3e abda 1dc0 4255 233e
00000120: 11ac 203f e1c2 4bbf 4359 19bf b89c 303e
00000130: 4a7c 8ebf e301 fbba 1d6c 9d40 d705 663e
00000140: cb7a 633e 39c2 803c d5fb aebe 0908 953c
00000150: 4826 01bd 8183 f3bd 10c1 2abe 14ec 5cbe
00000160: 175d 0dbe d7d8 61bf 0452 163e c2d9 783e
00000170: a019 79be 868f 8dbe 4f16 9d40 6881 b23f
00000180: b081 9a3e b5d4 863f 5b8f 3ebe 6d19 a3bf
00000190: d483 263e b209 ff3e 5586 b0c0 2a6a 58be
000001a0: 1db5 94be feca 18be dd5f e2bd f2e6 e63c
000001b0: ce86 97be 0d7b 153e eff0 8abe dbc2 c13d
000001c0: 6160 0f3d edde 0a3e 1960 9cbd 8e30 c3bd
000001d0: ad56 76bd 1cea 863e 388e 34c1 9f34 093f
000001e0: 345d 473e a033 193f 1614 c1bd f0a7 a1bf
000001f0: f6ac f83e ff10 09be 3ad8 8fc0 194b 8abf
00000200: 066e 69bf 0cc6 90bf 887c a53f 1e8e 2fbc
00000210: 4ad8 cc3d b8a4 b4bc 1362 6e3f da00 983e
00000220: bd40 d0be 7f5e 73bf 08ff b6bf c539 a1be
00000230: 8669 6e3f 88a0 24bf 4a63 40bf fb95 083f
00000240: 06f4 8dbe 6fef a6be e9b9 f5bd 4b75 68be
00000250: 595d 5bbe 6c83 aebb c3b0 88be 82df 873d
00000260: 1e6b 34bf 9b6d 1dbf f386 fcbd 8df8 fdbb
00000270: 730f 54bf 36de a6be b5a5 3dc0 db7c 4d3e
00000280: db53 773e 343c b3be aae1 3cbe b664 913d
00000290: d296 21bc 21bf 5fbe 9ae6 2fbe 9ef4 a5ba
000002a0: 0209 43be bfe0 1cbd be21 a5be cee0 4abe
000002b0: 4b9b 5cbd 8ef0 4f3e f549 adbd e7a2 c53a
000002c0: c8bb b4be f7fd 17bc c28b 19be 43b4 d83d
000002d0: 8301 5bbe f75e b0be 66ee 04be b4df 6f3e
000002e0: ebd8 97be 4a11 96be 7509 d73d 44dc 133d
000002f0: 3df1 863e fc8c 1fbe 524b 193d a4bf 73be
00000300: 6920 bbc0 264b 883f a458 033e 9a69 52be
00000310: 9d54 5a3d 7160 29be 040a c43e 835a a93c
00000320: cb6d 9bbe f2e3 7cbe a7ed c1be c66a a4be
00000330: cc9c 203e 4b34 afbd 9167 f73d 0cfb 023d
00000340: 2df9 db3d 777e 52bc 324f 38be 6aa6 ccbd
00000350: 091b b43d ed3e adbe ecd3 48bd 08ea 72be
00000360: 4375 4ebe 52c5 6a3e e4cb 653e d2e9 92be
00000370: 8b9f cdbd 3593 3ebe dc08 ab3d 0a35 923d
00000380: 0ad7 08bf ed53 1bbf 2716 0f3c e29c 9dbf
00000390: bfc9 07bd da1c eabd e364 c73d 8642 a5be
000003a0: b605 25bd 3bef 103f af47 f5be da41 57bd
000003b0: 4f9c debe ad67 2fbe 4e33 13c1 19d4 a63e
000003c0: 19b1 103f 8902 88bf 9925 09bf f726 0340
000003d0: b52a 7f3f d16d 17bd ce47 b9bf 0727 ccbe
000003e0: 7a4b 2cbf 4226 f0bf 0f8c 5b3f 00d9 f43f
000003f0: daee ec3d 5c6a adbd b3a9 0d3f 0f05 aabc
-0.010579681 0.036412276 -1.0265685 -0.2636428 0.010849076 -0.2571507 -1.8188864 0.056642998
-0.033411197 -0.44079044 0.48413968 0.30953383 -0.27216303 -1.2235408 -1.9203644 -0.4947924
-0.29329208 0.094546594 -0.14264028 -0.27704066 0.11344933 -0.3458237 0.08232586 -0.12904437
0.075553335 -0.07795848 -0.21570177 -0.11851198 -0.014041754 -0.09061457 -3.3451827 0.18885116
0.10626585 -0.69318676 -0.22087039 -0.720013 -0.35532868 -0.26747707 -0.23595724 0.31168208
2.5703626 -0.15477711 -2.6046505 -0.30778876 0.15703368 -0.22730806 -0.44686472 0.069784164
0.025619946 -0.09442818 0.60561854 -1.1549925 -1.0566026 0.24253713 -3.440273 0.46106893
0.2855732 0.5141962 0.07089335 -1.3112514 0.0048839916 -0.60449696 -7.8764963 0.7615003
0.096639365 -0.39056724 0.2647367 -0.2977144 -1.3488457 0.3714916 -2.4664714 0.15950492
0.6276255 -0.79594237 -0.5990183 0.17247283 -1.113168 -0.0019150343 4.9194474 0.22463165
0.2221481 0.015717613 -0.34176508 0.018192308 -0.03153065 -0.11890317 -0.1667521 -0.21574432
-0.13805042 -0.88221496 0.14679724 0.24301818 -0.24326181 -0.27648562 4.908973 1.3945742
0.3017707 1.0533663 -0.18609373 -1.2742134 0.16261226 0.49812084 -5.516398 -0.21134248
-0.29044428 -0.14921185 -0.11053441 0.028186295 -0.29595035 0.14597721 -0.27136943 0.09460994
0.035004023 0.13561602 -0.07635517 -0.095307454 -0.060141254 0.26350486 -11.284721 0.5359592
0.19469148 0.598444 -0.09427659 -1.2629375 0.4856946 -0.1338539 -4.495145 -1.0804168
-0.9118351 -1.1310439 1.2928629 -0.010715036 0.10002191 -0.0220512 0.931184 0.2968815
-0.4067439 -0.95066065 -1.4296579 -0.31489387 0.93129766 -0.6430745 -0.75151503 0.5335385
-0.27725238 -0.32604548 -0.1199835 -0.22700994 -0.21422328 -0.0053257253 -0.26697358 0.066344276
-0.7047595 -0.6149537 -0.12330427 -0.007750577 -0.82836074 -0.32591408 -2.963239 0.2006716
0.24153082 -0.3500687 -0.18445459 0.07099287 -0.0098626185 -0.21850254 -0.17177811 -0.0012661403
-0.19046405 -0.038300272 -0.32252306 -0.19812319 -0.053859036 0.20306608 -0.08461372 0.0015078456
-0.35299516 -0.0092768585 -0.1499472 0.10581257 -0.21387295 -0.34447452 -0.12981567 0.2342518
-0.29657683 -0.29310066 0.10499851 0.036098734 0.26355925 -0.15581125 0.037425347 -0.23803574
-5.8477063 1.0647933 0.12826782 -0.20548096 0.05330335 -0.16540696 0.3828889 0.020673042
-0.30357203 -0.24696329 -0.37876627 -0.32112712 0.15684813 -0.08554896 0.120803006 0.0319777
0.10740886 -0.012847534 -0.1799896 -0.099926785 0.08794219 -0.3383707 -0.04903023 -0.23722088
-0.2016192 0.22926834 0.2244106 -0.28694016 -0.10040196 -0.18610843 0.08351299 0.07139023
-0.53453124 -0.60674936 0.008733309 -1.2313502 -0.033151384 -0.11431284 0.097360395 -0.32277316
-0.04028865 0.56615037 -0.47906253 -0.052553035 -0.4347863 -0.17129393 -9.200026 0.32583693
0.5652023 -1.0625774 -0.53572994 2.0492532 0.9967454 -0.036969963 -1.4475038 -0.39873526
-0.6730267 -1.8761675 0.8576059 1.9128723 0.11568995 -0.08467552 0.55337065 -0.020754365

fc1.bias f4 [64]
00000000: cab9 553d e4d8 353f fdfb a0be 78ef 093b
00000010: f8c8 103e 5343 0e3f ac48 823e e2b0 2a3f
00000020: 8fa9 383e 0e2b 253e 25d1 53be 0c02 84be
00000030: ce2c 48be 78bf 9abe 9772 343e b8be 863f
00000040: 1726 693f 764e aabe 80c3 243d 88a7 183f
00000050: 547d 91bd 15e0 81be ad35 b1be 5026 abbe
00000060: dce4 4f3d 21a4 92bd 7c12 25be c55d bfbe
00000070: ea52 91bc 0ad9 89bc e52b 38bf 0052 8dbd
00000080: 66a1 a8bd 0c4e 123f 0e24 8bbe d436 183f
00000090: f8d2 80be 0bc9 c2be 37c9 44bc 69ee 173f
000000a0: 4a36 833e ddf8 cfbd b988 713f 7799 bcbc
000000b0: 4c3a 213e e501 9d3d ff7f 963e ca3a f6bd
000000c0: ae39 18be 56ac 3cbf b0dd 3f3e b92d 4b3e
000000d0: ee67 d6bf d039 99bf bd4c b33e eece 11be
000000e0: 7888 a1be 2659 bebf 40bf c13e 70bf 55be
000000f0: c6a8 f73d 948f 77bf 92f5 3bbe 4c4a f7bd
0.052179135 0.71034074 -0.31442252 0.0021047276 0.14139163 0.5557148 0.2544607 0.6667615
0.18033431 0.16129705 -0.20685251 -0.25782812 -0.19548342 -0.30224204 0.17621838 1.0526953
0.91073745 -0.33262986 0.040225506 0.5963063 -0.071039826 -0.25366274 -0.34611264 -0.33427668
0.050755367 -0.07160211 -0.16120332 -0.37376228 -0.017739732 -0.016827125 -0.7194198 -0.06900406
-0.08233909 0.5715034 -0.27175945 0.5945866 -0.25160956 -0.3804401 -0.012010864 0.5934816
0.25627357 -0.10154889 0.9434925 -0.023022396 0.15744895 0.07666377 0.29394528 -0.12022932
-0.14865753 -0.73700464 0.18736911 0.1984166 -1.6750467 -1.1970768 0.35019484 -0.14239094
-0.3154943 -1.4870956 0.37841225 -0.20873809 0.12092738 -0.9670346 -0.18355396 -0.12074718

fc2.weight f4 [64, 64]
00000000: c394 10bf 5bd0 0240 b00f c43c 83df 1fc0
00000010: 6241 10bf 6973 7cbf 0cb9 793f 7a30 51c0
00000020: 0a1f b93f f99f bfbf 484a ed3c 8af0 df3f
00000030: 5da7 bbbf 9294 a03d 6409 6bc1 3d7b 5240
00000040: 0133 893f 5ea5 0d40 a368 653b 686f 313f
00000050: 283c 853a 1237 f6bd 7c29 d13d 66a7 823d
00000060: d96b 5cbf aae0 9dbd 18c9 69bd 68a2 4f3d
00000070: 4947 78be f888 31c1 6b5c 913f b495 8d3e
00000080: b58f 753e 24cb a43f 8c55 b43d 85e0 293f
00000090: 9d56 bcbd 2e11 4cbf fed2 aabf 8371 68be
000000a0: 5490 e2bf e14c 75c0 9d41 043f 67f6 2dbe
000000b0: 8e13 d23d be3c e03f 4dac ff3e c02c a53d
000000c0: a844 56bd a809 57bd 0ed3 d6bf 7ca0 3fbf
000000d0: f334 2dbf d9d6 6c3e f3e6 e5bf d9e6 0bbe
000000e0: f761 1ac0 1c17 743f 8a7d 843f 109a 023c
000000f0: 1eb6 3e3e f61d 44c0 a408 5fbf 9635 a0bd
00000100: 95b6 e0bd d55c a73f b4e6 fb3d 9e72 3cbf
00000110: 3dbc d7bd c512 e0bf 4e30 953e cf5b 9ebe
00000120: e827 533e 2e24 43bf 7c17 a53d 1742 f23d
00000130: 0c1c 78bf 5828 d83d f497 a2c0 08ef e93f
00000140: d782 3a3f b32e 04bf 214a 34bc 355a 4c3f
00000150: bec7 453d 144b e83d 807f 233d 04da 4c3d
00000160: 0636 40bf 8817 2dbd 809a fdba cc02 d6bd
00000170: 0d7c 55bf 5b24 47c0 31d7 7ebf 4f96 1a3e
00000180: 8173 f03e bd61 043d 8eb4 c1bd f2ca 823e
00000190: 6e22 b23d 9bd7 403f 0d21 95be 40d7 10bf
000001a0: fc4f 4fbf eba9 74bf 26bb e3be 8930 a5ba
000001b0: df3b 853d e08f cc3e e118 cf3d 3c63 a53d
000001c0: b8ed 583d 3b48 d53e 3488 d7be 5581 f6be
000001d0: d0d6 82bf 7dc5 3d3f 646c 4a3f 2e58 ea3d
000001e0: 7317 76be a3a6 283f 0881 2bbe d2ad efbd
000001f0: 7121 bf3e de6f 6ec0 ed48 e5bf ae65 afbd
00000200: 2aef 97bd 9016 2d3d 5ca7 60bd 7030 5ebd
00000210: 3ade bb3d 8f11 883c 6815 a93d fa3c acbd
00000220: 751f 013d 0b74 73bd e87d 323d 0d5a bdbd
00000230: 7faa cbbd f43d 153d fcdf 703d 378f 25be
00000240: 17ac 9fbd 9d9a f7bd 9ed6 9d3d 3ed6 f1bd
00000250: a826 eabc 0600 ccbd 00e4 b3bb 7069 463c
00000260: 123a 30bd bc29 223d 609b 3dbc c6a6 df3d
00000270: a0ee 7e3c 4e27 f33d 947c b7bc 10bc 3bbe
00000280: a44e 60bd b1ca df3a 8029 df3b cb5f aebd
00000290: 908d 4abd b450 5f3d a647 b13d d182 bbbd
000002a0: 6422 cdbd 6a44 1a3b 7795 50bd b0e9 3bbc
000002b0: d22c bb3d 605e 713d 6ab7 3c3d 00a0 4539
000002c0: 60be ba3c 11e8 cabd 0495 47bd 707d af3d
000002d0: 9013 b9bd b912 f7bd 2216 a03c ac01 623d
000002e0: 3863 af3d c5f1 d13c a5b7 e8bc f9a9 26be
000002f0: c878 08be 8245 343c 9496 97bd 30fc e1bc
00000300: 9fad 04bc 910c 00be 6ed8 9d3d 631c a8bd
00000310: 1898 2abd 3ffc 2ebe 8423 0ebc f671 e4bd
00000320: 5a4c e63c 42a9 69bc c05b b2bd caf5 a33c
00000330: b247 5f3c 20c8 d33b c7d2 92bd 9b01 89bc
00000340: 2efd cdbd 0b3d a2bd f86a 84bd 1d2c fc3c
00000350: ba9b d4bd 1241 9ebd c6a0 9d3d 8088 85bc
00000360: f58a d0bd 2610 973d ce22 e0bd 1c6a 4b3d
00000370: 803a b63a 7b90 19bd c292 adbc c127 d73b
00000380: eba2 f9bc d07d 9cbd 08b8 d1bd 9fb4 683d
00000390: cc30 3f3d cd32 7ebc 4060 d93c 48f7 23be
000003a0: 253d 353d 8075 61bd 5874 fabd 90d7 10bd
000003b0: 8003 773d f021 323c 497a b5bc 48d9 a13d
000003c0: 58c2 27bd 8285 0bbe 1319 9fbc 3fa8 0bbe
000003d0: 047a a7bd c4af 61bd 7aef 26be ce55 4d3d
000003e0: 08ac 16bd 6396 7ebc 888c ea3c aed9 0bbd
000003f0: 5aaf 17be 8f14 d2bc ba28 98bd 9a4f f83d
-0.5647699 2.043967 0.023933262 -2.498017 -0.56349766 -0.986136 0.97547984 -3.2685838
1.4462597 -1.4970695 0.028966084 1.7495282 -1.466045 0.078408375 -14.689793 3.2887719
1.071869 2.2132182 0.0035004995 0.6931062 0.0010165023 -0.120222226 0.10212991 0.06379585
-0.8610206 -0.07708867 -0.057076544 0.050691992 -0.24245943 -11.09594 1.1356329 0.27653277
0.23980601 1.2874494 0.08805379 0.66358215 -0.09196208 -0.79713714 -1.334564 -0.22699551
-1.7700295 -3.8328173 0.5166262 -0.16988526 0.10257636 1.7518537 0.49936143 0.08065176
-0.05231157 -0.052499443 -1.6783159 -0.74854255 -0.6765892 0.23128833 -1.7961105 -0.1366228
-2.4122293 0.9534776 1.0350811 0.007971302 0.1862416 -3.0643287 -0.8712256 -0.07822721
-0.10972325 1.3075205 0.122998625 -0.7361239 -0.105339505 -1.7505728 0.29138416 -0.3092942
0.20620692 -0.7622708 0.0806112 0.11829012 -0.96917796 0.1055457 -5.081049 1.8276072
0.72855896 -0.5163376 -0.011004002 0.79825145 0.048286192 0.11342445 0.039916515 0.050012603
-0.75082433 -0.04225877 -0.0019348413 -0.10449752 -0.8339241 -3.111594 -0.99547106 0.150964
0.46963122 0.032319773 -0.09458266 0.2554546 0.08697973 0.7532899 -0.29126778 -0.56578445
-0.8098142 -0.95571774 -0.4447872 -0.0012602966 0.0650556 0.39953518 0.10112167 0.08075568
0.05296108 0.4165667 -0.42096102 -0.48145548 -1.0221806 0.7412947 0.7907164 0.114426
-0.24032383 0.6587927 -0.1674844 -0.117030755 0.373302 -3.7255778 -1.791288 -0.08564316
-0.07418664 0.042257845 -0.054847106 -0.054245412 0.09173246 0.016609935 0.08256036 -0.08410068
0.03152414 -0.05943684 0.043577105 -0.092456914 -0.09944629 0.036436036 0.05880736 -0.16167913
-0.077964954 -0.12090037 0.077069506 -0.118084416 -0.028582886 -0.09960942 -0.005489826 0.012110099
-0.04302413 0.039590582 -0.011572689 0.109204814 0.015559822 0.11872731 -0.02239827 -0.18333459
-0.054762498 0.0017073957 0.006810367 -0.08514365 -0.04945141 0.054520324 0.08656244 -0.091558106
-0.10016325 0.0023539313 -0.05092379 -0.01146929 0.09139408 0.058927894 0.046073355 0.00018846989
0.022795856 -0.099075444 -0.048726097 0.08568847 -0.090369344 -0.12064118 0.019541804 0.055177376
0.08563846 0.02562798 -0.028407881 -0.16275777 -0.13327324 0.0110029 -0.074017674 -0.027586073
-0.008098035 -0.12504794 0.07707296 -0.08208539 -0.041648954 -0.17088412 -0.00867546 -0.11154549
0.02811258 -0.014261546 -0.08708906 0.020014662 0.013627933 0.0064630657 -0.07169109 -0.016724398
-0.10058056 -0.07921799 -0.06465715 0.030782754 -0.10381265 -0.07727255 0.07696681 -0.01630044
-0.10182754 0.07376127 -0.109441385 0.04966174 0.0013902932 -0.037491303 -0.021188144 0.0065660183
-0.030473193 -0.07641184 -0.10240179 0.05681288 0.046677396 -0.015515042 0.026535153 -0.16012299
0.044247765 -0.055043697 -0.12229222 -0.035361826 0.060306072 0.010872349 -0.022153037 0.07902771
-0.040956825 -0.13625148 -0.019421136 -0.136384 -0.081775695 -0.055099264 -0.1630229 0.050130658
-0.036785156 -0.015538785 0.028631464 -0.034143142 -0.14812985 -0.025644569 -0.07429643 0.12124558

fc2.bias f4 [64]
00000000: 6442 16bf cd0c cb3f 0e24 87bd 87c3 52bb
00000010: 4272 0140 e325 58bf c3cb 11bf 9376 fc3f
00000020: 8d46 7f3f ab72 ecbd 3544 27bf de2f 303f
00000030: 6c0d f53c 6931 ee3f a241 3a3e dd68 0bbe
00000040: 5137 a9bd 2437 d53f 2297 8f3f 20f6 f3be
00000050: 9626 ba3f 1cab 8bbd 3a1e e53f 467c 1b3f
00000060: 4144 133c 78ce cbbd 9065 da3f df74 233f
00000070: d201 a5be 2af1 95bf 4e66 503f eedc ee3c
00000080: b74c 80be a5f0 27bf e6e2 26be 98b0 95bc
00000090: 006f 823e f699 9dbd 40ab 9e3d 3045 0ebd
000000a0: 50bd 0240 7cff eb3f 57f5 cdbb 974d b6bc
000000b0: 74ef c43f dd83 023f b37e 40be f7ee 9a3b
000000c0: a78c 0fbe 7ad3 0e40 36b8 9abf add0 ca3e
000000d0: 8d26 b63f 2780 37bd 754c ae3a 6d05 05be
000000e0: 6cda 9c3e b51e 07be 21a3 5a3f ac88 bebe
000000f0: b132 273e 61d4 8dbe bb99 79be 6e26 ba3e
-0.58695054 1.5863281 -0.06598674 -0.003216 2.0225987 -0.8443281 -0.5695154 1.9723686
0.99717027 -0.11545309 -0.6533845 0.6882304 0.029913627 1.8608829 0.181891 -0.13614221
-0.08262504 1.6657453 1.1217997 -0.47648716 1.4543025 -0.06819746 1.789985 0.607365
0.008988441 -0.0995149 1.7062244 0.63850206 -0.3222795 -1.1714222 0.81406105 0.029158082
-0.2505853 -0.6560157 -0.16297492 -0.018272683 0.2547531 -0.07695381 0.07747507 -0.03473395
2.0428047 1.8437343 -0.0062853503 -0.022253795 1.5385575 0.5098246 -0.18798332 0.004728194
-0.14018498 2.2316575 -1.2087467 0.39612332 1.4230515 -0.04479995 0.0013297932 -0.12990351
0.30635393 -0.13195308 0.85405165 -0.37213647 0.16327931 -0.27701095 -0.2437505 0.36357445

fc3.weight f4 [6, 64]
00000000: 0e2b 53c0 9aaa 1d40 5976 48bd 4cc2 973c
00000010: 90d1 0540 5ff0 87be 30dc d4bf 5774 a03f
00000020: d641 5440 f824 d4bd 867e 07c0 28a7 7e3f
00000030: 8601 3a3d ded5 e63f 79b4 e3bf 9538 883d
00000040: e457 11bc 3bd9 753f 3b58 1840 85fc 8440
00000050: 7bae 2840 5153 6f3b 0671 c23f 3cd1 a340
00000060: c301 153f 30dd 1e3d 3143 df3f 1069 283f
00000070: 8f62 4140 9ba5 0bc0 0a0d 853f 3ba7 a23d
00000080: 3215 b5bf 1e91 4bc0 e915 853d 3120 5540
00000090: 2535 f23e 3836 99bc b847 6e40 fe9e 6440
000000a0: 8454 a23f 3a92 e23f 514a 6a3d aef0 90bd
000000b0: f312 e93f 864e a740 4b34 ae40 2e2f 6e3e
000000c0: 8856 8b3d e89c b63f 4400 eebf e7ba 893f
000000d0: c544 643f a0df e7bc af2e fc3d b16d b83c
000000e0: 13e1 9640 de5a 98bd e791 cb3f c44c 4540
000000f0: 9d43 4240 dfba 3b3f 94cb 11bf ee59 5dbe
00000100: 156a 10c0 8d00 5540 05dd ecbd f593 683d
00000110: 8089 0a40 745d 2440 7d51 35bf f2fb a43f
00000120: f175 6840 928e f63d a899 22c0 d9a1 213f
00000130: 0649 ea3d b61f d93f c5c1 23c0 772a 473d
00000140: 5a41 983b 0b85 913f fb35 f83f 5a69 9040
00000150: d8bd dd3f 326d c3bd c01f ad3f 625b 8440
00000160: eb82 24bd 1d61 083d c415 d23f abcf 933f
00000170: db27 a440 03d5 02c0 06cf 973f 3b1c 9cbd
00000180: c2c9 0dbf 9c81 20c0 d87e d7bb 2e1f 8540
00000190: dbd0 8a3e 8c5d c4bc 7bdf 8440 93f8 ad40
000001a0: a885 943f fe04 e13f 4860 c73d 1001 be3d
000001b0: adc8 3b40 7552 ae40 3bfd b340 6a5f 003f
000001c0: 996c 46bc 7853 b93f b9d3 03c0 c86b b53f
000001d0: b4ad 573f 8023 e13a 8b56 d6bd 77d9 a6bd
000001e0: 3be5 6b40 40f0 11bb 2a97 db3f 5203 5740
000001f0: 2366 6340 3312 8c3f a9d8 093f 0dc0 d3bf
00000200: f8d9 8fc0 0c1a e03f d995 6d3d 671d 9abc
00000210: 40d2 be3f aeb9 3c40 3b3f 1bc0 6f46 b93f
00000220: d2c1 3740 cc5f 2c3c 4616 0ec0 c06c 8d3f
00000230: 73d1 283d dd2b ee3f 79cb ecbe ab15 2b3e
00000240: 01fb 1a3d 0bc1 d33f 8ada 4040 8290 7140
00000250: ad48 3140 857a dd3d 3c28 d83f 57eb 9340
00000260: ee03 023f e82a cf3d 019b b63f 98d6 1fbf
00000270: 6a49 c83f 8251 ffbf 8d58 4f3f 5ac2 d83d
00000280: 3811 fcbf 554c 3dc0 cab7 d5bd 6138 b740
00000290: 0f0a 713f 4cfb 8c3d e68b 6440 6033 3b40
000002a0: 50bd cb3f e9ff d83f 40e8 c63d 6ebe 9cbd
000002b0: dc34 243c c66d c840 9077 a840 2753 01bf
000002c0: f695 f2bc 1c73 c13f d1da c4bf ca7b 993f
000002d0: 70f1 b63f eaf3 8a3d ab1e d93d 406b 073d
000002e0: 7ea3 6b40 1eab 963d 586c bd3f 6209 fcbf
000002f0: da85 8240 f62e 103e c8cc 0d3f 9518 003f
00000300: c54d dbbf d334 2040 46a4 883d 7075 03be
00000310: af8e db3f 6e66 2d40 2c97 b4bf 2608 a73f
00000320: f787 b040 b821 c5bc 4742 3bc0 5c0b cd3e
00000330: f2fb abbd accc 1740 3393 b7bf c917 4f3d
00000340: 40e9 133d 70e0 b1be d67b 1840 0934 6a40
00000350: ef9f c63f 62bf c13d b469 ee3f 049b b540
00000360: bdab e1be dad4 003e 5727 1040 3a9a b73e
00000370: ff58 6340 7e3d 52c0 6d5f 0940 4035 663c
00000380: 29de a9bf 727d 3cc0 1eef e83d a0ec 8340
00000390: 72cb 58be e0a2 e43d 9044 69c0 aebd c340
000003a0: ff41 973f 9a0c 0d40 c2d3 d2bd 80b2 993d
000003b0: 87ab 9a3f 630d b440 ee50 fc40 f476 c7bf
000003c0: 2962 813d 1770 e93e f58d 3bc0 5ebe bdbe
000003d0: fac2 0140 1026 afbc 1987 283d a071 003d
000003e0: 5d1c 6440 bb4d b33c cbe5 9b3f 5b1f b63f
000003f0: e31c 2640 19d9 a83f 829d fe3b 2918 aa3f
-3.2995028 2.4635377 -0.04894099 0.018525265 2.0909157 -0.26550576 -1.6629696 1.2535504
3.3165183 -0.10358614 -2.1170974 0.9947381 0.04541161 1.8034017 -1.7789451 0.06651417
-0.008871052 0.9603459 2.3803852 4.155825 2.6356494 0.0036518166 1.5190742 5.1192913
0.58205813 0.03878516 1.744238 0.6578531 3.0216405 -2.1819828 1.0394604 0.07942053
-1.4147093 -3.1807323 0.0649832 3.3300898 0.4730617 -0.018702611 3.7231274 3.572204
1.2682042 1.7700875 0.05719978 -0.07077156 1.8208908 5.2283354 5.4438834 0.23260185
0.06803614 1.4266634 -1.8593831 1.0760163 0.89167434 -0.028304875 0.12313592 0.022513242
4.714975 -0.074392065 1.5903901 3.0828104 3.0353768 0.7333202 -0.5695126 -0.21616337
-2.2564747 3.3281586 -0.11565594 0.056781728 2.1646423 2.568204 -0.70827466 1.2889388
3.6321986 0.12038912 -2.5406284 0.63137585 0.11439709 1.6962802 -2.5587018 0.048624482
0.0046464624 1.1368726 1.9391474 4.5128603 1.7323561 -0.09542312 1.3525314 4.136155
-0.040163916 0.03329574 1.6412892 1.154775 5.129865 -2.0442512 1.1860054 -0.07622572
-0.55385983 -2.5079107 -0.0065764003 4.160056 0.2711247 -0.023970388 4.1522803 5.4365935
1.1603289 1.7579648 0.09735161 0.092775464 2.9341233 5.4475656 5.624662 0.5014559
-0.012110853 1.4478598 -2.0597975 1.4173517 0.84249425 0.0017176718 -0.104657255 -0.08146947
3.685866 -0.0022268444 1.7155507 3.3595777 3.553109 1.0943054 0.5384622 -1.6542984
-4.4953575 1.7507949 0.058004234 -0.018812848 1.4907913 2.948833 -2.4257343 1.447462
2.8712049 0.010520887 -2.2201095 1.1048813 0.04121537 1.8607136 -0.46248987 0.16707484
0.037837032 1.6543287 3.0133386 3.774445 2.7700608 0.10814384 1.6887279 4.622478
0.50787246 0.101156056 1.4266053 -0.6243682 1.5647404 -1.9946749 0.8099449 0.105839446
-1.9692755 -2.957784 -0.104354456 5.725632 0.94155973 0.068838686 3.5710387 2.9250107
1.5917149 1.6953098 0.09712267 -0.07653509 0.010022368 6.2634 5.264595 -0.50517505
-0.029612523 1.5113254 -1.5379277 1.1990902 1.4292431 0.06784804 0.106015526 0.033061266
3.6818538 0.07356857 1.4798689 -1.9690363 4.0788393 0.14080414 0.55390596 0.5003751
-1.7133108 2.5032241 0.06671958 -0.12837768 1.7152919 2.7093768 -1.4108634 1.3049362
5.5165973 -0.02406393 -2.9259202 0.4004773 -0.08397664 2.3718672 -1.4341797 0.050559793
0.036111116 -0.34741545 2.3825583 3.659426 1.5517558 0.094603315 1.8626008 5.675173
-0.44076338 0.12581196 2.252401 0.35859853 3.552307 -3.2850032 2.1464493 0.014050782
-1.3270923 -2.9451566 0.11373733 4.122635 -0.21171358 0.111638784 -3.6448097 6.1169043
1.1817015 2.2038941 -0.10294296 0.07504749 1.2083596 5.626634 7.884879 -1.5583177
0.06317551 0.4559333 -2.9305394 -0.370593 2.0275254 -0.021380454 0.041144464 0.03135836
3.5642312 0.02188765 1.2179502 1.4228319 2.595513 1.3191253 0.0077702412 1.3288623

fc3.bias f4 [6]
00000000: fea0 b63f f504 2340 b0f1 1440 7822 c2be
00000010: c1ab b63f b1a5 6c3f
1.4267881 2.5471776 2.3272514 -0.37916923 1.4271165 0.92440325
