episodes/1000/models/best_dqn_policy.pth (torch, 23192 bytes, 6 tensors)

fc1.weight f4 [64, 8]
0	0xbe6a3b88	-0.22874272
1	0xc04b7077	-3.1787393
2	0xbe4912b9	-0.19636048
3	0x40336596	2.8030753
4	0xbf174d65	-0.5910247
5	0x3e7b5fac	0.24548215
6	0x40ffa0b2	7.988366
7	0xbe77ca4b	-0.24198262
8	0xbeb35192	-0.3502317
9	0xbea6c253	-0.32570133
10	0xbece3e8d	-0.40282097
11	0x3d47ab7a	0.048747517
12	0x3d26daef	0.040736135
13	0x3d053f80	0.03253126
14	0xbea15e42	-0.31517226
15	0x3e8fbdac	0.28074396
16	0xbdd99d40	-0.10625696
17	0xbf116865	-0.5679992
18	0xbe30cdcd	-0.17266007
19	0xbe2617b0	-0.16219974
20	0xbd51b2af	-0.051195797
21	0x3ec73bb2	0.3891273
22	0xc075e375	-3.8420079
23	0xbf27a173	-0.65480727
24	0xbe29d118	-0.16583669
25	0xbe940ad5	-0.28914514
26	0xbe30ebb0	-0.17277408
27	0x3dfb74a6	0.12278108
28	0x3e4c9a04	0.19980627
29	0xbe8aadfc	-0.27085865
30	0xbd8ff038	-0.0702824
31	0xbe54ad52	-0.20769241
32	0xbd1b0c4a	-0.037853517
33	0xbd7332a1	-0.059374455
34	0x3ce40240	0.027833104
35	0xbdb76302	-0.08954431
36	0xbe9d7175	-0.30750623
37	0xbe5e97fa	-0.21737662
38	0x3eaf0ec4	0.34190953
39	0xbe822b32	-0.2542358
40	0x3e241cda	0.16026631
41	0xc03bc645	-2.9339764
42	0xbf09e9a6	-0.53872144
43	0xbfe37562	-1.7770197
44	0xbfab9a7f	-1.3406523
45	0x3e5c6ab1	0.21525075
46	0xbfd7fdd9	-1.6874343
47	0x3e9c434a	0.30520087
48	0xbebdbee5	-0.37059703
49	0xbeafd0bf	-0.34338948
50	0xbe5bf04d	-0.21478386
51	0xbe88eeaa	-0.26744586
52	0xbe4a21bb	-0.1973943
53	0x3e058dbe	0.13042352
54	0x3e2958d8	0.16537797
55	0xbe87fccb	-0.26560053
56	0xbe0732a5	-0.13202913
57	0xbe9eab05	-0.30989853
58	0x3e8a853a	0.2705477
59	0x3ea32e06	0.3187105
60	0xbea1d64f	-0.31608817
61	0xbe9b8bfe	-0.30380243
62	0xbeb4d104	-0.35315716
63	0x3e6d6538	0.23183143
64	0x3f931147	1.1489648
65	0xbe6046e8	-0.21902049
66	0xbf5ea439	-0.86969334
67	0x3dc8aff8	0.097991884
68	0xbea908e6	-0.330146
69	0x3debf952	0.115221635
70	0xc0ea70e0	-7.3262787
71	0xbf9a9ba8	-1.2078753
72	0xbf28b8de	-0.65907085
73	0x4064a675	3.5726597
74	0x3e88f8fd	0.26752463
75	0xc0575cca	-3.3650384
76	0x3e217c1b	0.15769999
77	0xbd215489	-0.03938726
78	0xc1904652	-18.034336
79	0xc02b806f	-2.679714
80	0xbf9d0faa	-1.2270405
81	0xbe26c4ba	-0.16285983
82	0xbfa1860f	-1.2619036
83	0x3f64d9d9	0.8939491
84	0xbeb719ac	-0.35761774
85	0xbf0b2207	-0.54348797
86	0xbfaac6fc	-1.3341975
87	0xbcdf1658	-0.027232334
88	0xbf7acbd9	-0.97967297
89	0x402693d3	2.6027725
90	0xbfe0664d	-1.753122
91	0x3d983844	0.07432607
92	0x3e6071b0	0.21918368
93	0xbf23bb95	-0.639581
94	0xc0dfba06	-6.991458
95	0x3f805e07	1.0028695
96	0x3ee48e62	0.4463988
97	0xc049fe58	-3.156149
98	0xbeb10d39	-0.345804
99	0x4071a7ee	3.7758746
100	0x3f5c1a3c	0.8597753
101	0xbdf03d2d	-0.11730418
102	0xc094e99e	-4.6535177
103	0xbfd7827b	-1.6836694
104	0xbf37dbc9	-0.7181974
105	0x3d3a61f1	0.04550356
106	0x3f22bc33	0.6356842
107	0x3cd40778	0.025882468
108	0x3e79883e	0.24368379
109	0xbf725c14	-0.9467175
110	0xc00751bd	-2.114364
111	0x3dc08fea	0.094024494
112	0xc0747d00	-3.8201294
113	0x40459155	3.0869954
114	0x3cbaddc0	0.022810817
115	0xc00bc655	-2.1839802
116	0x3f8116d3	1.008509
117	0xbdfda389	-0.123847075
118	0xc0396946	-2.8970504
119	0xbdd570e2	-0.10421921
120	0xbeebe11f	-0.4607019
121	0xc0075d5f	-2.115074
122	0x3f87534a	1.0572293
123	0x404197dc	3.0248938
124	0xbea5f50a	-0.32413512
125	0xbf90606e	-1.1279428
126	0x411e9940	9.912415
127	0x3f321b1f	0.69572634
128	0x3d6361c2	0.05551315
129	0xbfbc65c2	-1.4718554
130	0xbc0b7294	-0.008511204
131	0x3fc41a5e	1.5320547
132	0xbefa6f5c	-0.48913085
133	0x3dad13f9	0.08451075
134	0x41278d9d	10.472074
135	0xbf36ad5c	-0.71358275
136	0x3f922182	1.1416476
137	0xbecea20a	-0.40358
138	0xbfe1d59e	-1.7643316
139	0xbc4caa9a	-0.012491846
140	0xbf193853	-0.5985157
141	0x3f073095	0.52808505
142	0xc1626597	-14.149802
143	0x3d61b273	0.055101823
144	0xc0a67aa2	-5.20247
145	0x3fbfd646	1.4987266
146	0x409abda7	4.835651
147	0xbf944132	-1.1582396
148	0xbef7469d	-0.4829606
149	0x3bcb8592	0.006210991
150	0xbee7fac0	-0.45308495
151	0xbf5a9a8c	-0.8539207
152	0xbd524c50	-0.05134231
153	0x3f5559ce	0.83340156
154	0xbd413092	-0.04716546
155	0xbf660c52	-0.8986255
156	0x3e43f464	0.19136196
157	0x3fdbe58e	1.717943
158	0xc1694b83	-14.5809355
159	0xc0492c5c	-3.1433325
160	0x3c335e8d	0.010947836
161	0x3c97737f	0.01848769
162	0x3e03064b	0.1279537
163	0xbe058904	-0.13040549
164	0xbe5a0a31	-0.2129295
165	0x3e5bb8b9	0.21457185
166	0xc0487e18	-3.1326962
167	0xbec0a461	-0.3762541
168	0xbdc346c7	-0.09534984
169	0xc08cbef0	-4.398308
170	0x3e62e4a5	0.22157533
171	0x406772c9	3.616381
172	0xbe8b8848	-0.27252412
173	0xbebd905e	-0.37024206
174	0x414690ac	12.41032
175	0x4018f88e	2.3901706
176	0x3f086b72	0.5328895
177	0xc07185bb	-3.7737873
178	0xbf29d6a2	-0.6634313
179	0xbf923def	-1.1425151
180	0xbffc30e1	-1.9702417
181	0xbf7dab59	-0.9908958
182	0x40153ea3	2.331948
183	0x3f8c418e	1.0957506
184	0xbf47a477	-0.7798533
185	0xbe3ec21a	-0.18628731
186	0xc017e729	-2.373484
187	0x3e8d75ac	0.2762884
188	0x3d14ace0	0.03629768
189	0x3d04896b	0.032357614
190	0xc0775a1f	-3.8648756
191	0x3ea5e180	0.32398605
192	0x3c012857	0.007883153
193	0x3fcdd912	1.608187
194	0x3ee4c30d	0.44680062
195	0xbf6eb07f	-0.9323806
196	0xbeebbba3	-0.46041593
197	0xc09fd5d9	-4.9948545
198	0x40bb98a3	5.8623824
199	0xbe77d26d	-0.24201365
200	0xbfe5a4f0	-1.794096
201	0xbfa88df7	-1.3168324
202	0xbf4f09d5	-0.8087438
203	0x3fc465fe	1.5343626
204	0xbfbf8e9a	-1.4965394
205	0x3f218b59	0.6310325
206	0xc0076272	-2.1153836
207	0xbf9f8efc	-1.246551
208	0x3e73e7d1	0.238189
209	0xbeaf3c1e	-0.34225553
210	0xbe2a06e5	-0.16604193
211	0x3d616006	0.055023216
212	0xbe2dc34b	-0.1696903
213	0x3d2e46ba	0.04254792
214	0xbead8e47	-0.33897611
215	0xbdfc659b	-0.12324067
216	0x4019bbdf	2.4020917
217	0xbf4eccc8	-0.8078122
218	0xc02c5b0d	-2.6930573
219	0xbff36e4d	-1.9018036
220	0xbf93ab2d	-1.1536614
221	0x3e93c870	0.2886386
222	0xbfe0edff	-1.7572631
223	0x3f6dbc00	0.9286499
224	0xc0ac8b95	-5.392039
225	0xbcdd2188	-0.026993528
226	0xc0414447	-3.0197923
227	0xbec5d3af	-0.38638064
228	0x3e1d49ab	0.15360133
229	0x3f34c961	0.7061978
230	0xc05dc21e	-3.464973
231	0xbddb6aa4	-0.107136995
232	0x408eca29	4.4621778
233	0x3f0f75ab	0.5603892
234	0x3c298010	0.010345474
235	0x3da2540e	0.079261884
236	0x3bee9c10	0.0072817877
237	0xbd8c13fe	-0.06839751
238	0xbfa64a2f	-1.2991389
239	0x3c1b5b71	0.009482251
240	0xbeac66f2	-0.3367229
241	0xbe478208	-0.19483197
242	0x3e5c9191	0.21539904
243	0xbde55c8e	-0.11199294
244	0xbe58b9e2	-0.21164659
245	0xbe9d3523	-0.30704603
246	0x3eb4f0b5	0.35339895
247	0x3e2b491c	0.16727108
248	0x3f0e661d	0.5562456
249	0xbfade5ee	-1.3585794
250	0xbf29b02a	-0.6628443
251	0xbe0cf616	-0.1376575
252	0x3eb1fba1	0.3476229
253	0x3f459e01	0.7719422
254	0xc11c9075	-9.785268
255	0x40385905	2.8804333

fc1.bias f4 [64]
0	0xbfb87859	-1.4411727
1	0xbec06771	-0.3757892
2	0x3e103233	0.1408165
3	0xbe79e391	-0.24403216
4	0xbe45f0b2	-0.19330099
5	0xbe753ff1	-0.23950173
6	0xbdba0809	-0.09083564
7	0xbea3dba0	-0.32003498
8	0x3f246a82	0.6422502
9	0x403cb26a	2.9483895
10	0xbefb2d89	-0.49058178
11	0xc04dd9c1	-3.2164156
12	0x40110371	2.265835
13	0xbebb4c02	-0.36581427
14	0xbf012494	-0.5044644
15	0xbfd0e3b6	-1.6319492
16	0xbfea1f7a	-1.8290856
17	0x3ea26dc9	0.31724384
18	0xbece0d3e	-0.40244478
19	0x3fb66f9a	1.4252808
20	0x3def111a	0.11673184
21	0xbfe1c756	-1.7638958
22	0xbf80708f	-1.003435
23	0xbec36f52	-0.38170868
24	0xbf904eaa	-1.1274006
25	0x3f7045a2	0.9385625
26	0xbdd5a9d5	-0.104327835
27	0xbf4e2849	-0.8053022
28	0xbf187f87	-0.5956959
29	0xc050ae99	-3.2606566
30	0xbebf6e21	-0.3738871
31	0xbf4628d0	-0.77406025
32	0x3e626612	0.22109249
33	0xbf308028	-0.6894555
34	0xbd09e22f	-0.03366297
35	0x3e0a412d	0.13501425
36	0xbea7d9a8	-0.32783246
37	0xbeadb228	-0.33924985
38	0x40389b7d	2.8844903
39	0xbf5807d5	-0.8438695
40	0x3feb6c90	1.8392506
41	0xbf99c990	-1.2014637
42	0xc0573da9	-3.3631384
43	0xbb513465	-0.0031922099
44	0xbf1b9b4a	-0.6078383
45	0x401395f2	2.306027
46	0x3d100022	0.035156377
47	0xbfbbc6f5	-1.4670092
48	0x3f3f834a	0.74809706
49	0xbd75cb7c	-0.06000851
50	0x3e94f084	0.2908975
51	0xbf31bd04	-0.6942904
52	0x3e62fbea	0.2216641
53	0x3f58adc3	0.8464014
54	0xbe20c6a4	-0.15700775
55	0xbe073875	-0.1320513
56	0xbe375c30	-0.1790626
57	0x3cdda3c5	0.02705563
58	0xbfa7fe66	-1.3124511
59	0x3e9de1f3	0.30836448
60	0xbeee22b0	-0.4651084
61	0x3e358367	0.17725907
62	0xbe4e5e07	-0.20153056
63	0x3f239214	0.6389477

fc2.weight f4 [64, 64]
0	0xbc29d927	-0.010366715
1	0x3d28ad7c	0.041181073
2	0x3d7b5ee5	0.061369795
3	0x3ba12a40	0.0049183667
4	0xbdcf3b1a	-0.101186946
5	0xbd35cbd0	-0.044383824
6	0x3d63ecb0	0.055645645
7	0x3dd58764	0.10426214
8	0xbd675dca	-0.05648593
9	0xbc78d424	-0.015187297
10	0xbddded08	-0.10836226
11	0x3d56d648	0.05245045
12	0xbd979118	-0.07400721
13	0xbd3e0d8f	-0.04639965
14	0xbe248ed9	-0.16070117
15	0x3acd8fe7	0.0015683145
16	0xbde86528	-0.11347419
17	0xbd1610ce	-0.03663712
18	0xbda4effe	-0.080535874
19	0xbd6916d6	-0.056906544
20	0x3d3c71b3	0.04600687
21	0xbe327c61	-0.1743026
22	0x3d962d6d	0.07332883
23	0xbdd3fbdf	-0.10350775
24	0xbc471c7d	-0.012152788
25	0xbd8b3578	-0.06797308
26	0x3d423710	0.047415793
27	0xbdf51c6d	-0.119683124
28	0x3d3a9970	0.045556486
29	0xbdc5062a	-0.09620316
30	0x3d96b572	0.07358827
31	0xbd99c9eb	-0.07509216
32	0x3d9718f5	0.07377807
33	0x3c95d3d0	0.018289477
34	0x3d64dafa	0.055872895
35	0xbd597bd3	-0.053096604
36	0x3d8d2b24	0.06892994
37	0x3da03ef2	0.07824506
38	0xbdb450e6	-0.08804493
39	0xbd890702	-0.0669079
40	0xbdef72e0	-0.116918325
41	0x3cd4c330	0.025971979
42	0xbc8fc690	-0.017550737
43	0xbd201e7c	-0.039091572
44	0xbd4a40f8	-0.049378365
45	0x3cac9041	0.02106488
46	0xbdf9237c	-0.12164971
47	0xbcad0c60	-0.021124065
48	0x3d54b20f	0.051927622
49	0xbde910a8	-0.1138013
50	0xbc9c8590	-0.019106656
51	0xbda2ca84	-0.07948783
52	0xbe112409	-0.14173903
53	0xbd8f3bcb	-0.069938265
54	0x3c8c1b73	0.017102933
55	0xbc199a70	-0.0093752
56	0xbe21cf0b	-0.15801637
57	0xbd9309e1	-0.071796186
58	0xbdd462af	-0.10370385
59	0x3da4cdc3	0.080470584
60	0xbda2e50d	-0.07953844
61	0x3d809b2b	0.06279596
62	0xbdcc0a6e	-0.09962927
63	0xbd88546c	-0.06656727
64	0xc0c3e5b0	-6.121788
65	0xbdd52b6a	-0.10408671
66	0xbe25dfe9	-0.16198696
67	0x3c3474b0	0.011014149
68	0xbd8a673c	-0.06757972
69	0xbdb9d1ba	-0.09073205
70	0xbdc532d8	-0.09628838
71	0x3cd26d28	0.025686815
72	0xc0067f2b	-2.1015117
73	0xbda753c7	-0.08170276
74	0xbd25bd36	-0.04046365
75	0xbfde6909	-1.7375804
76	0x3e74c3f5	0.23902877
77	0xbcfd1cb0	-0.030897468
78	0xbf3a65a8	-0.72811365
79	0xc0b3801d	-5.609389
80	0xbfa9ff8a	-1.3281109
81	0x3f21da36	0.6322359
82	0x3f2facba	0.68622935
83	0xbec2a90a	-0.38019592
84	0xbd91b31c	-0.071142405
85	0xc06307e8	-3.5473576
86	0xbf885427	-1.0650681
87	0xbf521d6e	-0.82076156
88	0xc082b2c1	-4.0843205
89	0x3de72d38	0.11287922
90	0x3d78c190	0.06073147
91	0xbfb03f2b	-1.3769277
92	0xbdefe692	-0.117139
93	0xbf7d940a	-0.99054015
94	0xbdc8289a	-0.09773369
95	0xbf037867	-0.51355594
96	0xbfc4be45	-1.5370566
97	0xc08074d5	-4.0142617
98	0xbcd1ded9	-0.025618957
99	0x3ed8ef6e	0.4237017
100	0xbd538c01	-0.05164719
101	0xbdc8219c	-0.097720355
102	0xbf09192f	-0.5355405
103	0x400cbd2a	2.1990457
104	0xbe9102f9	-0.2832258
105	0xbfd691f6	-1.6763294
106	0xbe832d60	-0.25620556
107	0xbc3b5630	-0.011434123
108	0xbdc7218b	-0.09723195
109	0xc104b75a	-8.294764
110	0x3e182cbc	0.14860815
111	0xbf815f0f	-1.0107135
112	0xbf17e5df	-0.5933513
113	0x3ef0343c	0.46914852
114	0x3f9e4a91	1.2366506
115	0xbd901cfc	-0.07036778
116	0x3d88a46c	0.06671986
117	0x3eab1504	0.3341447
118	0xbec4b3ac	-0.3841833
119	0x3d8f7e70	0.07006538
120	0xbf8e709d	-1.1128117
121	0xbf053cbe	-0.5204581
122	0x3fa90d8b	1.3207258
123	0x3d868990	0.06569207
124	0xbfeab723	-1.8337139
125	0x3fa0765e	1.2536123
126	0xbfa6d630	-1.3034115
127	0xc085a21b	-4.1760383
128	0xc088f461	-4.2798314
129	0xbc7e95b1	-0.015538619
130	0x3f5b9cbf	0.8578605
131	0xbc4ac315	-0.012375613
132	0xbdbcffaa	-0.092284516
133	0x3e7e22e3	0.24817996
134	0xbd2b3b26	-0.041804455
135	0x3deac654	0.11463609
136	0xc061c461	-3.527611
137	0xbd9677e9	-0.0734709
138	0xbf38df3a	-0.72215617
139	0x3e4ce4ac	0.20009106
140	0xbfa78b13	-1.3089317
141	0xbca30764	-0.019900985
142	0xbe40cd97	-0.18828426
143	0xc0850b8f	-4.157661
144	0xc0001a1c	-2.0015936
145	0xbf87444e	-1.056772
146	0xc032e320	-2.7951126
147	0xc09157bd	-4.5419602
148	0xbe9681ed	-0.29396
149	0xbf27c206	-0.6553043
150	0xbfc8db7d	-1.5691983
151	0x3f9c9f95	1.22362
152	0xc0a26150	-5.074379
153	0xbd570d4c	-0.052502915
154	0xbdb7b58b	-0.089701734
155	0x3f71b083	0.9440996
156	0xbf06fc64	-0.5272887
157	0x3d49383f	0.049125906
158	0x3d3d4890	0.04621178
159	0xbdbc37ac	-0.09190306
160	0x3e1469e9	0.14493527
161	0xc06cd228	-3.700327
162	0xbe513015	-0.20428498
163	0xbfb113a9	-1.3834125
164	0x3f322cab	0.6959941
165	0xbe8ed7b3	-0.2789894
166	0xbf709ef8	-0.9399257
167	0xc10d0a96	-8.815084
168	0xbeb4f0e3	-0.35340032
169	0xbde345c5	-0.11097292
170	0xc01fd2ad	-2.4972336
171	0x3f1a1525	0.60188514
172	0x3f516e1b	0.8180863
173	0xc10b2dc2	-8.698671
174	0x3eb8906c	0.36047685
175	0xc1325bd2	-11.147417
176	0xc0d00fce	-6.5019293
177	0xbed1a9b6	-0.40949792
178	0xbefc3b69	-0.49264076
179	0xbe62571a	-0.22103539
180	0xbdb7332f	-0.08945309
181	0xc0138181	-2.3047793
182	0x3db7f745	0.0898271
183	0x3d92af80	0.0716238
184	0x3f1b66b6	0.607036
185	0xbe416e27	-0.18889676
186	0xbef16681	-0.47148517
187	0xbcbd7f4a	-0.023131985
188	0xc08464ca	-4.1373034
189	0xbf1e607e	-0.61865985
190	0x3e56c509	0.209736
191	0x3ec84faf	0.39123294
192	0xbecc0990	-0.39851046
193	0x3d64ac64	0.055828467
194	0x3dbdcecc	0.09267959
195	0xbded07a8	-0.11573726
196	0xbd9dbb1e	-0.077017054
197	0xbcfa0490	-0.030519754
198	0x3c9b8d98	0.018988416
199	0xbdb8530c	-0.09000215
200	0xbce8eb8c	-0.02843263
201	0x407d3bb1	3.9567683
202	0x3de84e0c	0.11343011
203	0xbf39ef93	-0.72631186
204	0xbfa91827	-1.3210496
205	0xbb9daf17	-0.004812132
206	0xbf107589	-0.56429344
207	0xc079c4fd	-3.9026482
208	0xc0357e0e	-2.8358188
209	0xbdcfdcc4	-0.101495296
210	0xc06b4234	-3.6759157
211	0xc072779b	-3.7885501
212	0x3dc80120	0.097658396
213	0xbfc3608f	-1.5263842
214	0x3d701f19	0.058623407
215	0xbdf9aa34	-0.12190667
216	0xc0629e00	-3.5408936
217	0xc01e2305	-2.4708874
218	0x3d865f4c	0.06561145
219	0xbc124533	-0.008927631
220	0xbde0a6a4	-0.10969284
221	0xbeb48ecf	-0.35265204
222	0x3db19b5a	0.08672209
223	0x3fa36ee8	1.2768221
224	0xbcf8fb04	-0.030393131
225	0xbe32e667	-0.17470704
226	0xbd9f8830	-0.077896476
227	0xbdb59a2c	-0.088672966
228	0xbdd80c38	-0.105492055
229	0x3d785d98	0.060636133
230	0xbec158db	-0.37763104
231	0xc0279354	-2.6183672
232	0xc0ade781	-5.4345098
233	0xbe5b3515	-0.21406968
234	0xbfbafb4f	-1.4607943
235	0xbddfda44	-0.10930303
236	0x3d90639e	0.070502505
237	0xc0c82d4c	-6.2555294
238	0xbd0775bc	-0.033071265
239	0xc022d923	-2.544503
240	0xbe41c221	-0.1892171
241	0xbecae6b7	-0.39629146
242	0x3ddc385e	0.10752939
243	0x3e774966	0.24149093
244	0x3b830780	0.003998697
245	0xc041e807	-3.0297868
246	0xbd8144e6	-0.063119695
247	0xbd10ce34	-0.0353529
248	0x3e107249	0.14106096
249	0xbf758dd6	-0.9591955
250	0xbdbf23d6	-0.09333007
251	0xbdbf387a	-0.09336944
252	0x3d136bf4	0.035991624
253	0xbe0d77de	-0.13815257
254	0xc0970210	-4.719002
255	0x3d295f3d	0.041350592

fc2.bias f4 [64]
0	0xbe50fa50	-0.20407987
1	0xc02460c3	-2.5684059
2	0xbd9aec6d	-0.07564626
3	0xc011f459	-2.2805388
4	0xbe37b4ca	-0.1794006
5	0xbed922f4	-0.4240948
6	0x41076a97	8.463523
7	0x3f0edcac	0.5580547
8	0xc0190854	-2.3911333
9	0x40c017e3	6.002916
10	0x3e1bb96a	0.15207449
11	0xbef6a212	-0.48170525
12	0xbfe088c0	-1.7541733
13	0xc0178061	-2.3672106
14	0xbf0a9a41	-0.5414162
15	0xbe846d89	-0.2586482
16	0x408a437f	4.3207393
17	0x3fbb736b	1.4644598
18	0xbff4e191	-1.9131337
19	0xc02cca0c	-2.699832
20	0xc0a5e587	-5.1842685
21	0xc057cc58	-3.3718472
22	0xbe4c6790	-0.19961381
23	0xc0c6db9a	-6.214307
24	0xbeb99e66	-0.3625366
25	0xbfeb2257	-1.8369855
26	0xc0352339	-2.8302748
27	0xbea2b1d8	-0.3177631
28	0xc014487c	-2.316924
29	0xbfb4029b	-1.4063295
30	0xc01b7b78	-2.429411
31	0xc103e9cb	-8.244578
32	0x40122292	2.28336
33	0xbff36882	-1.9016268
34	0xbe8c51e3	-0.27406225
35	0x3f01db9f	0.5072574
36	0xbe149b30	-0.14512324
37	0x4097e3d5	4.7465615
38	0x3e883c90	0.26608706
39	0x4100b3c2	8.043886
40	0xc0d0fa1f	-6.5305324
41	0xbf0eeff4	-0.5583489
42	0xbeec490a	-0.46149474
43	0xbe03e39f	-0.128798
44	0xbe8772cb	-0.26454768
45	0xbd186f59	-0.037215564
46	0x3f0bcf79	0.54613453
47	0xc0a84085	-5.257876
48	0x40f12a71	7.536431
49	0x4068321c	3.6280584
50	0xc04e9a11	-3.2281535
51	0xbe6b5534	-0.22981721
52	0x40955e44	4.667757
53	0x3f9fcf6a	1.2485173
54	0xbe530722	-0.2060819
55	0xbdad7b61	-0.08470798
56	0xbd9ba3eb	-0.07599624
57	0xbf26f3a8	-0.6521554
58	0xbdcea067	-0.10089188
59	0x3fde559f	1.736988
60	0x3f8c49fd	1.096008
61	0x3fe26b1e	1.768894
62	0xbe9e35b7	-0.30900356
63	0x3fdea93f	1.73954

fc3.weight f4 [6, 64]
0	0x3c116333	0.008873749
1	0x4102d7e4	8.177708
2	0x4208138d	34.019093
3	0x40d8b212	6.771737
4	0x3cba8731	0.022769542
5	0x3f8eafdb	1.1147417
6	0xbf922a5e	-1.141918
7	0x3f863868	1.0485964
8	0x4133f5b2	11.247484
9	0xbf98969c	-1.1920962
10	0x412cf9e4	10.811008
11	0x402b780f	2.6792028
12	0x411bd055	9.738362
13	0x4162eab0	14.182297
14	0x412836f0	10.513412
15	0x40a97fe0	5.2968597
16	0x3fdeed8a	1.7416241
17	0xbdad5a93	-0.08464541
18	0x40b84db6	5.759486
19	0x411eb3db	9.91891
20	0xbfa735eb	-1.306333
21	0x3f777c6c	0.9667423
22	0xbda5a199	-0.08087463
23	0xbea91a22	-0.3302775
24	0x42075603	33.833996
25	0x409ccc93	4.8999724
26	0x412c78d1	10.779496
27	0x3f48114b	0.78151387
28	0x4180e521	16.11188
29	0x40d371f1	6.607659
30	0xbe9d89f9	-0.30769327
31	0xc0476752	-3.1156812
32	0xbf50ad45	-0.8151439
33	0x40da9a78	6.831356
34	0x4089c798	4.3056145
35	0x413d1e64	11.81992
36	0xbd262839	-0.040565703
37	0x40463747	3.0971239
38	0xbfa05999	-1.2527343
39	0x4077c55b	3.8714206
40	0xbebdb7f2	-0.37054402
41	0x412fc280	10.984985
42	0x4047389e	3.1128306
43	0xbb5ce3d5	-0.0033705134
44	0x3dce1630	0.10062826
45	0x3d84dfd5	0.06488005
46	0x4167091b	14.439723
47	0xbf935832	-1.151129
48	0x4030ca72	2.7623563
49	0x4061de18	3.5291805
50	0x41804c42	16.037235
51	0x3d50044d	0.05078535
52	0x400a9263	2.1651847
53	0x4019ce43	2.4032142
54	0x3da9d848	0.082932055
55	0xbc52af3d	-0.012859163
56	0xbd0d4487	-0.03448918
57	0x41d613d1	26.759676
58	0xbdbe8f12	-0.09304632
59	0xbf2fb65e	-0.68637645
60	0x40902bc6	4.5053434
61	0x409f7fd7	4.9843554
62	0x41501344	13.0047035
63	0x40f35884	7.604555
64	0xbc139ea8	-0.009009995
65	0x40fe9e44	7.9568195
66	0x420eaa49	35.666294
67	0x4111bb0a	9.108164
68	0xbcf30f58	-0.029670402
69	0x3fa46e00	1.2846069
70	0xbf9b7fd2	-1.2148383
71	0x3f282f04	0.6569674
72	0x413b7110	11.715103
73	0xbfb757c7	-1.4323663
74	0x41229d0e	10.163343
75	0x40528309	3.2892478
76	0x412c272d	10.759564
77	0x4180c078	16.093979
78	0x41685551	14.520829
79	0x40530600	3.2972412
80	0x3ff5bb5a	1.91978
81	0xbe6a13e8	-0.22859156
82	0x411c09bb	9.752376
83	0x41326361	11.149262
84	0xbe4ab1ad	-0.1979434
85	0x3fef9c44	1.8719563
86	0x3db4ce1f	0.08828377
87	0xbec182e1	-0.37795165
88	0x4215093f	37.25903
89	0x401c9cf6	2.4470801
90	0x414d96a5	12.849278
91	0x3f0dcdc7	0.55392116
92	0x416fd3ae	14.98918
93	0x40e1c20c	7.0549374
94	0xbd304725	-0.0430366
95	0xc0370995	-2.8599598
96	0xbf7063b0	-0.9390211
97	0x410ecec9	8.925485
98	0x409e101e	4.9394674
99	0x41173c4a	9.452219
100	0xbc5b7347	-0.0133941835
101	0x403c5afa	2.9430528
102	0xbf9c5f0e	-1.2216508
103	0x4083f576	4.1237135
104	0xbf7d5197	-0.9895262
105	0x41673aff	14.451903
106	0x4077a436	3.8693976
107	0x3d830436	0.063972875
108	0x3ca0ea1b	0.01964288
109	0x3b680efd	0.0035409324
110	0x417adbcd	15.678662
111	0xbf6b4c63	-0.9191343
112	0x405639e8	3.3472843
113	0x40586056	3.3808799
114	0x412dbcab	10.8585615
115	0xbdd98035	-0.10620157
116	0x3feb3f5a	1.8378708
117	0x401b95de	2.4310222
118	0x3a718622	0.0009213408
119	0xbd4aede2	-0.04954327
120	0xbd37e484	-0.044895664
121	0x41d5ddfd	26.733393
122	0x3d38a567	0.045079615
123	0xbf8d0667	-1.1017579
124	0x40ac1d3b	5.378568
125	0x40a7be5b	5.2419868
126	0x41487172	12.527697
127	0x40dd97e4	6.9247913
128	0xbdd0d60b	-0.101970755
129	0x40e8eefc	7.279173
130	0x421b6382	38.847176
131	0x40db48cc	6.8526363
132	0x3d3ac96f	0.04560226
133	0x3f1094fc	0.5647733
134	0xbf83124b	-1.0239958
135	0x3f6fbcae	0.9364728
136	0x41319ff7	11.101554
137	0xbfadbaaa	-1.357259
138	0x41247198	10.277733
139	0x4028b6eb	2.6361644
140	0x40d2f272	6.5920954
141	0x416f7075	14.964955
142	0x41146f6e	9.2772045
143	0x409743c8	4.727024
144	0x401c087f	2.4380186
145	0x3dc8e67e	0.09809588
146	0x40c2a0f5	6.082148
147	0x41262bb0	10.385666
148	0x3ebf4951	0.37360623
149	0x3f218ac8	0.6310239
150	0x3d3e138c	0.04640536
151	0xbe48ccb0	-0.19609332
152	0x420824f3	34.036083
153	0x4097f745	4.7489343
154	0x4157d136	13.488577
155	0x4084ca71	4.149712
156	0x414cd7c6	12.802679
157	0x4095812b	4.6720176
158	0x3e756a7f	0.23966406
159	0xc0414430	-3.0197868
160	0xbf8b6935	-1.0891482
161	0x40b901e5	5.7814813
162	0x40990a5e	4.7825155
163	0x4148c6e8	12.548561
164	0x3ce8b5c8	0.028406993
165	0x4049bbf0	3.1520958
166	0xbfdac739	-1.7092048
167	0x4081b411	4.053231
168	0xbfa73bc1	-1.306511
169	0x410452fb	8.270259
170	0x401a9988	2.4156208
171	0x3d6d5418	0.057941526
172	0xbcc1cf40	-0.023658395
173	0xbe013323	-0.12617163
174	0x41553791	13.326066
175	0xbf9af3e2	-1.2105677
176	0x4036d857	2.8569543
177	0x4049ca59	3.1529753
178	0x416c355b	14.763026
179	0xbdb942d6	-0.09045951
180	0x3fd7a629	1.6847583
181	0x4020abb2	2.5104795
182	0x3cd093f0	0.025461167
183	0xbdad23b5	-0.08454076
184	0xbc759799	-0.014989757
185	0x41d18163	26.188177
186	0xbd977d5e	-0.07396959
187	0xbf6bd9d8	-0.9212928
188	0x405d3da1	3.4568865
189	0x4082a777	4.0829425
190	0x4156497a	13.392939
191	0x40db975a	6.8622255
192	0xbc737265	-0.014858817
193	0x40ec92f4	7.3929386
194	0x4219b14f	38.423153
195	0x40276145	2.6153119
196	0xbd90f72a	-0.07078393
197	0x401123bb	2.2678058
198	0xbf8c1ffa	-1.0947258
199	0x3f5c797e	0.8612288
200	0x414aec2a	12.682657
201	0xbfb6e617	-1.4288968
202	0x411f9f80	9.97644
203	0x405f3919	3.48786
204	0x411e2b4c	9.885571
205	0x412e7293	10.902972
206	0x4125da05	10.365727
207	0x40987ca3	4.7652144
208	0x3fb0ce29	1.3812915
209	0xbebc507a	-0.3678015
210	0x4110fcb0	9.061691
211	0x411660c9	9.398629
212	0xbf8091ae	-1.0044458
213	0x3f6f094f	0.9337358
214	0xbd5a3543	-0.05327345
215	0xbf0f28bf	-0.5592155
216	0x421e598c	39.58745
217	0x4042c459	3.043234
218	0x415ae16c	13.680035
219	0x400f80de	2.2422404
220	0x41732ff3	15.199206
221	0x40acef6d	5.404227
222	0x3d8772b4	0.06613675
223	0xc03aa0fd	-2.916076
224	0xbf06375d	-0.5242823
225	0x40d574f2	6.6705256
226	0x4082260c	4.0671444
227	0x41258464	10.344822
228	0x3ca96e8c	0.020682596
229	0x404db02f	3.2138784
230	0xbfacd936	-1.3503788
231	0x408521f6	4.1603956
232	0xbf8b8b85	-1.0901953
233	0x417c0f37	15.753715
234	0x403c1565	2.9388058
235	0x3d6f9880	0.058495045
236	0xbd94312b	-0.072359405
237	0x3d87da37	0.06633418
238	0x41587ed4	13.530964
239	0xbf8a28f1	-1.0793744
240	0x402fe8f9	2.7485945
241	0x406a7c9e	3.663856
242	0x4181605e	16.172054
243	0x3d2a5b09	0.041590724
244	0x3fff4332	1.9942381
245	0x40193858	2.394064
246	0x3d8df1d9	0.069308944
247	0x3a94d329	0.0011354435
248	0xbb8054db	-0.0039163656
249	0x41e580ea	28.687946
250	0xbdacac5a	-0.08431311
251	0xbd82f15b	-0.06393691
252	0x408d440a	4.4145555
253	0x40b0547e	5.510314
254	0x4170c301	15.047608
255	0x40e7e6a0	7.2469025

fc3.bias f4 [6]
0	0x40d7d808	6.745121
1	0x409770a0	4.732498
2	0x40e74176	7.226741
3	0x40c986b6	6.297694
4	0x4114e6ff	9.306396
5	0x40fad526	7.838519
