episodes/1000/models/dqn_policy.pth (torch, 23142 bytes, 6 tensors)

fc1.weight f4 [64, 8]
-0.18454863 -6.0129976 -0.096890494 5.904728 0.25849292 -0.065284155 1.1574891 -1.3510892
-0.3502317 -0.32570133 -0.40282097 0.048747517 0.040736135 0.03253126 -0.31517226 0.28074396
-0.10625696 -0.5679992 -0.17266007 -0.16219974 -0.051195797 0.3891273 -3.8420079 -0.65480727
-0.16583669 -0.28914514 -0.17277408 0.12278108 0.19980627 -0.27085865 -0.0702824 -0.20769241
-0.037853517 -0.059374455 0.027833104 -0.08954431 -0.30750623 -0.21737662 0.34190953 -0.2542358
0.16026631 -2.9339764 -0.53872144 -1.7770197 -1.3406523 0.21525075 -1.6874343 0.30520087
-0.37059703 -0.34338948 -0.21478386 -0.26744586 -0.1973943 0.13042352 0.16537797 -0.26560053
-0.13202913 -0.30989853 0.2705477 0.3187105 -0.31608817 -0.30380243 -0.35315716 0.23183143
1.1489648 -0.21902049 -0.86969334 0.097991884 -0.330146 0.115221635 -7.3262787 -1.2078753
-0.032186843 3.332627 -0.12581697 -4.0428 0.093913466 0.005196991 -18.342585 -2.6425333
-1.2270405 -0.16285983 -1.2619036 0.8939491 -0.35761774 -0.54348797 -1.3341975 -0.027232334
-1.011438 2.5710065 -1.7848872 0.04256027 0.18741783 -0.639581 -7.023222 0.97110397
0.32202855 -1.4661101 -0.26182568 2.983312 0.15698329 0.014953888 -5.943319 -1.4229612
-0.7181974 0.04550356 0.6356842 0.025882468 0.24368379 -0.9467175 -2.114364 0.094024494
-5.0408435 2.615784 0.21495998 -1.9645241 0.3906891 0.030843034 -4.342151 -0.07931038
-0.5095382 -0.49581325 0.31456944 2.1702423 -0.20105717 -1.2529593 10.832672 1.0611782
-0.28781602 -2.2572076 0.25247556 2.2307212 -0.004125861 -0.03573972 9.688654 -0.71358275
1.1416476 -0.40358 -1.7643316 -0.012491846 -0.5985157 0.52808505 -14.149802 0.055101823
-4.6134987 2.9836915 4.684141 -2.8906817 -0.3334836 -0.06304966 -3.884669 -1.1231837
-0.109130494 1.5842031 0.04087392 -1.7922434 0.24027933 1.8922325 -15.928104 -3.248436
0.010947836 0.01848769 0.1279537 -0.13040549 -0.2129295 0.21457185 -3.1326962 -0.3762541
0.22049484 -3.8970008 -0.15976425 3.2796786 0.022043947 -0.1711588 10.528491 2.3839626
0.5328895 -3.7737873 -0.6634313 -1.1425151 -1.9702417 -0.9908958 2.331948 1.0957506
-0.7798533 -0.18628731 -2.373484 0.2762884 0.03629768 0.032357614 -3.8648756 0.32398605
0.040386286 1.7182789 0.28367764 -1.7484082 0.17827563 -4.9948545 4.0128317 -0.6574139
-2.0229175 -2.2367408 -1.0571511 1.6423894 -1.8960795 -0.3071465 -2.585211 -1.246551
0.238189 -0.34225553 -0.16604193 0.055023216 -0.1696903 0.04254792 -0.33897611 -0.12324067
2.2565777 -0.94324756 -2.8738198 -1.8810048 -1.2513765 0.22578442 -1.816013 0.8657978
-5.392039 -0.026993528 -3.0197923 -0.38638064 0.15360133 0.7061978 -3.464973 -0.107136995
5.3538218 0.61491346 -0.31318608 -0.10629722 0.048848078 -0.04736881 -1.0665315 -0.042129345
-0.3367229 -0.19483197 0.21539904 -0.11199294 -0.21164659 -0.30704603 0.35339895 0.16727108
1.1561825 -0.46512237 -0.796889 -0.9134109 0.29791543 0.361226 -14.885753 3.0737743
00000000: 51fa 3cbe 7a6a c0c0 866e c6bd 88f3 bc40
00000010: 2f59 843e b3b3 85bd 9a28 943f 7ef0 acbf
00000020: 9251 b3be 53c2 a6be 8d3e cebe 7aab 473d
00000030: efda 263d 803f 053d 425e a1be acbd 8f3e
00000040: 409d d9bd 6568 11bf cdcd 30be b017 26be
00000050: afb2 51bd b23b c73e 75e3 75c0 73a1 27bf
00000060: 18d1 29be d50a 94be b0eb 30be a674 fb3d
00000070: 049a 4c3e fcad 8abe 38f0 8fbd 52ad 54be
00000080: 4a0c 1bbd a132 73bd 4002 e43c 0263 b7bd
00000090: 7571 9dbe fa97 5ebe c40e af3e 322b 82be
000000a0: da1c 243e 45c6 3bc0 a6e9 09bf 6275 e3bf
000000b0: 7f9a abbf b16a 5c3e d9fd d7bf 4a43 9c3e
000000c0: e5be bdbe bfd0 afbe 4df0 5bbe aaee 88be
000000d0: bb21 4abe be8d 053e d858 293e cbfc 87be
000000e0: a532 07be 05ab 9ebe 3a85 8a3e 062e a33e
000000f0: 4fd6 a1be fe8b 9bbe 04d1 b4be 3865 6d3e
00000100: 4711 933f e846 60be 39a4 5ebf f8af c83d
00000110: e608 a9be 52f9 eb3d e070 eac0 a89b 9abf
00000120: 5ad6 03bd c349 5540 2ad6 00be 9e5e 81c0
00000130: b455 c03d 854b aa3b 9dbd 92c1 441f 29c0
00000140: aa0f 9dbf bac4 26be 0f86 a1bf d9d9 643f
00000150: ac19 b7be 0722 0bbf fcc6 aabf 5816 dfbc
00000160: cd76 81bf 5f8b 2440 2f77 e4bf ad53 2e3d
00000170: 76ea 3f3e 95bb 23bf 3cbe e0c0 459a 783f
00000180: ede0 a43e 7fa9 bbbf 040e 86be 95ee 3e40
00000190: 3ac0 203e 2701 753c ab2f bec0 9823 b6bf
000001a0: c9db 37bf f161 3a3d 33bc 223f 7807 d43c
000001b0: 3e88 793e 145c 72bf bd51 07c0 ea8f c03d
000001c0: 974e a1c0 0169 2740 781e 5c3e 8775 fbbf
000001d0: 6708 c83e 88aa fc3c e7f2 8ac0 7b6d a2bd
000001e0: 1871 02bf 3cdb fdbe 3f0f a13e 40e5 0a40
000001f0: eee1 4dbe f860 a0bf a052 2d41 b0d4 873f
00000200: 9f5c 93be 1776 10c0 7a44 813e 23c4 0e40
00000210: 3b32 87bb d063 12bd ba04 1b41 5cad 36bf
00000220: 8221 923f 0aa2 cebe 9ed5 e1bf 9aaa 4cbc
00000230: 5338 19bf 9530 073f 9765 62c1 73b2 613d
00000240: c8a1 93c0 cdf4 3e40 7ce4 9540 ee00 39c0
00000250: 5dbe aabe 2e20 81bd 6b9e 78c0 7cc4 8fbf
00000260: cf7f dfbd 2bc7 ca3f 696b 273d 3b68 e5bf
00000270: c90b 763e ad34 f23f 84d9 7ec1 60e6 4fc0
00000280: 8d5e 333c 7f73 973c 4b06 033e 0489 05be
00000290: 310a 5abe b9b8 5b3e 187e 48c0 61a4 c0be
000002a0: 66c9 613e 7668 79c0 3d99 23be 41e6 5140
000002b0: 8295 b43c 4144 2fbe b374 2841 d892 1840
000002c0: 726b 083f bb85 71c0 a2d6 29bf ef3d 92bf
000002d0: e130 fcbf 59ab 7dbf a33e 1540 8e41 8c3f
000002e0: 77a4 47bf 1ac2 3ebe 29e7 17c0 ac75 8d3e
000002f0: e0ac 143d 6b89 043d 1f5a 77c0 80e1 a53e
00000300: 176c 253d 90f0 db3f 323e 913e d7cb dfbf
00000310: e38d 363e d9d5 9fc0 1e69 8040 474c 28bf
00000320: 7b77 01c0 c326 0fc0 ba50 87bf d139 d23f
00000330: bcb2 f2bf 4e42 9dbe 1974 25c0 fc8e 9fbf
00000340: d1e7 733e 1e3c afbe e506 2abe 0660 613d
00000350: 4bc3 2dbe ba46 2e3d 478e adbe 9b65 fcbd
00000360: c56b 1040 ac78 71bf aaec 37c0 c4c4 f0bf
00000370: 1b2d a0bf 0834 673e 1d73 e8bf eda4 5d3f
00000380: 958b acc0 8821 ddbc 4744 41c0 afd3 c5be
00000390: ab49 1d3e 61c9 343f 1ec2 5dc0 a46a dbbd
000003a0: 8252 ab40 f86a 1d3f ed59 a0be 5bb2 d9bd
000003b0: ec14 483d cc05 42bd 1b84 88bf d28f 2cbd
000003c0: f266 acbe 0882 47be 9191 5c3e 8e5c e5bd
000003d0: e2b9 58be 2335 9dbe b5f0 b43e 1c49 2b3e
000003e0: cafd 933f 8524 eebe eb00 4cbf 4cd5 69bf
000003f0: 5f88 983e 9df2 b83e 0b2c 6ec1 b8b8 4440

fc1.bias f4 [64]
-0.33973408 -0.3757892 0.1408165 -0.24403216 -0.19330099 -0.23950173 -0.09083564 -0.32003498
0.6422502 2.8480072 -0.49058178 -3.2481816 2.7174623 -0.36581427 0.60679835 -2.0019016
-1.6720568 0.31724384 -0.15443322 1.5995708 0.11673184 -1.9374244 -1.003435 -0.38170868
-0.582679 0.93627894 -0.104327835 -0.8681543 -0.5956959 -3.8016746 -0.3738871 -0.5808817
0.22109249 -0.721221 -0.03366297 0.13501425 -0.32783246 -0.33924985 3.4290833 -0.9946917
1.324087 -0.9592744 -3.3504007 -0.0031922099 -0.6078383 2.189017 0.035156377 -1.0254735
0.74809706 -0.06000851 0.2908975 -0.56571215 0.2216641 0.39454463 -0.15700775 -0.1320513
-0.28430632 -0.15144631 -1.3442163 0.30836448 -0.4651084 0.17725907 -0.265335 0.20944883
00000000: a0f1 adbe 7167 c0be 3332 103e 91e3 79be
00000010: b2f0 45be f13f 75be 0908 babd a0db a3be
00000020: 826a 243f c045 3640 892d fbbe 35e2 4fc0
00000030: e7ea 2d40 024c bbbe 2357 1b3f 281f 00c0
00000040: f505 d6bf c96d a23e be23 1ebe bcbe cc3f
00000050: 1a11 ef3d 86fd f7bf 8f70 80bf 526f c3be
00000060: 732a 15bf faaf 6f3f d5a9 d5bd 5c3f 5ebf
00000070: 877f 18bf a34e 73c0 216e bfbe aab4 14bf
00000080: 1266 623e f1a1 38bf 2fe2 09bd 2d41 0a3e
00000090: a8d9 a7be 28b2 adbe 1a76 5b40 1ea4 7ebf
000000a0: af7b a93f 0293 75bf f76c 56c0 6534 51bb
000000b0: 4a9b 1bbf db18 0c40 2200 103d b742 83bf
000000c0: 4a83 3f3f 7ccb 75bd 84f0 943e 83d2 10bf
000000d0: eafb 623e c101 ca3e a4c6 20be 7538 07be
000000e0: 9990 91be be14 1bbe 480f acbf f3e1 9d3e
000000f0: b022 eebe 6783 353e fdd9 87be c179 563e

fc2.weight f4 [64, 64]
-0.010366715 0.041181073 0.061369795 0.0049183667 -0.101186946 -0.044383824 0.055645645 0.10426214
-0.05648593 -0.015187297 -0.10836226 0.05245045 -0.07400721 -0.04639965 -0.16070117 0.0015683145
-0.11347419 -0.03663712 -0.080535874 -0.056906544 0.04600687 -0.1743026 0.07332883 -0.10350775
-0.012152788 -0.06797308 0.047415793 -0.119683124 0.045556486 -0.09620316 0.07358827 -0.07509216
0.07377807 0.018289477 0.055872895 -0.053096604 0.06892994 0.07824506 -0.08804493 -0.0669079
-0.116918325 0.025971979 -0.017550737 -0.039091572 -0.049378365 0.02106488 -0.12164971 -0.021124065
0.051927622 -0.1138013 -0.019106656 -0.07948783 -0.14173903 -0.069938265 0.017102933 -0.0093752
-0.15801637 -0.071796186 -0.10370385 0.080470584 -0.07953844 0.06279596 -0.09962927 -0.06656727
-6.121788 -0.10408671 -0.16198696 0.011014149 -0.06757972 -0.09073205 -0.09628838 0.025686815
-2.1015117 -0.08170276 -0.04046365 -1.7375804 0.23902877 -0.030897468 -0.72811365 -5.609389
-1.3281109 0.6322359 0.68622935 -0.38019592 -0.071142405 -3.5473576 -1.0650681 -0.82076156
-4.0843205 0.11287922 0.06073147 -1.3769277 -0.117139 -0.99054015 -0.09773369 -0.51355594
-1.5370566 -4.0142617 -0.025618957 0.4237017 -0.05164719 -0.097720355 -0.5355405 2.1990457
-0.2832258 -1.6763294 -0.25620556 -0.011434123 -0.09723195 -8.294764 0.14860815 -1.0107135
-0.5933513 0.46914852 1.2366506 -0.07036778 0.06671986 0.3341447 -0.3841833 0.07006538
-1.1128117 -0.5204581 1.3207258 0.06569207 -1.8337139 1.2536123 -1.3034115 -4.1760383
-4.2798314 -0.015538619 0.8578605 -0.012375613 -0.092284516 0.24817996 -0.041804455 0.11463609
-3.527611 -0.0734709 -0.72215617 0.20009106 -1.3089317 -0.019900985 -0.18828426 -4.157661
-2.0015936 -1.056772 -2.7951126 -4.5419602 -0.29396 -0.6553043 -1.5691983 1.22362
-5.074379 -0.052502915 -0.089701734 0.9440996 -0.5272887 0.049125906 0.04621178 -0.09190306
0.14493527 -3.700327 -0.20428498 -1.3834125 0.6959941 -0.2789894 -0.9399257 -8.815084
-0.35340032 -0.11097292 -2.4972336 0.60188514 0.8180863 -8.698671 0.36047685 -11.147417
-6.5019293 -0.40949792 -0.49264076 -0.22103539 -0.08945309 -2.3047793 0.0898271 0.0716238
0.607036 -0.18889676 -0.47148517 -0.023131985 -4.1373034 -0.61865985 0.209736 0.39123294
-0.39851046 0.055828467 0.09267959 -0.11573726 -0.077017054 -0.030519754 0.018988416 -0.09000215
-0.02843263 4.107356 0.11343011 -0.72631186 -1.1569866 -0.004812132 -0.7369014 -3.9026482
-2.8358188 -0.101495296 -3.6759157 -3.731575 0.097658396 -1.5407107 0.058623407 -0.12190667
-3.5408936 -2.4708874 0.06561145 -0.008927631 -0.10969284 -0.35265204 0.08672209 1.445054
-0.030393131 -0.17470704 -0.077896476 -0.088672966 -0.105492055 0.060636133 -0.4180908 -2.6183672
-5.4345098 -0.109660745 -1.3392448 -0.10930303 0.070502505 -6.2555294 -0.033071265 -2.544503
-0.1892171 -0.39629146 0.10752939 0.42836797 0.003998697 -3.0297868 -0.063119695 -0.0353529
0.09265342 -0.9591955 -0.09333007 -0.09336944 0.035991624 -0.13815257 -4.6872377 0.041350592
00000000: 27d9 29bc 7cad 283d e55e 7b3d 402a a13b
00000010: 1a3b cfbd d0cb 35bd b0ec 633d 6487 d53d
00000020: ca5d 67bd 24d4 78bc 08ed ddbd 48d6 563d
00000030: 1891 97bd 8f0d 3ebd d98e 24be e78f cd3a
00000040: 2865 e8bd ce10 16bd feef a4bd d616 69bd
00000050: b371 3c3d 617c 32be 6d2d 963d dffb d3bd
00000060: 7d1c 47bc 7835 8bbd 1037 423d 6d1c f5bd
00000070: 7099 3a3d 2a06 c5bd 72b5 963d ebc9 99bd
00000080: f518 973d d0d3 953c fada 643d d37b 59bd
00000090: 242b 8d3d f23e a03d e650 b4bd 0207 89bd
000000a0: e072 efbd 30c3 d43c 90c6 8fbc 7c1e 20bd
000000b0: f840 4abd 4190 ac3c 7c23 f9bd 600c adbc
000000c0: 0fb2 543d a810 e9bd 9085 9cbc 84ca a2bd
000000d0: 0924 11be cb3b 8fbd 731b 8c3c 709a 19bc
000000e0: 0bcf 21be e109 93bd af62 d4bd c3cd a43d
000000f0: 0de5 a2bd 2b9b 803d 6e0a ccbd 6c54 88bd
00000100: b0e5 c3c0 6a2b d5bd e9df 25be b074 343c
00000110: 3c67 8abd bad1 b9bd d832 c5bd 286d d23c
00000120: 2b7f 06c0 c753 a7bd 36bd 25bd 0969 debf
00000130: f5c3 743e b01c fdbc a865 3abf 1d80 b3c0
00000140: 8aff a9bf 36da 213f baac 2f3f 0aa9 c2be
00000150: 1cb3 91bd e807 63c0 2754 88bf 6e1d 52bf
00000160: c1b2 82c0 382d e73d 90c1 783d 2b3f b0bf
00000170: 92e6 efbd 0a94 7dbf 9a28 c8bd 6778 03bf
00000180: 45be c4bf d574 80c0 d9de d1bc 6eef d83e
00000190: 018c 53bd 9c21 c8bd 2f19 09bf 2abd 0c40
000001a0: f902 91be f691 d6bf 602d 83be 3056 3bbc
000001b0: 8b21 c7bd 5ab7 04c1 bc2c 183e 0f5f 81bf
000001c0: dfe5 17bf 3c34 f03e 914a 9e3f fc1c 90bd
000001d0: 6ca4 883d 0415 ab3e acb3 c4be 707e 8f3d
000001e0: 9d70 8ebf be3c 05bf 8b0d a93f 9089 863d
000001f0: 23b7 eabf 5e76 a03f 30d6 a6bf 1ba2 85c0
00000200: 61f4 88c0 b195 7ebc bf9c 5b3f 15c3 4abc
00000210: aaff bcbd e322 7e3e 263b 2bbd 54c6 ea3d
00000220: 61c4 61c0 e977 96bd 3adf 38bf ace4 4c3e
00000230: 138b a7bf 6407 a3bc 97cd 40be 8f0b 85c0
00000240: 1c1a 00c0 4e44 87bf 20e3 32c0 bd57 91c0
00000250: ed81 96be 06c2 27bf 7ddb c8bf 959f 9c3f
00000260: 5061 a2c0 4c0d 57bd 8bb5 b7bd 83b0 713f
00000270: 64fc 06bf 3f38 493d 9048 3d3d ac37 bcbd
00000280: e969 143e 28d2 6cc0 1530 51be a913 b1bf
00000290: ab2c 323f b3d7 8ebe f89e 70bf 960a 0dc1
000002a0: e3f0 b4be c545 e3bd add2 1fc0 2515 1a3f
000002b0: 1b6e 513f c22d 0bc1 6c90 b83e d25b 32c1
000002c0: ce0f d0c0 b6a9 d1be 693b fcbe 1a57 62be
000002d0: 2f33 b7bd 8181 13c0 45f7 b73d 80af 923d
000002e0: b666 1b3f 276e 41be 8166 f1be 4a7f bdbc
000002f0: ca64 84c0 7e60 1ebf 09c5 563e af4f c83e
00000300: 9009 ccbe 64ac 643d ccce bd3d a807 edbd
00000310: 1ebb 9dbd 9004 fabc 988d 9b3c 0c53 b8bd
00000320: 8ceb e8bc 766f 8340 0c4e e83d 93ef 39bf
00000330: 2318 94bf 17af 9dbb 92a5 3cbf fdc4 79c0
00000340: 0e7e 35c0 c4dc cfbd 3442 6bc0 20d2 6ec0
00000350: 2001 c83d 0236 c5bf 191f 703d 34aa f9bd
00000360: 009e 62c0 0523 1ec0 4c5f 863d 3345 12bc
00000370: a4a6 e0bd cf8e b4be 5a9b b13d 88f7 b83f
00000380: 04fb f8bc 67e6 32be 3088 9fbd 2c9a b5bd
00000390: 380c d8bd 985d 783d ff0f d6be 5493 27c0
000003a0: 81e7 adc0 d095 e0bd 606c abbf 44da dfbd
000003b0: 9e63 903d 4c2d c8c0 bc75 07bd 23d9 22c0
000003c0: 21c2 41be b7e6 cabe 5e38 dc3d 0c53 db3e
000003d0: 8007 833b 07e8 41c0 e644 81bd 34ce 10bd
000003e0: 14c1 bd3d d68d 75bf d623 bfbd 7a38 bfbd
000003f0: f46b 133d de77 0dbe dafd 95c0 3d5f 293d

fc2.bias f4 [64]
-0.20407987 -2.5684059 -0.07564626 -2.1142263 -0.1794006 -0.4240948 10.530265 -0.14755552
-2.3911333 5.6910825 0.3938433 1.6858993 -1.7541733 -2.2978418 -0.5414162 -0.64950174
5.2953453 1.692819 -1.9131337 -2.699832 -6.5083156 -3.3867497 -0.19961381 -8.637617
-0.3625366 -1.8996001 -3.347088 -0.34952846 -2.3485863 -2.171853 -1.5595524 -9.213865
1.6168649 -1.9016268 -0.647298 1.0861856 -0.14512324 5.822076 0.53310573 9.64561
-7.8521767 -0.87517524 0.12495911 -0.128798 -0.26454768 -0.037215564 -0.48353046 -5.9265018
7.024268 2.6409347 -3.2591624 -0.22981721 5.1727104 0.75427765 -0.2060819 -0.08470798
-0.07599624 -1.101196 -0.10089188 3.6803358 0.012327038 1.8320062 -0.5845777 0.48142144
00000000: 50fa 50be c360 24c0 6dec 9abd 7c4f 07c0
00000010: cab4 37be f422 d9be f77b 2841 cb18 17be
00000020: 5408 19c0 591d b640 d4a5 c93e 8ccb d73f
00000030: c088 e0bf d70f 13c0 419a 0abf bf45 26bf
00000040: 7873 a940 4bae d83f 91e1 f4bf 0cca 2cc0
00000050: 1f44 d0c0 82c0 58c0 9067 4cbe ae33 0ac1
00000060: 669e b9be 1926 f3bf b136 56c0 65f5 b2be
00000070: 3d4f 16c0 a4ff 0ac0 6a9f c7bf fe6b 13c1
00000080: 6ef5 ce3f 8268 f3bf 52b5 25bf 2108 8b3f
00000090: 309b 14be 724e ba40 9e79 083f 6b54 1a41
000000a0: 0845 fbc0 7c0b 60bf 90ea ff3d 9fe3 03be
000000b0: cb72 87be 596f 18bd 4e91 f7be e7a5 bdc0
000000c0: cec6 e040 1305 2940 1e96 50c0 3455 6bbe
000000d0: d886 a540 5718 413f 2207 53be 617b adbd
000000e0: eba3 9bbd fef3 8cbf 67a0 cebd 9f8a 6b40
000000f0: 58f7 493c 2e7f ea3f e2a6 15bf df7c f63e

fc3.weight f4 [6, 64]
0.008873749 8.177708 34.019093 6.771737 0.022769542 1.1147417 -0.97652024 2.538474
11.247484 -1.3362451 8.467075 4.619249 9.738362 14.182297 10.513412 4.7024508
1.7969025 0.86640424 5.759486 9.91891 -1.3053468 0.9667423 -0.08087463 -0.54974073
33.833996 4.8999724 9.742705 0.78151387 16.262314 8.079816 1.1300163 -1.9615855
-1.4708652 6.831356 5.0904737 16.208698 -0.040565703 3.5762906 -1.7171855 4.659774
-1.0455489 10.728873 2.4349089 -0.0033705134 0.10062826 0.06488005 14.758936 -1.2881495
2.6003847 6.050125 16.00551 0.05078535 2.3929362 1.7545385 0.082932055 -0.012859163
-0.03448918 26.759676 -0.09304632 -0.3101239 2.3770235 8.7849045 13.0047035 8.369804
-0.009009995 7.9568195 35.666294 9.108164 -0.029670402 1.2846069 -1.7764904 2.2761657
11.715103 -0.76893806 8.7442665 4.9444 10.759564 16.029287 14.520829 4.7499294
1.8397044 0.70807886 9.752376 11.149262 -0.46859694 1.8719563 0.08828377 -0.34708408
37.25903 2.4470801 9.722907 0.55392116 14.976969 11.206085 1.0152861 -2.38985
-1.3683248 8.925485 3.2992952 13.614927 -0.0133941835 3.5568697 -1.9506938 4.5427656
-0.5209541 14.368904 1.6003885 0.063972875 0.01964288 0.0035409324 14.84856 -1.2155365
3.5215497 5.943381 10.8585615 -0.10620157 3.0545876 1.7380878 0.0009213408 -0.04954327
-0.044895664 26.58428 0.045079615 -1.2068096 3.6040387 8.628023 12.413273 8.11527
-0.101970755 7.279173 38.847176 6.8526363 0.04560226 0.5647733 -1.0397333 2.0191467
11.101554 -0.9212102 6.301315 5.028924 6.5920954 14.964955 9.2772045 4.3813415
3.020567 0.5865347 6.082148 10.385666 -0.08963687 0.6310239 0.04640536 -0.6926164
34.036083 4.7489343 11.399419 4.149712 12.557557 8.105407 0.3639687 -1.9393129
-1.0719298 5.7814813 4.21915 16.16676 0.028406993 3.2095182 -1.9780855 4.4466515
0.11334342 9.7210655 1.7075198 0.057941526 -0.023658395 -0.12617163 13.187285 -1.5705543
2.613085 5.1947274 14.763026 -0.09045951 2.6126375 1.8970586 0.025461167 -0.08454076
-0.014989757 26.554367 -0.07396959 -1.3916191 2.0232832 6.832422 13.392939 7.676819
-0.014858817 7.3929386 38.423153 2.6153119 -0.07078393 2.2678058 -0.80067474 2.4858842
12.682657 -1.1929188 5.4999313 4.9782534 9.885571 10.902972 10.365727 1.3683954
0.71135545 0.41752383 9.061691 9.398629 0.24675186 0.9337358 -0.05327345 -0.6072046
39.58745 3.043234 11.139145 2.210511 16.228117 5.310997 1.4899251 -1.780007
-0.8001549 6.6705256 5.1278224 18.723055 0.020682596 3.9639153 -1.5338924 4.7948923
-0.5970571 11.666581 2.3073497 0.058495045 -0.072359405 0.06633418 13.592951 -1.4079559
2.3258395 6.205481 16.172054 0.041590724 1.9868542 2.3812437 0.069308944 0.0011354435
-0.0039163656 28.671833 -0.08431311 0.5797775 2.4428108 10.080233 15.047608 8.213216
00000000: 3363 113c e4d7 0241 8d13 0842 12b2 d840
00000010: 3187 ba3c dbaf 8e3f 3bfd 79bf 5c76 2240
00000020: b2f5 3341 140a abbf 2479 0741 e3d0 9340
00000030: 55d0 1b41 b0ea 6241 f036 2841 7a7a 9640
00000040: e700 e63f abcc 5d3f b64d b840 dbb3 1e41
00000050: 9b15 a7bf 6c7c 773f 99a1 a5bd cfbb 0cbf
00000060: 0356 0742 93cc 9c40 1fe2 1b41 4b11 483f
00000070: 3819 8241 ed46 0141 60a4 903f 3c15 fbbf
00000080: 5045 bcbf 789a da40 29e5 a240 6aab 8141
00000090: 3928 26bd f2e1 6440 bccc dbbf de1c 9540
000000a0: 8cd4 85bf 77a9 2b41 8cd5 1b40 d5e3 5cbb
000000b0: 3016 ce3d d5df 843d 9a24 6c41 15e2 a4bf
000000c0: b46c 2640 a09a c140 490b 8041 4d04 503d
000000d0: de25 1940 b894 e03f 48d8 a93d 3daf 52bc
000000e0: 8744 0dbd d113 d641 128f bebd 8fc8 9ebe
000000f0: 2721 1840 f88e 0c41 4413 5041 b8ea 0541
00000100: a89e 13bc 449e fe40 49aa 0e42 0abb 1141
00000110: 580f f3bc 006e a43f 0a64 e3bf b3ac 1140
00000120: 1071 3b41 20d9 44bf 84e8 0b41 8638 9e40
00000130: 2d27 2c41 fb3b 8041 5155 6841 6cff 9740
00000140: 6f7b eb3f a844 353f bb09 1c41 6163 3241
00000150: f0eb efbe 449c ef3f 1fce b43d 01b5 b1be
00000160: 3f09 1542 f69c 1c40 0791 1b41 c7cd 0d3f
00000170: aaa1 6f41 204c 3341 e5f4 813f 4df3 18c0
00000180: 4425 afbf c9ce 0e41 a727 5340 bed6 5941
00000190: 4773 5bbc c1a3 6340 56b0 f9bf 565e 9140
000001a0: 3f5d 05bf 08e7 6541 88d9 cc3f 3604 833d
000001b0: 1bea a03c fd0e 683b b493 6d41 b396 9bbf
000001c0: 1261 6140 2d30 be40 abbc 2d41 3580 d9bd
000001d0: 5d7e 4340 a979 de3f 2286 713a e2ed 4abd
000001e0: 84e4 37bd 9bac d441 67a5 383d bd78 9abf
000001f0: 92a8 6640 620c 0a41 c49c 4641 25d8 0141
00000200: 0bd6 d0bd fcee e840 8263 1b42 cc48 db40
00000210: 6fc9 3a3d fc94 103f fb15 85bf b339 0140
00000220: f79f 3141 6fd4 6bbf 5fa4 c940 f2ec a040
00000230: 72f2 d240 7570 6f41 6e6f 1441 f333 8c40
00000240: f850 4140 2327 163f f5a0 c240 b02b 2641
00000250: 8993 b7bd c88a 213f 8c13 3e3d 4f4f 31bf
00000260: f324 0842 45f7 9740 0564 3641 71ca 8440
00000270: c1eb 4841 bfaf 0141 1b5a ba3e 683b f8bf
00000280: ff34 89bf e501 b940 4703 8740 8655 8141
00000290: c8b5 e83c bf68 4d40 e831 fdbf f84a 8e40
000002a0: 9820 e83d 7c89 1b41 0290 da3f 1854 6d3d
000002b0: 40cf c1bc 2333 01be 1fff 5241 ec07 c9bf
000002c0: c93c 2740 353b a640 5b35 6c41 d642 b9bd
000002d0: 7435 2740 d1d2 f23f f093 d03c b523 adbd
000002e0: 9997 75bc 586f d441 5e7d 97bd 9320 b2bf
000002f0: 797d 0140 33a3 da40 7a49 5641 80a8 f540
00000300: 6572 73bc f492 ec40 4fb1 1942 4561 2740
00000310: 2af7 90bd bb23 1140 05f9 4cbf ba18 1f40
00000320: 2aec 4a41 90b1 98bf 70ff af40 da4d 9f40
00000330: 4c2b 1e41 9372 2e41 05da 2541 9527 af3f
00000340: 641b 363f afc5 d53e b0fc 1041 c960 1641
00000350: 85ac 7c3e 4f09 6f3f 4335 5abd c371 1bbf
00000360: 8c59 1e42 59c4 4240 f039 3241 0379 0d40
00000370: 2fd3 8141 b0f3 a940 deb5 be3f 45d7 e3bf
00000380: f4d6 4cbf f274 d540 1f17 a440 d1c8 9541
00000390: 8c6e a93c cab0 7d40 9656 c4bf c26f 9940
000003a0: bcd8 18bf 51aa 3a41 9eab 1340 8098 6f3d
000003b0: 2b31 94bd 37da 873d ba7c 5941 e637 b4bf
000003c0: 8eda 1440 4d93 c640 5e60 8141 095b 2a3d
000003d0: 3d51 fe3f 4c66 1840 d9f1 8d3d 29d3 943a
000003e0: db54 80bb ea5f e541 5aac acbd 4c6c 143f
000003f0: 0357 1c40 a248 2141 01c3 7041 5569 0341

fc3.bias f4 [6]
7.749128 7.265544 9.710295 7.925388 9.390812 8.828944
00000000: dbf8 f740 567f e840 5e5d 1b41 c79c fd40
00000010: c440 1641 5b43 0d41
