episodes/200/models/best_dqn_policy.pth (torch, 23192 bytes, 6 tensors)

fc1.weight f4 [64, 8]
-2.0349941 0.031889644 -1.0204226 0.11508736 -0.7909455 -0.23068778 -4.1325955 0.2515794
0.6025526 -1.2773153 -3.4206743 0.8215143 0.4897193 0.43551478 0.6486307 0.75373274
1.4337866 -0.85018325 -0.180229 -2.2730544 -1.1891321 0.024083024 -7.06204 0.47271097
-2.3341568 0.05376374 -2.306186 -0.13448897 -0.7600615 0.44026852 -4.0932465 0.29528716
-1.8133351 -0.5015919 -2.5720906 0.28305817 0.27893627 -1.3129532 0.31558123 0.5704151
-0.39358786 -0.43357003 -0.32939532 0.44418547 -0.535945 0.012391518 -4.0701175 -0.9928983
-1.429176 -0.47931594 0.22307786 -0.017973369 -0.32853273 0.13598534 -3.07357 0.2157548
-0.3899324 -0.22272158 -0.3576419 0.12914503 -0.21070859 0.06481412 -0.10862991 -0.10702889
-0.1903061 -1.1923419 -1.2677158 -0.49457833 0.06742059 -0.28580263 -2.7519991 0.15405264
0.08632483 -0.23392457 -0.3372086 -0.18800466 -0.046092425 -0.03795585 -0.06364077 0.141741
0.21394081 -2.0601773 -0.44348457 0.7596438 -0.66874963 1.1394773 3.5824614 2.9944797
0.21560048 -1.9943534 0.27232176 -0.8021893 0.32581082 -1.0166389 -4.291936 0.6091756
0.27467155 -0.04273462 -0.40144527 -0.7725163 -0.09302529 0.39296088 -4.343455 -0.13645038
0.3111375 -0.37476158 -0.23671176 0.6225946 -0.031191785 -0.7948673 9.297134 0.045388024
0.043999486 -0.23549287 -0.051186286 -0.086840145 -0.2900363 0.5053082 -3.359738 -0.5577543
-0.7885335 -0.18329662 0.36674047 0.0963981 -1.1366817 -0.5789961 -1.3574299 0.27695134
0.10889644 -0.38020992 0.21874802 -0.22443414 -0.28508297 -0.0048746183 -0.23292276 -0.14844684
0.3100193 -0.22411962 -0.22003381 -0.20415823 -0.16689722 -0.31239265 -0.23457654 -0.09240797
0.09952933 1.5355148 -0.15516436 -1.341557 0.41090298 1.3062682 -9.940336 -1.9291941
0.43142796 -0.12105327 -0.5966618 0.9220269 -1.8720616 -1.0616912 -4.3927937 0.63730544
0.31934828 -0.41093394 0.06727282 0.40603262 -0.0090700565 0.89123833 6.2118692 -0.9248083
-1.8027109 1.173747 -1.10214 0.9389238 0.13053735 -0.015599277 0.73696184 0.2894895
-0.08213348 0.2866309 -0.393648 -0.31294075 -0.32001328 -0.33735523 -0.30514413 -0.21943022
7.743555 0.7425989 -8.134688 -0.8098958 -0.23128535 -0.016944515 -0.13562495 0.46990106
-6.005467 -1.2842852 -4.091851 0.20771673 -1.462765 0.7876341 -5.068195 0.5371977
-0.0048308056 -0.28972638 0.01937734 0.17048779 -0.16880177 0.28236204 -11.386795 -1.914693
-0.036314398 -0.12699772 -0.34180304 -0.30568182 0.1935572 -0.121928595 -0.0150377005 0.072727926
0.013375539 3.506147 0.030321883 -3.2983558 -0.05112748 0.0537199 -0.15854315 -0.3273777
-0.004518395 -0.2553938 -0.30139112 0.28706712 -0.23946786 -0.33964047 -0.31540743 0.19196503
-1.0454756 -0.43834227 -0.9799246 -0.47945294 -0.4875057 0.55606323 -2.1633193 0.269547
1.172829 -1.6486745 -3.5468576 -0.14788768 0.38066605 0.28119996 1.2672304 0.8841874
0.05344283 -0.36397582 -0.08757124 -0.021314416 -0.14419302 -0.17317925 -0.29545334 -0.33252499
00000000: 583d 02c0 b79e 023d 359d 82bf ecb2 eb3d
00000010: 677b 4abf 6b39 6cbe 393e 84c0 04cf 803e
00000020: e340 1a3f 117f a3bf 54ec 5ac0 c34e 523f
00000030: 7dbc fa3e cbfb de3e a90c 263f a1f4 403f
00000040: 5286 b73f 9ca5 59bf f38d 38be b979 11c0
00000050: 7b35 98bf c349 c53c 3bfc e1c0 2c07 f23e
00000060: d362 15c0 5e37 5c3d 8d98 13c0 7ab7 09be
00000070: 6493 42bf e06a e13e e0fb 82c0 e12f 973e
00000080: 5d1b e8bf 5468 00bf 229d 24c0 00ed 903e
00000090: bcd0 8e3e da0e a8bf dd93 a13e b906 123f
000000a0: 5984 c9be e4fc ddbe 81a6 a8be 476c e33e
000000b0: b133 09bf cb05 4b3c 673e 82c0 952e 7ebf
000000c0: 3def b6bf e668 f5be 866e 643e e33c 93bc
000000d0: 7135 a8be be3f 0b3e 5fb5 44c0 d4ee 5c3e
000000e0: 38a5 c7be 2011 64be d71c b7be 983e 043e
000000f0: fec3 57be 44bd 843d 5c79 debd f631 dbbd
00000100: 9adf 42be a99e 98bf 8344 a2bf 5f39 fdbe
00000110: ce13 8a3d b954 92be c120 30c0 fabf 1d3e
00000120: 13cb b03d ec89 6fbe 9ba6 acbe 4b84 40be
00000130: 69cb 3cbd 9877 1bbd 1856 82bd 8d24 113e
00000140: 4d13 5b3e f2d9 03c0 6910 e3be 0478 423f
00000150: 2d33 2bbf 64da 913f 0c47 6540 8ea5 3f40
00000160: 5fc6 5c3e f946 ffbf c26d 8b3e 475c 4dbf
00000170: add0 a63e 3921 82bf 8a57 89c0 eff2 1b3f
00000180: c0a1 8c3e 7f0a 2fbd 3c8a cdbe a1c3 45bf
00000190: 0b84 bebd 2b32 c93e 95fd 8ac0 a6b9 0bbe
000001a0: 6a4d 9f3e c0e0 bfbe 9164 72be 5c62 1f3f
000001b0: ea85 ffbc 6c7c 4bbf 10c1 1441 cbe8 393d
000001c0: ce38 343d 0b25 71be b6a8 51bd 3fd9 b1bd
000001d0: a37f 94be e15b 013f f305 57c0 fcc8 0ebf
000001e0: 55dd 49bf 1cb2 3bbe 68c5 bb3e 5e6c c53d
000001f0: c97e 91bf 1739 14bf 43c0 adbf 91cc 8d3e
00000200: 1905 df3d e0aa c2be 7bff 5f3e 10d2 65be
00000210: 65f6 91be 43bb 9fbb 4e83 6ebe 7302 18be
00000220: daba 9e3e 9d7f 65be 8b50 61be db0e 51be
00000230: 1be7 2abe eef1 9fbe d534 70be 6440 bdbd
00000240: 09d6 cb3d c08b c43f 68e3 1ebe 24b8 abbf
00000250: e061 d23e cc33 a73f 9e0b 1fc1 d5ef f6bf
00000260: 20e4 dc3e c7ea f7bd d4be 18bf f409 6c3f
00000270: b79f efbf 7fe5 87bf c491 8cc0 7326 233f
00000280: 9e81 a33e ef65 d2be 55c6 893d 82e3 cf3e
00000290: 939a 14bc 3228 643f a2c7 c640 3dc0 6cbf
000002a0: 3bbf e6bf 573d 963f ec12 8dbf 4f5d 703f
000002b0: 95ab 053e 1c94 7fbc 88a9 3c3f f837 943e
000002c0: 9935 a8bd 49c1 923e 3b8c c9be c539 a0be
000002d0: c8d8 a3be d3b9 acbe da3b 9cbe 51b2 60be
000002e0: 34cb f740 f61a 3e3f af27 02c1 5555 4fbf
000002f0: 11d6 6cbe 39cf 8abc 44e1 0abe df96 f03e
00000300: c92c c0c0 7563 a4bf 72f0 82c0 b2b3 543e
00000310: e23b bbbf 63a2 493f a72e a2c0 ca85 093f
00000320: bc4b 9ebb 0457 94be 3abd 9e3c 5a94 2e3e
00000330: 5fda 2cbe c291 903e 5030 36c1 a914 f5bf
00000340: 68be 14bd b10b 02be cf00 afbe 5482 9cbe
00000350: dc33 463e b3b5 f9bd b060 76bc 61f2 943d
00000360: 1425 5b3c b664 6040 9965 f83c 4318 53c0
00000370: 0c6b 51bd 6609 5c3d 2359 22be 0d9e a7be
00000380: 0b0f 94bb fac2 82be f04f 9abe 76fa 923e
00000390: 1037 75be 5be5 adbe 157d a1be 7b92 443e
000003a0: 25d2 85bf 666e e0be 57dc 7abf db7a f5be
000003b0: 599a f9be 295a 0e3f d373 0ac0 1002 8a3e
000003c0: 431f 963f c407 d3bf b7ff 62c0 de6f 17be
000003d0: a9e6 c23e 71f9 8f3e 9b34 a23f 1b5a 623f
000003e0: dee6 5a3d 0a5b babe 8d58 b3bd 929b aebc
000003f0: 56a7 13be e755 31be a945 97be b740 aabe

fc1.bias f4 [64]
0.2729423 -1.7177862 -0.44161505 -0.08722322 -0.7585259 0.761144 -0.10946875 0.036338344
0.4673503 -0.2262404 -1.3296523 -0.38757297 -0.07850913 -0.7690416 0.074482724 0.18807492
-0.22994947 -0.107982166 0.56641704 -0.49420694 -1.2459427 -0.9052521 0.0011877518 0.0670106
0.6643521 2.3300312 -0.29548877 -0.108605884 -0.25029442 0.14931235 -1.5534632 0.114004165
-0.060122877 0.2922508 1.7822353 -2.2208607 1.4337153 -0.35639903 0.08343077 -0.84637415
-0.29735237 -0.31674302 -0.13816157 0.024238262 -0.38060522 -0.32858226 -0.01586891 0.03547491
-0.33610117 0.90359986 -1.2318152 0.12100494 -0.43810457 0.6721431 -0.10092581 -0.01879036
-0.31965593 0.109071866 -1.556852 0.2976521 1.1473155 -1.2032853 -0.33975205 -1.648025
00000000: 18bf 8b3e 6be0 dbbf 5e1b e2be 16a2 b2bd
00000010: c12e 42bf 55da 423f 2731 e0bd 84d7 143d
00000020: 8a48 ef3e 90ab 67be 0c32 aabf f76f c6be
00000030: 65c9 a0bd e9df 44bf 668a 983d b696 403e
00000040: e077 6bbe c125 ddbd b500 113f b108 fdbe
00000050: 0d7b 9fbf 9abe 67bf 56ae 9b3a da3c 893d
00000060: fb12 2a3f 3b1f 1540 4e4a 97be c36c debd
00000070: 9726 80be 56e5 183e e2d7 c6bf 047b e93d
00000080: 6843 76bd e6a1 953e 4920 e43f 9522 0ec0
00000090: fc83 b73f ef79 b6be c0dd aa3d faab 58bf
000000a0: 923e 98be 242c a2be 3a7a 0dbe 528f c63c
000000b0: b0de c2be ef3b a8be 84ff 81bc 244e 113d
000000c0: 7415 acbe 5252 673f 1fac 9dbf 70d1 f73d
000000d0: 3e4f e0be 9211 2c3f 31b2 cebd 3eee 99bc
000000e0: f1a9 a3be 1261 df3d ed46 c7bf db65 983e
000000f0: 3cdb 923f 4105 9abf fbf3 adbe 7cf2 d2bf

fc2.weight f4 [64, 64]
2.029493 1.4914583 0.15173991 -0.2891361 1.4481909 -0.030464968 -0.06236479 0.025582582
-0.22149572 0.0905896 -0.034537166 -1.0610864 -0.18800738 1.3256501 0.67223763 -1.4046376
0.017048672 -0.07476516 -0.009083269 -0.2690701 0.2718175 0.31990516 -0.03666848 4.876753
-1.562621 -0.12903331 -0.08598052 -1.1643622 -0.10781887 -0.93268096 1.6825588 0.09176567
0.8642377 -2.4544451 -0.18242536 1.3495787 0.6371815 -0.45638022 0.51490307 0.8210911
0.044774115 0.07246594 0.04279664 -0.07890402 -2.599536 -3.3184586 -0.76973253 1.7908773
0.07303685 0.42623672 0.06555088 0.08482056 -0.026231108 -0.82601684 1.6548289 0.41926962
0.11782543 0.0057404432 0.9172465 1.4421289 -0.25865874 -1.483383 0.009632304 -0.45688632
0.2268801 -1.5400524 1.1147856 -0.13805014 0.83190423 2.2270095 0.60747015 0.09613879
-0.009867548 -0.08706924 -2.541515 -0.30965415 -1.2987813 -3.0125782 0.76424474 0.35486764
0.116224855 0.042096928 0.47809952 1.2251047 -3.2947752 -1.4730666 0.09652886 -1.0925903
1.0187498 2.5886862 -0.029629499 -2.5698435 0.022336781 -0.5098572 -5.4423 0.06906347
0.094537154 -0.7842906 -0.21690561 -3.1203704 -2.1597688 -1.2427981 -0.11454872 -2.2630358
-0.084634826 -0.08646572 0.03592959 -2.5618973 -2.0692544 -0.431895 -1.5054286 -0.09236776
0.11503622 -0.4582878 -0.33510664 -0.07045119 -0.09286964 -0.28886166 -0.9206761 0.3088776
-0.11316866 0.093796074 1.5237094 0.9636738 -0.7812383 -1.1881022 -0.026156068 -1.7447888
0.61886543 0.7066479 -0.3240378 0.9818681 0.500133 0.42190367 -0.20564447 0.059732456
-0.7837143 -0.076651916 0.066471376 -0.9625488 0.61118615 0.08449993 -1.3492615 -0.31859115
0.08279357 -0.11743185 -1.595145 -1.591941 0.60809577 -0.16747959 -0.15344815 -1.4076173
-0.702167 -1.6030091 0.08388677 -0.035779227 -0.07137041 -0.5742452 0.44625786 -0.12505507
-0.38073167 -2.0976796 0.36564252 -0.30026227 -0.11111518 0.9537593 0.12383509 -0.82681507
-0.016847953 -0.029291116 0.088741995 1.4313431 -0.45450193 -0.6175362 -1.5555323 -3.6218174
0.09559451 0.31038958 0.44478324 0.030641997 0.045717563 -0.04528981 -1.0039865 -0.1557403
0.065074235 -0.20282432 -0.5141127 -0.20723242 0.295458 0.5863705 0.10830288 1.3471713
0.88988787 -5.448874 2.378865 -0.25505134 -0.51901543 -1.0883042 0.7445811 0.068236664
0.65169567 -0.038441733 -3.4979906 0.71725154 1.2705524 -3.998937 -0.45138538 -0.32312706
0.11427154 0.09598386 0.99117213 1.7016965 -13.579793 -2.2827022 -0.102303386 -4.826672
3.1639676 7.7708983 -0.11299841 -6.499002 -0.044567853 1.4403025 -1.6755105 -0.110589296
0.4765123 0.36376962 3.1960773 -4.691413 0.93645406 -3.9618435 0.18709978 -4.9848146
-0.029666066 -0.05350671 0.12057848 -2.1842713 -4.8777056 -9.209917 -0.6002698 2.6646502
-0.10135549 -0.63949186 -2.9400868 0.09563348 -0.029749617 1.5523467 1.0155675 0.78664446
-0.0043454766 -0.09824635 -3.0582922 0.858826 -8.889096 -6.7605853 -0.018657357 -5.760117
00000000: 37e3 0140 1be8 be3f b561 1b3e a609 94be
00000010: 525e b93f ab91 f9bc 3972 7fbd 9092 d13c
00000020: c6cf 62be 0a87 b93d d876 0dbd aed1 87bf
00000030: 0285 40be e7ae a93f c417 2c3f 2acb b3bf
00000040: a8a9 8b3c 7a1e 99bd fed1 14bc 8ec3 89be
00000050: aa2b 8b3e 9cca a33e b031 16bd 5c0e 9c40
00000060: f703 c8bf 4f21 04be 8e16 b0bd d209 95bf
00000070: 24d0 dcbd 2ec4 6ebf 165e d73f a4ef bb3d
00000080: af3e 5d3f a115 1dc0 b7cd 3abe ffbe ac3f
00000090: 541e 233f abaa e9be b0d0 033f 0733 523f
000000a0: 1065 373d 0669 943d 884b 2f3d 6e98 a1bd
000000b0: cc5e 26c0 a061 54c0 310d 45bf 783b e53f
000000c0: 5894 953d b33b da3e 8a3f 863d 67b6 ad3d
000000d0: 9fe2 d6bc d775 53bf 6fd1 d33f 82aa d63e
000000e0: 764e f13d 541a bc3b abd0 6a3f ae97 b83f
000000f0: eb6e 84be 7fdf bdbf d0d0 1d3c 01ed e9be
00000100: 4253 683e 7020 c5bf 4bb1 8e3f 045d 0dbe
00000110: adf7 543f 5387 0e40 2a83 1b3f 6ae4 c43d
00000120: 7fab 21bc 5c51 b2bd 2fa8 22c0 fd8a 9ebe
00000130: 773e a6bf 15ce 40c0 8ba5 433f 36b1 b53e
00000140: 4c07 ee3d d46d 2c3d 76c9 f43e 3bd0 9c3f
00000150: 99dd 52c0 728d bcbf ecb0 c53d 00da 8bbf
00000160: 6566 823f 09ad 2540 90b9 f2bc 5178 24c0
00000170: a0fb b63c 0086 02bf 5227 aec0 2671 8d3d
00000180: b29c c13d 45c7 48bf 811c 5ebe 26b4 47c0
00000190: a739 0ac0 0214 9fbf 8598 eabd 94d5 10c0
000001a0: 0655 adbd f014 b1bd e82a 133d 20f6 23c0
000001b0: aa6e 04c0 5721 ddbe e2b1 c0bf 4f2b bdbd
000001c0: 1c98 eb3d b3a4 eabe 1993 abbe b748 90bd
000001d0: 7032 bebd ade5 93be 6eb1 6bbf 3425 9e3e
000001e0: f8c4 e7bd 2818 c03d e908 c33f 53b3 763f
000001f0: 3cff 47bf bc13 98bf 4045 d6bc 3d55 dfbf
00000200: f76d 1e3f e0e6 343f 48e8 a5be b55b 7b3f
00000210: b708 003f c203 d83e 7794 52be 05aa 743d
00000220: 80a1 48bf aefb 9cbd 2522 883d 9969 76bf
00000230: b276 1c3f 4d0e ad3d 9ab4 acbf 611e a3be
00000240: ad8f a93d 1c80 f0bd b62d ccbf b9c4 cbbf
00000250: 2aac 1b3f c57f 2bbe 8321 1dbe ce2c b4bf
00000260: 37c1 33bf 672f cdbf d4cc ab3d 3d8d 12bd
00000270: a62a 92bd bc01 13bf e97b e43e 700e 00be
00000280: 43ef c2be 6240 06c0 7f35 bb3e fabb 99be
00000290: 5b90 e3bd 9229 743f 409d fd3d 27aa 53bf
000002a0: b804 8abc ecf3 efbc 5dbe b53d 4036 b73f
000002b0: 7ab4 e8be da16 1ebf af1b c7bf dbcb 67c0
000002c0: 0ec7 c33d 62eb 9e3e a1ba e33e ed04 fb3c
000002d0: 5742 3b3d cf81 39bd a182 80bf 637a 1fbe
000002e0: a445 853d 2eb1 4fbe e49c 03bf bc34 54be
000002f0: 4546 973e 611c 163f e6cd dd3d 1c70 ac3f
00000300: b1cf 633f 2d5d aec0 533f 1840 1796 82be
00000310: 32de 04bf 8d4d 8bbf de9c 3e3f aabf 8b3d
00000320: 87d5 263f 1475 1dbd 14df 5fc0 cc9d 373f
00000330: 76a1 a23f 95ee 7fc0 fc1b e7be e970 a5be
00000340: 3207 ea3d 3093 c43d 75bd 7d3f 31d1 d93f
00000350: d546 59c1 cb17 12c0 7084 d1bd 1974 9ac0
00000360: 727e 4a40 33ab f840 b66b e7bd d3f7 cfc0
00000370: c88c 36bd d55b b83f 2177 d6bf a47c e2bd
00000380: 6cf9 f33e 0340 ba3e 888c 4c40 0e20 96c0
00000390: 74bb 6f3f d88e 7dc0 1697 3f3e 9a83 9fc0
000003a0: 4006 f3bc da29 5bbd daf1 f63d 1acb 0bc0
000003b0: 2a16 9cc0 d25b 13c1 48ab 19bf a189 2a40
000003c0: 7893 cfbd bdb5 23bf 622a 3cc0 7cdb c33d
000003d0: 78b5 f3bc 4cb3 c63f 1efe 813f 8861 493f
000003e0: 8064 8ebb 6235 c9bd 0fbb 43c0 05dc 5b3f
000003f0: bd39 0ec1 b756 d8c0 50d7 98bc e152 b8c0

fc2.bias f4 [64]
0.9056909 0.14842226 2.913138 1.7710027 0.6345766 -1.1957486 1.7276531 -2.085069
-1.11931 -0.9468633 -0.188425 -0.0778024 -2.1487992 -2.4035325 -0.17169973 0.4909393
5.257224 -0.91913503 -0.022501467 4.381591 -0.14466938 1.1623244 0.544634 -0.40153337
-0.60984737 4.011695 -0.3705025 2.585797 -1.9818757 -0.15064171 -0.120570034 -1.7157961
-3.3797698 -1.090416 -0.06886873 -0.064841844 2.2152686 0.2528553 -0.19845685 1.4585321
0.59856015 3.8851464 -0.22937475 -0.12880607 1.4730452 -0.9624899 1.4747837 0.1786963
1.5377835 3.4740613 1.3060558 -0.6618048 -0.35306585 -1.1597633 -0.16265434 4.9084244
-2.3336768 -0.98954535 -0.8106208 -1.5182859 -0.11739354 -1.8125861 0.8258248 -0.15776394
00000000: 5cdb 673f 01fc 173e da70 3a40 37b0 e23f
00000010: 9d73 223f 4a0e 99bf bd23 dd3f c571 05c0
00000020: 8d45 8fbf a265 72bf 7cf2 40be dd56 9fbd
00000030: ed85 09c0 7ad3 19c0 0ed2 2fbe 655c fb3e
00000040: 2e3b a840 6f4c 6bbf ff54 b8bc fe35 8c40
00000050: 3624 14be 0cc7 943f 226d 0b3f c895 cdbe
00000060: f51e 1cbf ce5f 8040 81b2 bdbe b37d 2540
00000070: 1aae fdbf d241 1abe 6ced f6bd 359f dbbf
00000080: 264e 58c0 c092 8bbf 0c0b 8dbd cdcb 84bd
00000090: f6c6 0d40 4076 813e 4638 4bbe 2eb1 ba3f
000000a0: 3d3b 193f 3da6 7840 37e1 6abe bde5 03be
000000b0: bf8c bc3f bd65 76bf b6c5 bc3f 2afc 363e
000000c0: 17d6 c43f 0557 5e40 d62c a73f 0a6c 29bf
000000d0: 0cc5 b4be 2073 94bf dc8e 26be d011 9d40
000000e0: f65a 15c0 d852 7dbf d884 4fbf 3157 c2bf
000000f0: 066c f0bd d202 e8bf 4169 533f df8c 21be

fc3.weight f4 [6, 64]
1.5578456 0.93203884 0.88245875 -2.0088608 5.24465 -1.1262053 -0.14296791 9.560607
7.8462677 1.4176321 -0.056471597 4.875796 1.0417272 -1.2819254 -2.0476735 -1.2795699
2.9281197 1.8603611 -0.00461377 2.4998674 -0.013291161 -0.23601766 -0.9487137 5.276441
4.9739227 1.700235 8.703625 5.330618 6.6081834 -0.032694053 -0.0342562 0.21224111
0.30311757 0.1940021 -0.015753571 -0.48316833 2.714325 -0.30406526 -0.12446867 -1.1286802
-0.4276808 1.4498004 -0.062150657 1.1553777 5.2235994 5.919518 2.598303 2.9297585
-0.0073948293 0.7676203 -0.85875374 11.370384 9.038907 11.773792 -0.080009766 1.8231325
11.968593 -2.069758 2.0554657 11.647938 -0.054778587 6.8812003 4.016994 -0.19503485
1.2930865 -2.7503867 1.6552482 -1.7414317 5.112945 -0.3946357 -0.57429206 10.767777
10.066825 1.5390255 -0.04878063 4.6579156 0.9837474 -1.3495259 1.317349 -1.1372783
2.5309875 3.008871 0.02154837 2.5271063 -0.018461252 -0.24987908 -1.2919924 3.6838574
4.227004 2.258473 9.038997 5.804162 5.7738976 -0.07261179 0.006439886 -0.8407359
-0.18656126 -0.54807425 -0.04727157 -0.07555993 2.5398793 -0.5123699 -0.102123976 -1.1281285
0.09673167 1.4669143 0.08795435 1.1511267 4.601769 7.0391564 2.5786588 1.3238895
-0.12777615 0.7181691 -0.4366979 10.7017765 8.4490795 11.653466 0.07581809 1.6317806
11.215539 -2.0862026 3.773449 10.994407 -0.098236606 5.4749923 3.5263336 0.078015365
2.36924 3.1334105 0.7376183 -2.6919005 4.354534 -2.3424819 -0.0405955 10.142371
7.1760035 0.7402351 0.047419246 3.132663 1.0883962 -0.90343285 3.1953368 -1.087965
2.9272835 -1.4847487 0.010498925 3.2225585 -0.054107487 -0.06593789 -0.6810031 4.341681
3.3677392 1.5034415 11.298425 7.1129355 6.7997785 -0.061002757 0.017237708 0.46826681
-0.5891147 0.56449646 0.03232868 -0.78983414 3.0174148 -0.34937292 -0.032783773 -0.8812401
-1.4542824 1.2797638 -0.03203321 0.043890953 4.849123 4.988733 2.0005589 -0.80729747
-0.31670076 1.4553145 -1.117952 11.823519 10.614605 16.142084 0.023277383 1.8758224
10.752061 -2.0066273 -0.2493593 9.417735 -0.12114765 5.134046 4.3029456 -0.07250754
1.8184577 -1.1001612 1.2138253 -3.8303423 5.0502877 -1.2488704 0.001650597 11.378422
10.701184 0.9003133 0.08689704 4.438609 1.067809 -1.2230189 -0.9853925 -1.3925154
2.864409 -4.086796 -0.09794945 2.4182365 0.033656694 -0.16506106 -0.8040296 5.840055
4.001409 1.725471 9.390645 7.0225267 4.6162376 0.026698172 -0.013341766 -2.0270987
-0.6393626 -0.15105435 -0.14112571 -0.20511463 2.2391167 -0.22020334 0.08964303 -1.1378953
-1.2057322 1.7960763 -0.02119301 0.45988375 4.3549156 5.552235 3.0993946 -5.813366
-0.52020866 0.88793224 -0.6442353 13.283976 9.250045 10.815409 -0.023133308 2.2243824
13.34599 -1.8263173 1.2630719 11.42083 0.015573725 7.627858 4.562206 0.036791403
00000000: 7c67 c73f 199a 6e3f d1e8 613f 2d91 00c0
00000010: 2cd4 a740 7f27 90bf 2e66 12be 3ff8 1841
00000020: a014 fb40 f874 b53f c34e 67bd 8506 9c40
00000030: 5157 853f 2216 a4bf 150d 03c0 f2c8 a3bf
00000040: 5066 3b40 5020 ee3f 1c2f 97bb d4fd 1f40
00000050: 2bc3 59bc 9dae 71be e7de 72bf 9bd8 a840
00000060: 602a 9f40 4da1 d93f 0c42 0b41 6c94 aa40
00000070: 3d76 d340 33ea 05bd 3b50 0cbd bc55 593e
00000080: 3a32 9b3e 7da8 463e a20d 81bc d761 f7be
00000090: 80b7 2d40 71ae 9bbe 6ee9 febd 9878 90bf
000000a0: faf8 dabe 0f93 b93f b091 7ebd 6be3 933f
000000b0: ba27 a740 b16c bd40 994a 2640 2a81 3b40
000000c0: 5350 f2bb c482 443f 49d7 5bbf 18ed 3541
000000d0: 5d9f 1041 7461 3c41 29dc a3bd 685c e93f
000000e0: 5b7f 3f41 ea76 04c0 c08c 0340 f45d 3a41
000000f0: 835f 60bd cb32 dc40 378b 8040 37b7 47be
00000100: dc83 a53f 5606 30c0 2cdf d33f 3ce7 debf
00000110: 3f9d a340 b10d cabe ce04 13bf d148 2c41
00000120: b711 2141 cafe c43f 33ce 47bd a50d 9540
00000130: dfd6 7b3f 44bd acbf e49e a83f 5692 91bf
00000140: b3fb 2140 5891 4040 3586 b03c 1cbc 2140
00000150: 0d3c 97bc 4de0 7fbe 0260 a5bf 52c4 6b40
00000160: 9e43 8740 d28a 1040 bb9f 1041 b2bb b940
00000170: c5c3 b840 7db5 94bd ae05 d33b 783a 57bf
00000180: ea09 3fbe 984e 0cbf d59f 41bd 2abf 9abd
00000190: 628d 2240 ac2a 03bf 6026 d1bd 8466 90bf
000001a0: 411b c63d d9c3 bb3f 6921 b43d 1f58 933f
000001b0: b141 9340 c540 e140 bf08 2540 3675 a93f
000001c0: c0d7 02be eed9 373f de96 dfbe 7a3a 2b41
000001d0: 6e2f 0741 9974 3a41 8446 9b3d 30de d03f
000001e0: d972 3341 5884 05c0 3080 7140 17e9 2f41
000001f0: 4630 c9bd 2333 af40 73af 6140 85c6 9f3d
00000200: a1a1 1740 cc89 4840 8ed4 3c3f 1948 2cc0
00000210: 5858 8b40 39eb 15c0 7847 26bd 2747 2241
00000220: d2a1 e540 0c80 3d3f af3a 423d 8d7d 4840
00000230: 9150 8b3f 6047 67bf 6680 4c40 7042 8bbf
00000240: 9d58 3b40 3f0c bebf af03 2c3c 663e 4e40
00000250: d09f 5dbd 720a 87bd 3856 2ebf 0def 8a40
00000260: 0a89 5740 c570 c03f 59c6 3441 2b9d e340
00000270: c997 d940 07de 79bd 1836 8d3c abc0 ef3e
00000280: 39d0 16bf d782 103f 146b 043d 9232 4abf
00000290: 531d 4140 02e1 b2be 4748 06bd f498 61bf
000002a0: ed25 babf 4dcf a33f 4135 03bd 00c7 333d
000002b0: 042c 9b40 b3a3 9f40 2809 0040 0cab 4ebf
000002c0: 9a26 a2be bf47 ba3f 0d19 8fbf 222d 3d41
000002d0: 6cd5 2941 fd22 8141 36b0 be3c f31a f03f
000002e0: 7108 2c41 956c 00c0 0b58 7fbe 0baf 1641
000002f0: 421c f8bd 1b4a a440 bbb1 8940 d57e 94bd
00000300: 39c3 e83f 15d2 8cbf a15e 9b3f 5424 75c0
00000310: f59b a140 fcda 9fbf d858 d83a 040e 3641
00000320: 0d38 2b41 ef7a 663f 13f7 b13d 1609 8e40
00000330: f7ad 883f e28b 9cbf af42 7cbf f23d b2bf
00000340: 7a52 3740 08c7 82c0 b999 c8bd 63c4 1a40
00000350: 9adb 093d c405 29be e2d4 4dbf bbe1 ba40
00000360: 8b0b 8040 3cdc dc3f 1540 1641 8ab8 e040
00000370: 38b8 9340 20b6 da3c 6c97 5abc fcbb 01c0
00000380: 44ad 23bf fead 1abe 4283 10be 9209 52be
00000390: b04d 0f40 fc7c 61be c496 b73d 8ea6 91bf
000003a0: 6f55 9abf d4e5 e53f f79c adbc e275 eb3e
000003b0: 785b 8b40 e9ab b140 7b5c 4640 1807 bac0
000003c0: 652c 05bf 874f 633f 9bec 24bf 2a8b 5441
000003d0: 2f00 1441 ea0b 2d41 1082 bdbc 485c 0e40
000003e0: 2d89 5541 c4c4 e9bf 57ac a13f b8bb 3641
000003f0: f028 7f3c 6a17 f440 97fd 9140 95b2 163d

fc3.bias f4 [6]
2.721806 3.0279417 2.704718 2.773221 4.446661 6.484499
00000000: 1232 2e40 ccc9 4140 1a1a 2d40 747c 3140
00000010: 0c4b 8e40 0481 cf40
