episodes/200/models/dqn_policy.pth (torch, 23142 bytes, 6 tensors)

fc1.weight f4 [64, 8]
000000 58 3d 02 c0 b7 9e 02 3d 35 9d 82 bf ec b2 eb 3d
       -2.0349941 0.031889644 -1.0204226 0.11508736
000010 67 7b 4a bf 6b 39 6c be 39 3e 84 c0 04 cf 80 3e
       -0.7909455 -0.23068778 -4.1325955 0.2515794
000020 e3 40 1a 3f 11 7f a3 bf 54 ec 5a c0 c3 4e 52 3f
       0.6025526 -1.2773153 -3.4206743 0.8215143
000030 7d bc fa 3e cb fb de 3e a9 0c 26 3f a1 f4 40 3f
       0.4897193 0.43551478 0.6486307 0.75373274
000040 81 62 b1 3f 1d 3b 3e bf 59 4d 5a be 34 6e 1a c0
       1.3858186 -0.7430895 -0.21318568 -2.4129763
000050 12 e0 a0 bf f6 79 4a 3f 3c 0b df c0 6c b4 da 3e
       -1.2568381 0.7909235 -6.9701214 0.42715776
000060 d3 62 15 c0 5e 37 5c 3d 8d 98 13 c0 7a b7 09 be
       -2.3341568 0.05376374 -2.306186 -0.13448897
000070 64 93 42 bf e0 6a e1 3e e0 fb 82 c0 e1 2f 97 3e
       -0.7600615 0.44026852 -4.0932465 0.29528716
000080 5d 1b e8 bf 54 68 00 bf 22 9d 24 c0 00 ed 90 3e
       -1.8133351 -0.5015919 -2.5720906 0.28305817
000090 bc d0 8e 3e da 0e a8 bf dd 93 a1 3e b9 06 12 3f
       0.27893627 -1.3129532 0.31558123 0.5704151
0000a0 59 84 c9 be e4 fc dd be 81 a6 a8 be 47 6c e3 3e
       -0.39358786 -0.43357003 -0.32939532 0.44418547
0000b0 b1 33 09 bf cb 05 4b 3c 67 3e 82 c0 95 2e 7e bf
       -0.535945 0.012391518 -4.0701175 -0.9928983
0000c0 3d ef b6 bf e6 68 f5 be 86 6e 64 3e e3 3c 93 bc
       -1.429176 -0.47931594 0.22307786 -0.017973369
0000d0 71 35 a8 be be 3f 0b 3e 5f b5 44 c0 d4 ee 5c 3e
       -0.32853273 0.13598534 -3.07357 0.2157548
0000e0 38 a5 c7 be 20 11 64 be d7 1c b7 be 98 3e 04 3e
       -0.3899324 -0.22272158 -0.3576419 0.12914503
0000f0 fe c3 57 be 44 bd 84 3d 5c 79 de bd f6 31 db bd
       -0.21070859 0.06481412 -0.10862991 -0.10702889
000100 b1 3b fc be 11 43 85 bf 28 ed b3 bf 54 a3 ae be
       -0.4926429 -1.0411092 -1.4056749 -0.34108984
000110 c7 7c da 3d c0 91 a5 be 59 c1 38 c0 94 01 3a 3e
       0.10668331 -0.3233776 -2.886801 0.18164665
000120 13 cb b0 3d ec 89 6f be 9b a6 ac be 4b 84 40 be
       0.08632483 -0.23392457 -0.3372086 -0.18800466
000130 69 cb 3c bd 98 77 1b bd 18 56 82 bd 8d 24 11 3e
       -0.046092425 -0.03795585 -0.06364077 0.141741
000140 b5 2a 93 3e 9f 6f 03 c0 82 84 df be df 23 9f 3f
       0.2874352 -2.0536878 -0.43655783 1.2432822
000150 93 12 1a bf da f9 83 3f b4 32 5d 40 c6 88 3e 40
       -0.6018459 1.0310624 3.4562197 2.977098
000160 f7 08 35 3d 24 89 01 c0 5c db cc 3d 2c f6 29 bf
       0.044198003 -2.0239954 0.10002777 -0.66391253
000170 17 0b 1d 3e 39 21 82 bf 66 54 8e c0 dd f1 df 3e
       0.15336262 -1.0166389 -4.4478025 0.43739215
000180 c0 a1 8c 3e 7f 0a 2f bd 3c 8a cd be a1 c3 45 bf
       0.27467155 -0.04273462 -0.40144527 -0.7725163
000190 0b 84 be bd 2b 32 c9 3e 95 fd 8a c0 a6 b9 0b be
       -0.09302529 0.39296088 -4.343455 -0.13645038
0001a0 ac ef 05 3e 8b 36 f1 be 6d 25 d5 3d f1 df f7 3e
       0.13079709 -0.47111925 0.10407529 0.4841304
0001b0 e9 75 fe bc b0 fd 66 bf 0d bc 15 41 26 65 ca 3e
       -0.031062083 -0.90230846 9.358411 0.39530295
0001c0 ce 38 34 3d 0b 25 71 be b6 a8 51 bd 3f d9 b1 bd
       0.043999486 -0.23549287 -0.051186286 -0.086840145
0001d0 a3 7f 94 be e1 5b 01 3f f3 05 57 c0 fc c8 0e bf
       -0.2900363 0.5053082 -3.359738 -0.5577543
0001e0 55 dd 49 bf 1c b2 3b be 68 c5 bb 3e 5e 6c c5 3d
       -0.7885335 -0.18329662 0.36674047 0.0963981
0001f0 c9 7e 91 bf 17 39 14 bf 43 c0 ad bf 91 cc 8d 3e
       -1.1366817 -0.5789961 -1.3574299 0.27695134
000200 19 05 df 3d e0 aa c2 be 7b ff 5f 3e 10 d2 65 be
       0.10889644 -0.38020992 0.21874802 -0.22443414
000210 65 f6 91 be 43 bb 9f bb 4e 83 6e be 73 02 18 be
       -0.28508297 -0.0048746183 -0.23292276 -0.14844684
000220 da ba 9e 3e 9d 7f 65 be 8b 50 61 be db 0e 51 be
       0.3100193 -0.22411962 -0.22003381 -0.20415823
000230 1b e7 2a be ee f1 9f be d5 34 70 be 64 40 bd bd
       -0.16689722 -0.31239265 -0.23457654 -0.09240797
000240 0f 0f b8 bd 34 39 cd 3f 1b ad bd bd ca 4a c3 bf
       -0.08987247 1.6033082 -0.09261533 -1.5257199
000250 68 54 b6 3e d5 8c ac 3f 75 cc 1d c1 46 b8 f8 bf
       0.35611272 1.3480479 -9.862416 -1.9431236
000260 20 e4 dc 3e c7 ea f7 bd d4 be 18 bf f4 09 6c 3f
       0.43142796 -0.12105327 -0.5966618 0.9220269
000270 b7 9f ef bf 7f e5 87 bf c4 91 8c c0 73 26 23 3f
       -1.8720616 -1.0616912 -4.3927937 0.63730544
000280 27 8c 44 3e 3a e5 73 be ef b6 4d be d0 5d e9 3e
       0.19194089 -0.23817912 -0.20089315 0.45579386
000290 8e cf 02 be ce b9 37 3f 9a 1a ca 40 3d c0 6c bf
       -0.12774488 0.7176789 6.3157473 -0.9248083
0002a0 74 ab 06 c0 7a 86 a8 3f 86 eb 65 bf 73 e2 54 3f
       -2.1042147 1.3166039 -0.89812505 0.83158034
0002b0 9c 2c 11 3d ea 6c 08 bd de 3d 48 3e 57 91 4c 3f
       0.035442933 -0.033306994 0.1955485 0.7990927
0002c0 99 35 a8 bd 49 c1 92 3e 3b 8c c9 be c5 39 a0 be
       -0.08213348 0.2866309 -0.393648 -0.31294075
0002d0 c8 d8 a3 be d3 b9 ac be da 3b 9c be 51 b2 60 be
       -0.32001328 -0.33735523 -0.30514413 -0.21943022
0002e0 eb e6 f9 40 57 14 5c 3f b9 35 09 c1 18 b6 8a bf
       7.809438 0.85968536 -8.575616 -1.0836821
0002f0 16 8b 24 be 97 8a 5f bd 44 fd a8 be 48 9b 27 3f
       -0.16068682 -0.05457553 -0.33005726 0.65471315
000300 cb 5b c2 c0 9d 30 a1 bf be 0e 84 c0 d8 25 6c 3e
       -6.073705 -1.2592961 -4.1267996 0.23061311
000310 05 6d bc bf 7f ca 44 3f 27 48 a3 c0 e6 ad 04 3f
       -1.472077 0.76871485 -5.1025577 0.5182785
000320 7d 70 55 bc 95 6d da bd 16 9e 07 3d 5b 95 b8 3b
       -0.013027308 -0.10665432 0.033109747 0.005633039
000330 35 7c e9 bd d5 3f ca 3e 45 c4 39 c1 fe 09 6d bf
       -0.11400644 0.39501825 -11.610417 -0.9259337
000340 68 be 14 bd b1 0b 02 be cf 00 af be 54 82 9c be
       -0.036314398 -0.12699772 -0.34180304 -0.30568182
000350 dc 33 46 3e b3 b5 f9 bd b0 60 76 bc 61 f2 94 3d
       0.1935572 -0.121928595 -0.0150377005 0.072727926
000360 59 b0 a5 bc a8 f5 64 40 62 12 7a 3c 0e 24 64 c0
       -0.02022569 3.5774937 0.015263172 -3.5647006
000370 2c dd 7e 3d 4c 4d 5c 3d 7b 1f 96 be 32 3d b5 be
       0.062222645 0.053784654 -0.29320893 -0.3539825
000380 0b 0f 94 bb fa c2 82 be f0 4f 9a be 76 fa 92 3e
       -0.004518395 -0.2553938 -0.30139112 0.28706712
000390 10 37 75 be 5b e5 ad be 15 7d a1 be 7b 92 44 3e
       -0.23946786 -0.33964047 -0.31540743 0.19196503
0003a0 ca 6b bd bf b5 2d 0d bf de 4f 82 bf d3 45 d8 be
       -1.479852 -0.5514787 -1.0180624 -0.42240772
0003b0 f7 ab df be a2 b8 dc 3e 8e 6b 10 c0 d4 8d a1 3e
       -0.43685886 0.43109614 -2.2565646 0.3155352
0003c0 74 52 93 3f 36 4e d6 bf 37 64 64 c0 4e f4 3e be
       1.1509538 -1.6742618 -3.5686166 -0.18647882
0003d0 b7 c2 b7 3e 86 d5 84 3e ee 66 9f 3f 1b 5a 62 3f
       0.35890743 0.25944155 1.2453287 0.8841874
0003e0 b7 99 b1 3c 0a 5b ba be 05 65 f4 bd 7c ef 2a 3c
       0.021679742 -0.36397582 -0.119333304 0.010433074
0003f0 10 2d 34 be e7 55 31 be 95 87 a7 be b7 40 aa be
       -0.17595315 -0.17317925 -0.32720628 -0.33252499

fc1.bias f4 [64]
000000 18 bf 8b 3e 6b e0 db bf 79 6e f9 be 16 a2 b2 bd
       0.2729423 -1.7177862 -0.48717096 -0.08722322
000010 c1 2e 42 bf 55 da 42 3f 27 31 e0 bd 84 d7 14 3d
       -0.7585259 0.761144 -0.10946875 0.036338344
000020 aa 45 fe 3e 90 ab 67 be a8 5c c5 bf f7 31 0f bf
       0.49662524 -0.2262404 -1.5418901 -0.55935615
000030 65 c9 a0 bd 16 fa 5b bf 66 8a 98 3d b6 96 40 3e
       -0.07850913 -0.85928476 0.074482724 0.18807492
000040 e0 77 6b be c1 25 dd bd 39 b1 1b 3f b1 08 fd be
       -0.22994947 -0.107982166 0.60817295 -0.49420694
000050 7f 3e 9b bf 83 ab 53 bf 56 ae 9b 3a 53 fe 34 3e
       -1.2128447 -0.8268358 0.0011877518 0.17675142
000060 17 3b 25 3f f9 1a 13 40 4e 4a 97 be ba 69 5c 3c
       0.6454329 2.2985213 -0.29548877 0.013452942
000070 97 26 80 be 81 06 47 3e dc a0 c9 bf b8 6d a8 3d
       -0.25029442 0.19436075 -1.5752215 0.08224052
000080 68 43 76 bd 5d 71 8d 3e 15 91 e2 3f 95 22 0e c0
       -0.060122877 0.27625552 1.7700526 -2.2208607
000090 f9 a4 ee 3f ef 79 b6 be c0 dd aa 3d 48 85 4e bf
       1.8644096 -0.35639903 0.08343077 -0.8067212
0000a0 92 3e 98 be 24 2c a2 be 3a 7a 0d be e5 29 8e be
       -0.29735237 -0.31674302 -0.13816157 -0.27766338
0000b0 df a9 a9 be a6 7a 09 be b3 da 8a be 73 7b cb 3d
       -0.33137414 -0.13425693 -0.2711998 0.099356554
0000c0 74 15 ac be f9 31 75 3f 1f ac 9d bf 70 d1 f7 3d
       -0.33610117 0.9577938 -1.2318152 0.12100494
0000d0 3e 4f e0 be 92 11 2c 3f 31 b2 ce bd 3e ee 99 bc
       -0.43810457 0.6721431 -0.10092581 -0.01879036
0000e0 f1 a9 a3 be 12 61 df 3d 2c 09 ac bf 0e 4c ca 3e
       -0.31965593 0.109071866 -1.3440299 0.3951115
0000f0 ba 59 a1 3f e1 f7 9e bf fb f3 ad be 39 d6 af bf
       1.2605507 -1.2419397 -0.33975205 -1.373725

fc2.weight f4 [64, 64]
000000 37 e3 01 40 1b e8 be 3f b4 3e ab bd a6 09 94 be
       2.029493 1.4914583 -0.08361569 -0.2891361
000010 52 5e b9 3f ab 91 f9 bc 39 72 7f bd 90 92 d1 3c
       1.4481909 -0.030464968 -0.06236479 0.025582582
000020 c4 06 d5 be 0a 87 b9 3d be ce 72 3f d2 73 8b bf
       -0.41606724 0.0905896 0.94846714 -1.089472
000030 02 85 40 be 3b c2 84 3f c4 17 2c 3f 2a cb b3 bf
       -0.18800738 1.0371774 0.67223763 -1.4046376
000040 a8 a9 8b 3c 7a 1e 99 bd d5 22 97 be 8e c3 89 be
       0.017048672 -0.07476516 -0.29518762 -0.2690701
000050 90 a2 a5 3e 84 79 67 3d b0 31 16 bd 6f 5e a1 40
       0.32350588 0.05651237 -0.03666848 5.0427775
000060 a8 15 c7 bf bc ac 1b 3f 8e 16 b0 bd e1 d7 73 bf
       -1.5553484 0.60810447 -0.08598052 -0.9525128
000070 24 d0 dc bd 4f 89 95 bf 71 db e2 3f 3e c8 75 3d
       -0.10781887 -1.1682528 1.7723218 0.06000542
000080 af 3e 5d 3f ee 43 26 c0 0d 3c 76 bd ff be ac 3f
       0.8642377 -2.597896 -0.060115863 1.3495787
000090 8a de 77 3f ab aa e9 be b0 d0 03 3f f2 7f 54 3f
       0.9682394 -0.45638022 0.51490307 0.8300773
0000a0 10 65 37 3d 06 69 94 3d 88 4b 2f 3d 66 e7 38 3f
       0.044774115 0.07246594 0.04279664 0.72228086
0000b0 5b 47 35 c0 4d ad 2d c0 9f 73 5e bf 83 fd 6e 3f
       -2.8324802 -2.7137024 -0.86895174 0.9335558
0000c0 58 94 95 3d ef b7 e7 3e 8a 3f 86 3d 67 b6 ad 3d
       0.07303685 0.45257518 0.06555088 0.08482056
0000d0 9f e2 d6 bc d7 75 53 bf 6f d1 d3 3f 82 aa d6 3e
       -0.026231108 -0.82601684 1.6548289 0.41926962
0000e0 76 4e f1 3d 54 1a bc 3b f7 50 53 3f fa 6c 54 3f
       0.11782543 0.0057404432 0.8254542 0.82978785
0000f0 15 c1 da be bb ff a0 bf d0 d0 1d 3c 73 66 20 bf
       -0.42725435 -1.2578043 0.009632304 -0.62656325
000100 42 53 68 3e 70 20 c5 bf 4b b1 8e 3f 04 5d 0d be
       0.2268801 -1.5400524 1.1147856 -0.13805014
000110 ad f7 54 3f 53 87 0e 40 2a 83 1b 3f 6a e4 c4 3d
       0.83190423 2.2270095 0.60747015 0.09613879
000120 7f ab 21 bc 5c 51 b2 bd 2f a8 22 c0 fd 8a 9e be
       -0.009867548 -0.08706924 -2.541515 -0.30965415
000130 77 3e a6 bf 15 ce 40 c0 8b a5 43 3f 36 b1 b5 3e
       -1.2987813 -3.0125782 0.76424474 0.35486764
000140 4c 07 ee 3d d4 6d 2c 3d aa 5a 44 3f 3b d0 9c 3f
       0.116224855 0.042096928 0.7670084 1.2251047
000150 54 44 40 c0 41 70 b4 bf ec b0 c5 3d 00 da 8b bf
       -3.0041704 -1.4096757 0.09652886 -1.0925903
000160 65 66 82 3f ef 27 38 40 90 b9 f2 bc 29 21 11 c0
       1.0187498 2.8774374 -0.029629499 -2.267649
000170 a0 fb b6 3c 00 86 02 bf 52 27 ae c0 26 71 8d 3d
       0.022336781 -0.5098572 -5.4423 0.06906347
000180 b2 9c c1 3d 45 c7 48 bf 81 1c 5e be 26 b4 47 c0
       0.094537154 -0.7842906 -0.21690561 -3.1203704
000190 0b 8b ef bf 02 14 9f bf 85 98 ea bd 94 d5 10 c0
       -1.8714308 -1.2427981 -0.11454872 -2.2630358
0001a0 06 55 ad bd f0 14 b1 bd e8 2a 13 3d ae ed 21 c0
       -0.084634826 -0.08646572 0.03592959 -2.5301318
0001b0 30 b6 01 c0 98 07 20 be 4b 49 c2 bf 4f 2b bd bd
       -2.0267448 -0.15627897 -1.5178617 -0.09236776
0001c0 1c 98 eb 3d b3 a4 ea be 19 93 ab be b7 48 90 bd
       0.11503622 -0.4582878 -0.33510664 -0.07045119
0001d0 70 32 be bd ad e5 93 be 6e b1 6b bf 34 25 9e 3e
       -0.09286964 -0.28886166 -0.9206761 0.3088776
0001e0 f8 c4 e7 bd 28 18 c0 3d e9 08 c3 3f 53 b3 76 3f
       -0.11316866 0.093796074 1.5237094 0.9636738
0001f0 e7 34 08 bf 7c 6a 91 bf 40 45 d6 bc 3d 55 df bf
       -0.5320572 -1.1360621 -0.026156068 -1.7447888
000200 f7 6d 1e 3f e0 e6 34 3f 9b cc 4a be b5 5b 7b 3f
       0.61886543 0.7066479 -0.19804613 0.9818681
000210 b7 08 00 3f c2 03 d8 3e 77 94 52 be 05 aa 74 3d
       0.500133 0.42190367 -0.20564447 0.059732456
000220 27 70 50 bf ae fb 9c bd d8 e6 a1 3e e1 45 92 bf
       -0.8142113 -0.076651916 0.31621432 -1.1427575
000230 b2 76 1c 3f c5 17 ae 3e 9a b4 ac bf 61 1e a3 be
       0.61118615 0.3400251 -1.3492615 -0.31859115
000240 ad 8f a9 3d 1c 80 f0 bd 50 00 e9 be b9 c4 cb bf
       0.08279357 -0.11743185 -0.4550805 -1.591941
000250 bc fe 10 3e 03 04 23 bf 83 21 1d be 64 95 a7 bf
       0.14159673 -0.63677996 -0.15344815 -1.3092465
000260 a1 b5 29 bf d1 b1 09 c0 d4 cc ab 3d 13 7b ba be
       -0.6629277 -2.151478 0.08388677 -0.36422023
000270 a6 2a 92 bd 70 7a 41 bf e9 7b e4 3e 03 93 20 be
       -0.07137041 -0.7557745 0.44625786 -0.1568108
000280 43 ef c2 be ae b9 fc bf 4d 66 cd bd fa bb 99 be
       -0.38073167 -1.9744165 -0.10029278 -0.30026227
000290 23 c2 4f bf 92 29 74 3f 40 9d fd 3d 22 38 3d bf
       -0.81155604 0.9537593 0.12383509 -0.73913777
0002a0 b8 04 8a bc ec f3 ef bc 5d be b5 3d 13 3a a0 3f
       -0.016847953 -0.029291116 0.088741995 1.2517723
0002b0 68 69 12 bf 9f 0f a6 bf 2e 17 1a bd ac 90 99 c0
       -0.5719209 -1.2973517 -0.037619762 -4.79891
0002c0 0e c7 c3 3d 97 60 1d be a1 ba e3 3e ed 04 fb 3c
       0.09559451 -0.15368877 0.44478324 0.030641997
0002d0 57 42 3b 3d cf 81 39 bd a1 82 80 bf 63 7a 1f be
       0.045717563 -0.04528981 -1.0039865 -0.1557403
0002e0 a4 45 85 3d 2e b1 4f be 0c b3 33 3d 3b 64 c7 bd
       0.065074235 -0.20282432 0.043871924 -0.09735914
0002f0 58 c1 ea 3e eb 51 62 be e6 cd dd 3d ed bd 75 3f
       0.45850635 -0.22101562 0.10830288 0.9599293
000300 b1 cf 63 3f 2d 5d ae c0 53 3f 18 40 17 96 82 be
       0.88988787 -5.448874 2.378865 -0.25505134
000310 32 de 04 bf 8d 4d 8b bf de 9c 3e 3f aa bf 8b 3d
       -0.51901543 -1.0883042 0.7445811 0.068236664
000320 87 d5 26 3f 14 75 1d bd 14 df 5f c0 cc 9d 37 3f
       0.65169567 -0.038441733 -3.4979906 0.71725154
000330 76 a1 a2 3f ad 1e 8b c0 fc 1b e7 be e9 70 a5 be
       1.2705524 -4.3474946 -0.45138538 -0.32312706
000340 32 07 ea 3d 30 93 c4 3d 75 bd 7d 3f 31 d1 d9 3f
       0.11427154 0.09598386 0.99117213 1.7016965
000350 d5 46 59 c1 cb 17 12 c0 70 84 d1 bd 19 74 9a c0
       -13.579793 -2.2827022 -0.102303386 -4.826672
000360 72 7e 4a 40 78 6a ed 40 b6 6b e7 bd a4 f7 da c0
       3.1639676 7.4192467 -0.11299841 -6.8427296
000370 c8 8c 36 bd d5 5b b8 3f 21 77 d6 bf a4 7c e2 bd
       -0.044567853 1.4403025 -1.6755105 -0.110589296
000380 6c f9 f3 3e 03 40 ba 3e d3 7e 36 40 0e 20 96 c0
       0.4765123 0.36376962 2.8514907 -4.691413
000390 c9 39 16 3f d8 8e 7d c0 16 97 3f 3e 9a 83 9f c0
       0.58681923 -3.9618435 0.18709978 -4.9848146
0003a0 40 06 f3 bc da 29 5b bd da f1 f6 3d 75 0b 0f c0
       -0.029666066 -0.05350671 0.12057848 -2.2350743
0003b0 2a 16 9c c0 c0 d9 12 c1 48 ab 19 bf a1 89 2a 40
       -4.8777056 -9.178162 -0.6002698 2.6646502
0003c0 78 93 cf bd bd b5 23 bf 62 2a 3c c0 7c db c3 3d
       -0.10135549 -0.63949186 -2.9400868 0.09563348
0003d0 78 b5 f3 bc 4c b3 c6 3f 1e fe 81 3f 88 61 49 3f
       -0.029749617 1.5523467 1.0155675 0.78664446
0003e0 80 64 8e bb 62 35 c9 bd 0f bb 43 c0 05 dc 5b 3f
       -0.0043454766 -0.09824635 -3.0582922 0.858826
0003f0 fd 36 0e c1 11 e9 dd c0 50 d7 98 bc a5 60 b9 c0
       -8.888425 -6.9347005 -0.018657357 -5.7930474

fc2.bias f4 [64]
000000 8e 52 84 3f bb 9d df 3e 80 c1 1b 40 ce 32 b6 3f
       1.0337694 0.43675026 2.4336853 1.4234254
000010 ef 29 01 3f 5b 4a aa bf 59 52 06 40 c5 71 05 c0
       0.5045461 -1.3303941 2.098776 -2.085069
000020 d8 35 a9 bf 81 f4 a5 bf 7c f2 40 be 3f 6a 36 bd
       -1.3219557 -1.2965242 -0.188425 -0.044534918
000030 b0 e3 02 c0 bb 2a 45 c0 0e d2 2f be 9a 5e f9 3e
       -2.045147 -3.080733 -0.17169973 0.48704988
000040 fa c3 af 40 6f 4c 6b bf ff 54 b8 bc b6 40 8c 40
       5.492673 -0.91913503 -0.022501467 4.3828993
000050 4f ab 34 be a8 83 6e 3f 61 50 5c 3f c8 95 cd be
       -0.17643474 0.9316964 0.8606015 -0.40153337
000060 56 15 53 bf 12 e0 84 40 18 f6 cd be e8 57 fe 3f
       -0.8245443 4.1523523 -0.40226817 1.9870577
000070 d5 9c 07 c0 d2 41 1a be 6c ed f6 bd 17 b0 df bf
       -2.1189473 -0.15064171 -0.120570034 -1.7475613
000080 74 72 5b c0 7c d4 49 bf 04 9e 99 bd 86 c9 40 bf
       -3.4288607 -0.7883985 -0.07500842 -0.753075
000090 72 89 18 40 e1 1a 3c 3f 46 38 4b be 78 c6 a3 3f
       2.383389 0.73478514 -0.19845685 1.2794943
0000a0 e1 4f 77 ba 55 f0 a2 40 37 e1 6a be bd e5 03 be
       -0.0009434205 5.0918374 -0.22937475 -0.12880607
0000b0 2d 4d a6 3f 4b 34 d1 bf 8d 1b 7a 3f 2a fc 36 3e
       1.2992302 -1.6344084 0.9769829 0.1786963
0000c0 74 d5 f0 3f 49 7b 5a 40 91 99 ba 3f 00 54 4b bf
       1.8815141 3.4137747 1.4578115 -0.7942505
0000d0 0c c5 b4 be be 60 9f bf dc 8e 26 be a2 f2 a8 40
       -0.35306585 -1.2451398 -0.16265434 5.2796183
0000e0 1f b2 43 c0 9e 4c 92 bf d8 84 4f bf 46 cd c5 bf
       -3.0577466 -1.1429632 -0.8106208 -1.545327
0000f0 06 6c f0 bd 22 1d f2 bf c4 e1 06 bf df 8c 21 be
       -0.11739354 -1.8915141 -0.5268824 -0.15776394

fc3.weight f4 [6, 64]
000000 a4 d9 ed 3f 19 9a 6e 3f 5c be 2a 3f 2d 91 00 c0
       1.8582044 0.93203884 0.66696715 -2.0088608
000010 19 6d 9e 40 79 cf b9 bf 90 2c c5 be 3f f8 18 41
       4.9508176 -1.4516441 -0.3851056 9.560607
000020 a0 14 fb 40 1d 7e 48 3f c3 4e 67 bd cc 45 9f 40
       7.8462677 0.78317434 -0.056471597 4.97727
000030 43 90 79 3f 47 f8 70 bf 15 0d 03 c0 85 e5 b1 bf
       0.9748575 -0.9412884 -2.0476735 -1.3898169
000040 fa 90 3c 40 50 20 ee 3f 1c 2f 97 bb 25 52 33 40
       2.9463487 1.8603611 -0.00461377 2.8018887
000050 2b c3 59 bc b6 d0 a6 3e 32 07 85 bf 9b d8 a8 40
       -0.013291161 0.3258111 -1.0392821 5.276441
000060 0b 45 c4 40 d3 3b fe 3f 0c 42 0b 41 14 11 f3 40
       6.133428 1.9862007 8.703625 7.5958347
000070 3d 76 d3 40 33 ea 05 bd 3b 50 0c bd bc 55 59 3e
       6.6081834 -0.032694053 -0.0342562 0.21224111
000080 9b 7e 9d bd 71 e1 93 be a2 0d 81 bc b8 c6 b1 3f
       -0.07690164 -0.28882936 -0.015753571 1.3888769
000090 c2 10 28 40 7e 5e fa be 6e e9 fe bd 8c bd 0f bf
       2.6260228 -0.48900217 -0.12446867 -0.561486
0000a0 03 6e 80 bf a5 8a 9d 3f b0 91 7e bd 6b e3 93 3f
       -1.0033573 1.2307936 -0.062150657 1.1553777
0000b0 97 10 9f 40 ad 56 fc 40 74 ca 3a 40 2a 81 3b 40
       4.970775 7.8855805 2.9186068 2.9297585
0000c0 d0 ab b3 3e 95 12 94 3f 96 8b 66 bf ac e6 15 41
       0.3509202 1.1568171 -0.9005674 9.368816
0000d0 5d 9f 10 41 74 f0 3b 41 29 dc a3 bd a0 61 05 40
       9.038907 11.746204 -0.080009766 2.0840836
0000e0 67 07 59 41 bd 37 f3 bf c0 8c 03 40 f4 5d 3a 41
       13.564307 -1.9001385 2.0554657 11.647938
0000f0 83 5f 60 bd e0 3b ea 40 93 88 00 41 37 b7 47 be
       -0.054778587 7.319809 8.033343 -0.19503485
000100 87 dd af 3f 56 06 30 c0 36 b9 a1 3f 56 be d3 bf
       1.373948 -2.7503867 1.2634647 -1.6542461
000110 5d 36 a4 40 e2 53 2f bf 2e a5 2d be d1 48 2c 41
       5.131636 -0.6848737 -0.16957542 10.767777
000120 b7 11 21 41 ee d6 aa 3f 33 ce 47 bd a5 0d 95 40
       10.066825 1.3346841 -0.04878063 4.6579156
000130 aa 23 79 3f 0a 14 38 bf e4 9e a8 3f 70 32 96 bf
       0.97320044 -0.7190558 1.317349 -1.1734142
000140 97 86 2e 40 58 91 40 40 35 86 b0 3c ba e4 22 40
       2.7269647 3.008871 0.02154837 2.5452104
000150 0d 3c 97 bc 1b 10 00 3e db c4 a2 bf 52 c4 6b 40
       -0.018461252 0.12506144 -1.2716326 3.6838574
000160 c2 3d d7 40 4c 7a 16 40 bb 9f 10 41 b2 4c fd 40
       6.726289 2.3512144 9.038997 7.915612
000170 c5 c3 b8 40 7d b5 94 bd ae 05 d3 3b 78 3a 57 bf
       5.7738976 -0.07261179 0.006439886 -0.8407359
000180 49 69 57 3e c4 ae 62 bf 4a 1c 53 bd 35 d5 a4 3f
       0.21036257 -0.8854792 -0.05154065 1.2877566
000190 86 70 2a 40 b7 ad 0d bf 60 26 d1 bd 91 ac 1b bf
       2.663118 -0.5534319 -0.102123976 -0.6081019
0001a0 2d af b7 be 46 29 b4 3f 69 21 b4 3d 1f 58 93 3f
       -0.35875836 1.4075096 0.08795435 1.1511267
0001b0 48 06 a8 40 d1 10 01 41 af 25 3e 40 36 75 a9 3f
       5.2507668 8.066606 2.97105 1.3238895
0001c0 d4 1e df 3d c7 dd 72 3f 7f c4 2b bf 9f f4 35 41
       0.10894552 0.94869655 -0.67096704 11.372222
0001d0 6e 2f 07 41 bd c1 39 41 84 46 9b 3d 9c 5c 01 40
       8.4490795 11.609799 0.07581809 2.0212774
0001e0 2a ce 51 41 32 0b ef bf 30 80 71 40 17 e9 2f 41
       13.112833 -1.8675292 3.773449 10.994407
0001f0 46 30 c9 bd 0a 2e ac 40 b2 64 0b 41 85 c6 9f 3d
       -0.098236606 5.38062 8.712084 0.078015365
000200 b6 d1 17 40 cc 89 48 40 d3 b9 03 3f aa 3f 2a c0
       2.3721747 3.1334105 0.5145542 -2.6601357
000210 d3 a4 96 40 13 6d 12 c0 5b 71 dc be 27 47 22 41
       4.70762 -2.2879074 -0.43055233 10.142371
000220 d2 a1 e5 40 e7 31 5b 3f af 3a 42 3d bb 9b 42 40
       7.1760035 0.8562302 0.047419246 3.040755
000230 79 96 65 3f a8 17 95 bf 66 80 4c 40 31 ec 8d bf
       0.8968273 -1.1647844 3.1953368 -1.1087705
000240 f0 60 49 40 3f 0c be bf af 03 2c 3c ee 12 3b 40
       3.1465416 -1.4847487 0.010498925 2.9230304
000250 d0 9f 5d bd d6 a0 79 3e 24 55 38 bf 0d ef 8a 40
       -0.054107487 0.2437776 -0.72004914 4.341681
000260 2d 8f a6 40 a8 53 d6 3f 59 c6 34 41 6a 1d 12 41
       5.2049775 1.674428 11.298425 9.132181
000270 99 93 d8 40 07 de 79 bd 18 36 8d 3c 1a 7d df 3e
       6.7680173 -0.061002757 0.017237708 0.43650132
000280 28 eb 24 bf f3 e4 6d 3e 61 ef 01 3c 41 fd 27 3f
       -0.6442132 0.23231868 0.007930608 0.6562081
000290 13 3b 33 40 46 a4 df be 47 48 06 bd f9 41 4b bf
       2.8004806 -0.43680018 -0.032783773 -0.7939754
0002a0 90 34 bc bf bc 7d b5 3f 41 35 03 bd 00 c7 33 3d
       -1.4703541 1.4178996 -0.03203321 0.043890953
0002b0 1c 70 a8 40 38 17 08 41 e6 4f 18 40 0c ab 4e bf
       5.263685 8.505669 2.3798766 -0.80729747
0002c0 8d 69 03 3e ae b0 af 3f d8 9b 61 bf af 3e 3f 41
       0.12833233 1.3725793 -0.88128424 11.952804
0002d0 6c d5 29 41 6f ea 81 41 36 b0 be 3c a6 a4 02 40
       10.614605 16.23947 0.023277383 2.0412993
0002e0 01 99 55 41 74 fe f6 bf 0b 58 7f be b9 8b 16 41
       13.349854 -1.9296403 -0.2493593 9.409112
0002f0 42 1c f8 bd 03 85 aa 40 5a 2f 19 41 d5 7e 94 bd
       -0.12114765 5.328737 9.57406 -0.07250754
000300 18 c3 ef 3f 9d 18 81 bf 11 94 4e 3f c1 2c 77 c0
       1.8731413 -1.0085636 0.8069468 -3.8621066
000310 e2 5b 8d 40 e9 c7 bc bf 68 b0 a9 be 04 0e 36 41
       4.417466 -1.4748508 -0.331424 11.378422
000320 fb 28 2c 41 bd 67 a3 3f 13 f7 b1 3d c4 8c 90 40
       10.760005 1.2766033 0.08689704 4.5171833
000330 e7 41 65 3f 66 0e b2 bf af 42 7c bf 89 69 d0 bf
       0.89553684 -1.3910644 -0.9853925 -1.6282207
000340 d8 d0 44 40 08 c7 82 c0 b9 99 c8 bd 77 61 38 40
       3.0752468 -4.086796 -0.09794945 2.8809488
000350 76 91 f9 3a 22 50 13 3e 30 29 35 bf bb e1 ba 40
       0.0019040543 0.14386037 -0.7076597 5.840055
000360 49 36 b2 40 d5 06 e9 3f 15 40 16 41 74 1f 1e 41
       5.5691266 1.820521 9.390645 9.882679
000370 38 b8 93 40 20 b6 da 3c 6c 97 5a bc fc bb 01 c0
       4.6162376 0.026698172 -0.013341766 -2.0270987
000380 aa 82 32 3f 4a 46 93 be 1f fc df bd 1f 3a 66 be
       0.6973063 -0.28764564 -0.1093676 -0.22483109
000390 f5 4a 18 40 e1 36 3d be c4 96 b7 3d 9f 7a 3b bf
       2.379575 -0.18477966 0.08964303 -0.7323398
0003a0 11 93 a5 bf 46 b5 01 40 f7 9c ad bc e2 75 eb 3e
       -1.2935506 2.026689 -0.02119301 0.45988375
0003b0 b5 35 a9 40 c3 dd 00 41 66 e5 4c 40 18 07 ba c0
       5.287806 8.054141 3.2015014 -5.813366
0003c0 2a 57 89 bd 11 58 51 3f 16 e4 17 be 55 90 76 41
       -0.06706078 0.81775004 -0.14833102 15.410237
0003d0 2f 00 14 41 1c ac 2a 41 10 82 bd bc 1c 15 12 40
       9.250045 10.667019 -0.023133308 2.2825384
0003e0 10 06 6c 41 b0 65 da bf 57 ac a1 3f 9e 39 36 41
       14.75148 -1.7062283 1.2630719 11.389067
0003f0 f0 28 7f 3c 4f e0 e1 40 92 b7 0c 41 95 b2 16 3d
       0.015573725 7.0586314 8.794817 0.036791403

fc3.bias f4 [6]
000000 69 e9 45 40 79 b8 5a 40 13 25 3c 40 eb b0 3a 40
       3.0923712 3.4175093 2.9397628 2.9170482
000010 b4 7b 99 40 58 a9 d2 40
       4.7963505 6.583172
